{"class_name": "Model", "config": {"name": "model_5", "layers": [{"name": "input_334", "class_name": "InputLayer", "config": {"batch_input_shape": [null, 1], "dtype": "float32", "sparse": false, "name": "input_334"}, "inbound_nodes": []}, {"name": "input_335", "class_name": "InputLayer", "config": {"batch_input_shape": [null, 1], "dtype": "float32", "sparse": false, "name": "input_335"}, "inbound_nodes": []}, {"name": "input_336", "class_name": "InputLayer", "config": {"batch_input_shape": [null, 1], "dtype": "float32", "sparse": false, "name": "input_336"}, "inbound_nodes": []}, {"name": "input_337", "class_name": "InputLayer", "config": {"batch_input_shape": [null, 1], "dtype": "float32", "sparse": false, "name": "input_337"}, "inbound_nodes": []}, {"name": "input_338", "class_name": "InputLayer", "config": {"batch_input_shape": [null, 1], "dtype": "float32", "sparse": false, "name": "input_338"}, "inbound_nodes": []}, {"name": "input_339", "class_name": "InputLayer", "config": {"batch_input_shape": [null, 1], "dtype": "float32", "sparse": false, "name": "input_339"}, "inbound_nodes": []}, {"name": "input_340", "class_name": "InputLayer", "config": {"batch_input_shape": [null, 1], "dtype": "float32", "sparse": false, "name": "input_340"}, "inbound_nodes": []}, {"name": "input_341", "class_name": "InputLayer", "config": {"batch_input_shape": [null, 1], "dtype": "float32", "sparse": false, "name": "input_341"}, "inbound_nodes": []}, {"name": "input_342", "class_name": "InputLayer", "config": {"batch_input_shape": [null, 1], "dtype": "float32", "sparse": false, "name": "input_342"}, "inbound_nodes": []}, {"name": "input_343", "class_name": "InputLayer", "config": {"batch_input_shape": [null, 1], "dtype": "float32", "sparse": false, "name": "input_343"}, "inbound_nodes": []}, {"name": "input_344", "class_name": "InputLayer", "config": {"batch_input_shape": [null, 1], "dtype": "float32", "sparse": false, "name": "input_344"}, "inbound_nodes": []}, {"name": "input_345", "class_name": "InputLayer", "config": {"batch_input_shape": [null, 1], "dtype": "float32", "sparse": false, "name": "input_345"}, "inbound_nodes": []}, {"name": "input_346", "class_name": "InputLayer", "config": {"batch_input_shape": [null, 1], "dtype": "float32", "sparse": false, "name": "input_346"}, "inbound_nodes": []}, {"name": "input_347", "class_name": "InputLayer", "config": {"batch_input_shape": [null, 1], "dtype": "float32", "sparse": false, "name": "input_347"}, "inbound_nodes": []}, {"name": "input_348", "class_name": "InputLayer", "config": {"batch_input_shape": [null, 1], "dtype": "float32", "sparse": false, "name": "input_348"}, "inbound_nodes": []}, {"name": "input_349", "class_name": "InputLayer", "config": {"batch_input_shape": [null, 1], "dtype": "float32", "sparse": false, "name": "input_349"}, "inbound_nodes": []}, {"name": "input_350", "class_name": "InputLayer", "config": {"batch_input_shape": [null, 1], "dtype": "float32", "sparse": false, "name": "input_350"}, "inbound_nodes": []}, {"name": "input_351", "class_name": "InputLayer", "config": {"batch_input_shape": [null, 1], "dtype": "float32", "sparse": false, "name": "input_351"}, "inbound_nodes": []}, {"name": "input_352", "class_name": "InputLayer", "config": {"batch_input_shape": [null, 1], "dtype": "float32", "sparse": false, "name": "input_352"}, "inbound_nodes": []}, {"name": "input_353", "class_name": "InputLayer", "config": {"batch_input_shape": [null, 1], "dtype": "float32", "sparse": false, "name": "input_353"}, "inbound_nodes": []}, {"name": "input_354", "class_name": "InputLayer", "config": {"batch_input_shape": [null, 1], "dtype": "float32", "sparse": false, "name": "input_354"}, "inbound_nodes": []}, {"name": "input_355", "class_name": "InputLayer", "config": {"batch_input_shape": [null, 1], "dtype": "float32", "sparse": false, "name": "input_355"}, "inbound_nodes": []}, {"name": "input_356", "class_name": "InputLayer", "config": {"batch_input_shape": [null, 1], "dtype": "float32", "sparse": false, "name": "input_356"}, "inbound_nodes": []}, {"name": "input_357", "class_name": "InputLayer", "config": {"batch_input_shape": [null, 1], "dtype": "float32", "sparse": false, "name": "input_357"}, "inbound_nodes": []}, {"name": "input_358", "class_name": "InputLayer", "config": {"batch_input_shape": [null, 1], "dtype": "float32", "sparse": false, "name": "input_358"}, "inbound_nodes": []}, {"name": "input_359", "class_name": "InputLayer", "config": {"batch_input_shape": [null, 1], "dtype": "float32", "sparse": false, "name": "input_359"}, "inbound_nodes": []}, {"name": "input_360", "class_name": "InputLayer", "config": {"batch_input_shape": [null, 1], "dtype": "float32", "sparse": false, "name": "input_360"}, "inbound_nodes": []}, {"name": "input_361", "class_name": "InputLayer", "config": {"batch_input_shape": [null, 1], "dtype": "float32", "sparse": false, "name": "input_361"}, "inbound_nodes": []}, {"name": "input_362", "class_name": "InputLayer", "config": {"batch_input_shape": [null, 1], "dtype": "float32", "sparse": false, "name": "input_362"}, "inbound_nodes": []}, {"name": "input_363", "class_name": "InputLayer", "config": {"batch_input_shape": [null, 1], "dtype": "float32", "sparse": false, "name": "input_363"}, "inbound_nodes": []}, {"name": "input_364", "class_name": "InputLayer", "config": {"batch_input_shape": [null, 1], "dtype": "float32", "sparse": false, "name": "input_364"}, "inbound_nodes": []}, {"name": "input_365", "class_name": "InputLayer", "config": {"batch_input_shape": [null, 1], "dtype": "float32", "sparse": false, "name": "input_365"}, "inbound_nodes": []}, {"name": "input_366", "class_name": "InputLayer", "config": {"batch_input_shape": [null, 1], "dtype": "float32", "sparse": false, "name": "input_366"}, "inbound_nodes": []}, {"name": "input_367", "class_name": "InputLayer", "config": {"batch_input_shape": [null, 1], "dtype": "float32", "sparse": false, "name": "input_367"}, "inbound_nodes": []}, {"name": "input_368", "class_name": "InputLayer", "config": {"batch_input_shape": [null, 1], "dtype": "float32", "sparse": false, "name": "input_368"}, "inbound_nodes": []}, {"name": "input_369", "class_name": "InputLayer", "config": {"batch_input_shape": [null, 1], "dtype": "float32", "sparse": false, "name": "input_369"}, "inbound_nodes": []}, {"name": "input_370", "class_name": "InputLayer", "config": {"batch_input_shape": [null, 1], "dtype": "float32", "sparse": false, "name": "input_370"}, "inbound_nodes": []}, {"name": "input_371", "class_name": "InputLayer", "config": {"batch_input_shape": [null, 1], "dtype": "float32", "sparse": false, "name": "input_371"}, "inbound_nodes": []}, {"name": "input_372", "class_name": "InputLayer", "config": {"batch_input_shape": [null, 1], "dtype": "float32", "sparse": false, "name": "input_372"}, "inbound_nodes": []}, {"name": "input_373", "class_name": "InputLayer", "config": {"batch_input_shape": [null, 1], "dtype": "float32", "sparse": false, "name": "input_373"}, "inbound_nodes": []}, {"name": "input_374", "class_name": "InputLayer", "config": {"batch_input_shape": [null, 1], "dtype": "float32", "sparse": false, "name": "input_374"}, "inbound_nodes": []}, {"name": "input_375", "class_name": "InputLayer", "config": {"batch_input_shape": [null, 1], "dtype": "float32", "sparse": false, "name": "input_375"}, "inbound_nodes": []}, {"name": "input_376", "class_name": "InputLayer", "config": {"batch_input_shape": [null, 1], "dtype": "float32", "sparse": false, "name": "input_376"}, "inbound_nodes": []}, {"name": "input_377", "class_name": "InputLayer", "config": {"batch_input_shape": [null, 1], "dtype": "float32", "sparse": false, "name": "input_377"}, "inbound_nodes": []}, {"name": "input_378", "class_name": "InputLayer", "config": {"batch_input_shape": [null, 1], "dtype": "float32", "sparse": false, "name": "input_378"}, "inbound_nodes": []}, {"name": "input_379", "class_name": "InputLayer", "config": {"batch_input_shape": [null, 1], "dtype": "float32", "sparse": false, "name": "input_379"}, "inbound_nodes": []}, {"name": "input_380", "class_name": "InputLayer", "config": {"batch_input_shape": [null, 1], "dtype": "float32", "sparse": false, "name": "input_380"}, "inbound_nodes": []}, {"name": "input_381", "class_name": "InputLayer", "config": {"batch_input_shape": [null, 1], "dtype": "float32", "sparse": false, "name": "input_381"}, "inbound_nodes": []}, {"name": "input_382", "class_name": "InputLayer", "config": {"batch_input_shape": [null, 1], "dtype": "float32", "sparse": false, "name": "input_382"}, "inbound_nodes": []}, {"name": "input_383", "class_name": "InputLayer", "config": {"batch_input_shape": [null, 1], "dtype": "float32", "sparse": false, "name": "input_383"}, "inbound_nodes": []}, {"name": "input_384", "class_name": "InputLayer", "config": {"batch_input_shape": [null, 1], "dtype": "float32", "sparse": false, "name": "input_384"}, "inbound_nodes": []}, {"name": "input_385", "class_name": "InputLayer", "config": {"batch_input_shape": [null, 1], "dtype": "float32", "sparse": false, "name": "input_385"}, "inbound_nodes": []}, {"name": "input_386", "class_name": "InputLayer", "config": {"batch_input_shape": [null, 1], "dtype": "float32", "sparse": false, "name": "input_386"}, "inbound_nodes": []}, {"name": "input_387", "class_name": "InputLayer", "config": {"batch_input_shape": [null, 1], "dtype": "float32", "sparse": false, "name": "input_387"}, "inbound_nodes": []}, {"name": "input_388", "class_name": "InputLayer", "config": {"batch_input_shape": [null, 1], "dtype": "float32", "sparse": false, "name": "input_388"}, "inbound_nodes": []}, {"name": "input_389", "class_name": "InputLayer", "config": {"batch_input_shape": [null, 1], "dtype": "float32", "sparse": false, "name": "input_389"}, "inbound_nodes": []}, {"name": "input_390", "class_name": "InputLayer", "config": {"batch_input_shape": [null, 1], "dtype": "float32", "sparse": false, "name": "input_390"}, "inbound_nodes": []}, {"name": "input_391", "class_name": "InputLayer", "config": {"batch_input_shape": [null, 1], "dtype": "float32", "sparse": false, "name": "input_391"}, "inbound_nodes": []}, {"name": "input_392", "class_name": "InputLayer", "config": {"batch_input_shape": [null, 1], "dtype": "float32", "sparse": false, "name": "input_392"}, "inbound_nodes": []}, {"name": "input_393", "class_name": "InputLayer", "config": {"batch_input_shape": [null, 1], "dtype": "float32", "sparse": false, "name": "input_393"}, "inbound_nodes": []}, {"name": "embedding_0", "class_name": "Embedding", "config": {"name": "embedding_0", "trainable": true, "batch_input_shape": [null, null], "dtype": "float32", "input_dim": 5, "output_dim": 6, "embeddings_initializer": {"class_name": "RandomUniform", "config": {"minval": -0.05, "maxval": 0.05, "seed": null}}, "embeddings_regularizer": null, "activity_regularizer": null, "embeddings_constraint": null, "mask_zero": false, "input_length": null}, "inbound_nodes": [[["input_334", 0, 0, {}]]]}, {"name": "embedding_1", "class_name": "Embedding", "config": {"name": "embedding_1", "trainable": true, "batch_input_shape": [null, null], "dtype": "float32", "input_dim": 5, "output_dim": 6, "embeddings_initializer": {"class_name": "RandomUniform", "config": {"minval": -0.05, "maxval": 0.05, "seed": null}}, "embeddings_regularizer": null, "activity_regularizer": null, "embeddings_constraint": null, "mask_zero": false, "input_length": null}, "inbound_nodes": [[["input_335", 0, 0, {}]]]}, {"name": "embedding_2", "class_name": "Embedding", "config": {"name": "embedding_2", "trainable": true, "batch_input_shape": [null, null], "dtype": "float32", "input_dim": 4, "output_dim": 6, "embeddings_initializer": {"class_name": "RandomUniform", "config": {"minval": -0.05, "maxval": 0.05, "seed": null}}, "embeddings_regularizer": null, "activity_regularizer": null, "embeddings_constraint": null, "mask_zero": false, "input_length": null}, "inbound_nodes": [[["input_336", 0, 0, {}]]]}, {"name": "embedding_3", "class_name": "Embedding", "config": {"name": "embedding_3", "trainable": true, "batch_input_shape": [null, null], "dtype": "float32", "input_dim": 4, "output_dim": 6, "embeddings_initializer": {"class_name": "RandomUniform", "config": {"minval": -0.05, "maxval": 0.05, "seed": null}}, "embeddings_regularizer": null, "activity_regularizer": null, "embeddings_constraint": null, "mask_zero": false, "input_length": null}, "inbound_nodes": [[["input_337", 0, 0, {}]]]}, {"name": "embedding_4", "class_name": "Embedding", "config": {"name": "embedding_4", "trainable": true, "batch_input_shape": [null, null], "dtype": "float32", "input_dim": 4, "output_dim": 6, "embeddings_initializer": {"class_name": "RandomUniform", "config": {"minval": -0.05, "maxval": 0.05, "seed": null}}, "embeddings_regularizer": null, "activity_regularizer": null, "embeddings_constraint": null, "mask_zero": false, "input_length": null}, "inbound_nodes": [[["input_338", 0, 0, {}]]]}, {"name": "embedding_5", "class_name": "Embedding", "config": {"name": "embedding_5", "trainable": true, "batch_input_shape": [null, null], "dtype": "float32", "input_dim": 4, "output_dim": 6, "embeddings_initializer": {"class_name": "RandomUniform", "config": {"minval": -0.05, "maxval": 0.05, "seed": null}}, "embeddings_regularizer": null, "activity_regularizer": null, "embeddings_constraint": null, "mask_zero": false, "input_length": null}, "inbound_nodes": [[["input_339", 0, 0, {}]]]}, {"name": "embedding_6", "class_name": "Embedding", "config": {"name": "embedding_6", "trainable": true, "batch_input_shape": [null, null], "dtype": "float32", "input_dim": 4, "output_dim": 6, "embeddings_initializer": {"class_name": "RandomUniform", "config": {"minval": -0.05, "maxval": 0.05, "seed": null}}, "embeddings_regularizer": null, "activity_regularizer": null, "embeddings_constraint": null, "mask_zero": false, "input_length": null}, "inbound_nodes": [[["input_340", 0, 0, {}]]]}, {"name": "embedding_7", "class_name": "Embedding", "config": {"name": "embedding_7", "trainable": true, "batch_input_shape": [null, null], "dtype": "float32", "input_dim": 4, "output_dim": 6, "embeddings_initializer": {"class_name": "RandomUniform", "config": {"minval": -0.05, "maxval": 0.05, "seed": null}}, "embeddings_regularizer": null, "activity_regularizer": null, "embeddings_constraint": null, "mask_zero": false, "input_length": null}, "inbound_nodes": [[["input_341", 0, 0, {}]]]}, {"name": "embedding_8", "class_name": "Embedding", "config": {"name": "embedding_8", "trainable": true, "batch_input_shape": [null, null], "dtype": "float32", "input_dim": 4, "output_dim": 6, "embeddings_initializer": {"class_name": "RandomUniform", "config": {"minval": -0.05, "maxval": 0.05, "seed": null}}, "embeddings_regularizer": null, "activity_regularizer": null, "embeddings_constraint": null, "mask_zero": false, "input_length": null}, "inbound_nodes": [[["input_342", 0, 0, {}]]]}, {"name": "embedding_9", "class_name": "Embedding", "config": {"name": "embedding_9", "trainable": true, "batch_input_shape": [null, null], "dtype": "float32", "input_dim": 4, "output_dim": 6, "embeddings_initializer": {"class_name": "RandomUniform", "config": {"minval": -0.05, "maxval": 0.05, "seed": null}}, "embeddings_regularizer": null, "activity_regularizer": null, "embeddings_constraint": null, "mask_zero": false, "input_length": null}, "inbound_nodes": [[["input_343", 0, 0, {}]]]}, {"name": "embedding_10", "class_name": "Embedding", "config": {"name": "embedding_10", "trainable": true, "batch_input_shape": [null, null], "dtype": "float32", "input_dim": 4, "output_dim": 6, "embeddings_initializer": {"class_name": "RandomUniform", "config": {"minval": -0.05, "maxval": 0.05, "seed": null}}, "embeddings_regularizer": null, "activity_regularizer": null, "embeddings_constraint": null, "mask_zero": false, "input_length": null}, "inbound_nodes": [[["input_344", 0, 0, {}]]]}, {"name": "embedding_11", "class_name": "Embedding", "config": {"name": "embedding_11", "trainable": true, "batch_input_shape": [null, null], "dtype": "float32", "input_dim": 4, "output_dim": 6, "embeddings_initializer": {"class_name": "RandomUniform", "config": {"minval": -0.05, "maxval": 0.05, "seed": null}}, "embeddings_regularizer": null, "activity_regularizer": null, "embeddings_constraint": null, "mask_zero": false, "input_length": null}, "inbound_nodes": [[["input_345", 0, 0, {}]]]}, {"name": "embedding_12", "class_name": "Embedding", "config": {"name": "embedding_12", "trainable": true, "batch_input_shape": [null, null], "dtype": "float32", "input_dim": 4, "output_dim": 6, "embeddings_initializer": {"class_name": "RandomUniform", "config": {"minval": -0.05, "maxval": 0.05, "seed": null}}, "embeddings_regularizer": null, "activity_regularizer": null, "embeddings_constraint": null, "mask_zero": false, "input_length": null}, "inbound_nodes": [[["input_346", 0, 0, {}]]]}, {"name": "embedding_13", "class_name": "Embedding", "config": {"name": "embedding_13", "trainable": true, "batch_input_shape": [null, null], "dtype": "float32", "input_dim": 5, "output_dim": 6, "embeddings_initializer": {"class_name": "RandomUniform", "config": {"minval": -0.05, "maxval": 0.05, "seed": null}}, "embeddings_regularizer": null, "activity_regularizer": null, "embeddings_constraint": null, "mask_zero": false, "input_length": null}, "inbound_nodes": [[["input_347", 0, 0, {}]]]}, {"name": "embedding_14", "class_name": "Embedding", "config": {"name": "embedding_14", "trainable": true, "batch_input_shape": [null, null], "dtype": "float32", "input_dim": 4, "output_dim": 6, "embeddings_initializer": {"class_name": "RandomUniform", "config": {"minval": -0.05, "maxval": 0.05, "seed": null}}, "embeddings_regularizer": null, "activity_regularizer": null, "embeddings_constraint": null, "mask_zero": false, "input_length": null}, "inbound_nodes": [[["input_348", 0, 0, {}]]]}, {"name": "embedding_15", "class_name": "Embedding", "config": {"name": "embedding_15", "trainable": true, "batch_input_shape": [null, null], "dtype": "float32", "input_dim": 4, "output_dim": 6, "embeddings_initializer": {"class_name": "RandomUniform", "config": {"minval": -0.05, "maxval": 0.05, "seed": null}}, "embeddings_regularizer": null, "activity_regularizer": null, "embeddings_constraint": null, "mask_zero": false, "input_length": null}, "inbound_nodes": [[["input_349", 0, 0, {}]]]}, {"name": "embedding_16", "class_name": "Embedding", "config": {"name": "embedding_16", "trainable": true, "batch_input_shape": [null, null], "dtype": "float32", "input_dim": 4, "output_dim": 6, "embeddings_initializer": {"class_name": "RandomUniform", "config": {"minval": -0.05, "maxval": 0.05, "seed": null}}, "embeddings_regularizer": null, "activity_regularizer": null, "embeddings_constraint": null, "mask_zero": false, "input_length": null}, "inbound_nodes": [[["input_350", 0, 0, {}]]]}, {"name": "embedding_17", "class_name": "Embedding", "config": {"name": "embedding_17", "trainable": true, "batch_input_shape": [null, null], "dtype": "float32", "input_dim": 4, "output_dim": 6, "embeddings_initializer": {"class_name": "RandomUniform", "config": {"minval": -0.05, "maxval": 0.05, "seed": null}}, "embeddings_regularizer": null, "activity_regularizer": null, "embeddings_constraint": null, "mask_zero": false, "input_length": null}, "inbound_nodes": [[["input_351", 0, 0, {}]]]}, {"name": "embedding_18", "class_name": "Embedding", "config": {"name": "embedding_18", "trainable": true, "batch_input_shape": [null, null], "dtype": "float32", "input_dim": 5, "output_dim": 6, "embeddings_initializer": {"class_name": "RandomUniform", "config": {"minval": -0.05, "maxval": 0.05, "seed": null}}, "embeddings_regularizer": null, "activity_regularizer": null, "embeddings_constraint": null, "mask_zero": false, "input_length": null}, "inbound_nodes": [[["input_352", 0, 0, {}]]]}, {"name": "embedding_19", "class_name": "Embedding", "config": {"name": "embedding_19", "trainable": true, "batch_input_shape": [null, null], "dtype": "float32", "input_dim": 5, "output_dim": 6, "embeddings_initializer": {"class_name": "RandomUniform", "config": {"minval": -0.05, "maxval": 0.05, "seed": null}}, "embeddings_regularizer": null, "activity_regularizer": null, "embeddings_constraint": null, "mask_zero": false, "input_length": null}, "inbound_nodes": [[["input_353", 0, 0, {}]]]}, {"name": "embedding_20", "class_name": "Embedding", "config": {"name": "embedding_20", "trainable": true, "batch_input_shape": [null, null], "dtype": "float32", "input_dim": 5, "output_dim": 6, "embeddings_initializer": {"class_name": "RandomUniform", "config": {"minval": -0.05, "maxval": 0.05, "seed": null}}, "embeddings_regularizer": null, "activity_regularizer": null, "embeddings_constraint": null, "mask_zero": false, "input_length": null}, "inbound_nodes": [[["input_354", 0, 0, {}]]]}, {"name": "embedding_21", "class_name": "Embedding", "config": {"name": "embedding_21", "trainable": true, "batch_input_shape": [null, null], "dtype": "float32", "input_dim": 5, "output_dim": 6, "embeddings_initializer": {"class_name": "RandomUniform", "config": {"minval": -0.05, "maxval": 0.05, "seed": null}}, "embeddings_regularizer": null, "activity_regularizer": null, "embeddings_constraint": null, "mask_zero": false, "input_length": null}, "inbound_nodes": [[["input_355", 0, 0, {}]]]}, {"name": "embedding_22", "class_name": "Embedding", "config": {"name": "embedding_22", "trainable": true, "batch_input_shape": [null, null], "dtype": "float32", "input_dim": 5, "output_dim": 6, "embeddings_initializer": {"class_name": "RandomUniform", "config": {"minval": -0.05, "maxval": 0.05, "seed": null}}, "embeddings_regularizer": null, "activity_regularizer": null, "embeddings_constraint": null, "mask_zero": false, "input_length": null}, "inbound_nodes": [[["input_356", 0, 0, {}]]]}, {"name": "embedding_23", "class_name": "Embedding", "config": {"name": "embedding_23", "trainable": true, "batch_input_shape": [null, null], "dtype": "float32", "input_dim": 5, "output_dim": 6, "embeddings_initializer": {"class_name": "RandomUniform", "config": {"minval": -0.05, "maxval": 0.05, "seed": null}}, "embeddings_regularizer": null, "activity_regularizer": null, "embeddings_constraint": null, "mask_zero": false, "input_length": null}, "inbound_nodes": [[["input_357", 0, 0, {}]]]}, {"name": "embedding_24", "class_name": "Embedding", "config": {"name": "embedding_24", "trainable": true, "batch_input_shape": [null, null], "dtype": "float32", "input_dim": 5, "output_dim": 6, "embeddings_initializer": {"class_name": "RandomUniform", "config": {"minval": -0.05, "maxval": 0.05, "seed": null}}, "embeddings_regularizer": null, "activity_regularizer": null, "embeddings_constraint": null, "mask_zero": false, "input_length": null}, "inbound_nodes": [[["input_358", 0, 0, {}]]]}, {"name": "embedding_25", "class_name": "Embedding", "config": {"name": "embedding_25", "trainable": true, "batch_input_shape": [null, null], "dtype": "float32", "input_dim": 5, "output_dim": 6, "embeddings_initializer": {"class_name": "RandomUniform", "config": {"minval": -0.05, "maxval": 0.05, "seed": null}}, "embeddings_regularizer": null, "activity_regularizer": null, "embeddings_constraint": null, "mask_zero": false, "input_length": null}, "inbound_nodes": [[["input_359", 0, 0, {}]]]}, {"name": "embedding_26", "class_name": "Embedding", "config": {"name": "embedding_26", "trainable": true, "batch_input_shape": [null, null], "dtype": "float32", "input_dim": 5, "output_dim": 6, "embeddings_initializer": {"class_name": "RandomUniform", "config": {"minval": -0.05, "maxval": 0.05, "seed": null}}, "embeddings_regularizer": null, "activity_regularizer": null, "embeddings_constraint": null, "mask_zero": false, "input_length": null}, "inbound_nodes": [[["input_360", 0, 0, {}]]]}, {"name": "embedding_27", "class_name": "Embedding", "config": {"name": "embedding_27", "trainable": true, "batch_input_shape": [null, null], "dtype": "float32", "input_dim": 5, "output_dim": 6, "embeddings_initializer": {"class_name": "RandomUniform", "config": {"minval": -0.05, "maxval": 0.05, "seed": null}}, "embeddings_regularizer": null, "activity_regularizer": null, "embeddings_constraint": null, "mask_zero": false, "input_length": null}, "inbound_nodes": [[["input_361", 0, 0, {}]]]}, {"name": "embedding_28", "class_name": "Embedding", "config": {"name": "embedding_28", "trainable": true, "batch_input_shape": [null, null], "dtype": "float32", "input_dim": 5, "output_dim": 6, "embeddings_initializer": {"class_name": "RandomUniform", "config": {"minval": -0.05, "maxval": 0.05, "seed": null}}, "embeddings_regularizer": null, "activity_regularizer": null, "embeddings_constraint": null, "mask_zero": false, "input_length": null}, "inbound_nodes": [[["input_362", 0, 0, {}]]]}, {"name": "embedding_29", "class_name": "Embedding", "config": {"name": "embedding_29", "trainable": true, "batch_input_shape": [null, null], "dtype": "float32", "input_dim": 5, "output_dim": 6, "embeddings_initializer": {"class_name": "RandomUniform", "config": {"minval": -0.05, "maxval": 0.05, "seed": null}}, "embeddings_regularizer": null, "activity_regularizer": null, "embeddings_constraint": null, "mask_zero": false, "input_length": null}, "inbound_nodes": [[["input_363", 0, 0, {}]]]}, {"name": "embedding_30", "class_name": "Embedding", "config": {"name": "embedding_30", "trainable": true, "batch_input_shape": [null, null], "dtype": "float32", "input_dim": 5, "output_dim": 6, "embeddings_initializer": {"class_name": "RandomUniform", "config": {"minval": -0.05, "maxval": 0.05, "seed": null}}, "embeddings_regularizer": null, "activity_regularizer": null, "embeddings_constraint": null, "mask_zero": false, "input_length": null}, "inbound_nodes": [[["input_364", 0, 0, {}]]]}, {"name": "embedding_31", "class_name": "Embedding", "config": {"name": "embedding_31", "trainable": true, "batch_input_shape": [null, null], "dtype": "float32", "input_dim": 5, "output_dim": 6, "embeddings_initializer": {"class_name": "RandomUniform", "config": {"minval": -0.05, "maxval": 0.05, "seed": null}}, "embeddings_regularizer": null, "activity_regularizer": null, "embeddings_constraint": null, "mask_zero": false, "input_length": null}, "inbound_nodes": [[["input_365", 0, 0, {}]]]}, {"name": "embedding_32", "class_name": "Embedding", "config": {"name": "embedding_32", "trainable": true, "batch_input_shape": [null, null], "dtype": "float32", "input_dim": 5, "output_dim": 6, "embeddings_initializer": {"class_name": "RandomUniform", "config": {"minval": -0.05, "maxval": 0.05, "seed": null}}, "embeddings_regularizer": null, "activity_regularizer": null, "embeddings_constraint": null, "mask_zero": false, "input_length": null}, "inbound_nodes": [[["input_366", 0, 0, {}]]]}, {"name": "embedding_33", "class_name": "Embedding", "config": {"name": "embedding_33", "trainable": true, "batch_input_shape": [null, null], "dtype": "float32", "input_dim": 5, "output_dim": 6, "embeddings_initializer": {"class_name": "RandomUniform", "config": {"minval": -0.05, "maxval": 0.05, "seed": null}}, "embeddings_regularizer": null, "activity_regularizer": null, "embeddings_constraint": null, "mask_zero": false, "input_length": null}, "inbound_nodes": [[["input_367", 0, 0, {}]]]}, {"name": "embedding_34", "class_name": "Embedding", "config": {"name": "embedding_34", "trainable": true, "batch_input_shape": [null, null], "dtype": "float32", "input_dim": 6, "output_dim": 6, "embeddings_initializer": {"class_name": "RandomUniform", "config": {"minval": -0.05, "maxval": 0.05, "seed": null}}, "embeddings_regularizer": null, "activity_regularizer": null, "embeddings_constraint": null, "mask_zero": false, "input_length": null}, "inbound_nodes": [[["input_368", 0, 0, {}]]]}, {"name": "embedding_35", "class_name": "Embedding", "config": {"name": "embedding_35", "trainable": true, "batch_input_shape": [null, null], "dtype": "float32", "input_dim": 6, "output_dim": 6, "embeddings_initializer": {"class_name": "RandomUniform", "config": {"minval": -0.05, "maxval": 0.05, "seed": null}}, "embeddings_regularizer": null, "activity_regularizer": null, "embeddings_constraint": null, "mask_zero": false, "input_length": null}, "inbound_nodes": [[["input_369", 0, 0, {}]]]}, {"name": "embedding_36", "class_name": "Embedding", "config": {"name": "embedding_36", "trainable": true, "batch_input_shape": [null, null], "dtype": "float32", "input_dim": 5, "output_dim": 6, "embeddings_initializer": {"class_name": "RandomUniform", "config": {"minval": -0.05, "maxval": 0.05, "seed": null}}, "embeddings_regularizer": null, "activity_regularizer": null, "embeddings_constraint": null, "mask_zero": false, "input_length": null}, "inbound_nodes": [[["input_370", 0, 0, {}]]]}, {"name": "embedding_37", "class_name": "Embedding", "config": {"name": "embedding_37", "trainable": true, "batch_input_shape": [null, null], "dtype": "float32", "input_dim": 5, "output_dim": 6, "embeddings_initializer": {"class_name": "RandomUniform", "config": {"minval": -0.05, "maxval": 0.05, "seed": null}}, "embeddings_regularizer": null, "activity_regularizer": null, "embeddings_constraint": null, "mask_zero": false, "input_length": null}, "inbound_nodes": [[["input_371", 0, 0, {}]]]}, {"name": "embedding_38", "class_name": "Embedding", "config": {"name": "embedding_38", "trainable": true, "batch_input_shape": [null, null], "dtype": "float32", "input_dim": 5, "output_dim": 6, "embeddings_initializer": {"class_name": "RandomUniform", "config": {"minval": -0.05, "maxval": 0.05, "seed": null}}, "embeddings_regularizer": null, "activity_regularizer": null, "embeddings_constraint": null, "mask_zero": false, "input_length": null}, "inbound_nodes": [[["input_372", 0, 0, {}]]]}, {"name": "embedding_39", "class_name": "Embedding", "config": {"name": "embedding_39", "trainable": true, "batch_input_shape": [null, null], "dtype": "float32", "input_dim": 5, "output_dim": 6, "embeddings_initializer": {"class_name": "RandomUniform", "config": {"minval": -0.05, "maxval": 0.05, "seed": null}}, "embeddings_regularizer": null, "activity_regularizer": null, "embeddings_constraint": null, "mask_zero": false, "input_length": null}, "inbound_nodes": [[["input_373", 0, 0, {}]]]}, {"name": "embedding_40", "class_name": "Embedding", "config": {"name": "embedding_40", "trainable": true, "batch_input_shape": [null, null], "dtype": "float32", "input_dim": 5, "output_dim": 6, "embeddings_initializer": {"class_name": "RandomUniform", "config": {"minval": -0.05, "maxval": 0.05, "seed": null}}, "embeddings_regularizer": null, "activity_regularizer": null, "embeddings_constraint": null, "mask_zero": false, "input_length": null}, "inbound_nodes": [[["input_374", 0, 0, {}]]]}, {"name": "embedding_41", "class_name": "Embedding", "config": {"name": "embedding_41", "trainable": true, "batch_input_shape": [null, null], "dtype": "float32", "input_dim": 5, "output_dim": 6, "embeddings_initializer": {"class_name": "RandomUniform", "config": {"minval": -0.05, "maxval": 0.05, "seed": null}}, "embeddings_regularizer": null, "activity_regularizer": null, "embeddings_constraint": null, "mask_zero": false, "input_length": null}, "inbound_nodes": [[["input_375", 0, 0, {}]]]}, {"name": "embedding_42", "class_name": "Embedding", "config": {"name": "embedding_42", "trainable": true, "batch_input_shape": [null, null], "dtype": "float32", "input_dim": 5, "output_dim": 6, "embeddings_initializer": {"class_name": "RandomUniform", "config": {"minval": -0.05, "maxval": 0.05, "seed": null}}, "embeddings_regularizer": null, "activity_regularizer": null, "embeddings_constraint": null, "mask_zero": false, "input_length": null}, "inbound_nodes": [[["input_376", 0, 0, {}]]]}, {"name": "embedding_43", "class_name": "Embedding", "config": {"name": "embedding_43", "trainable": true, "batch_input_shape": [null, null], "dtype": "float32", "input_dim": 5, "output_dim": 6, "embeddings_initializer": {"class_name": "RandomUniform", "config": {"minval": -0.05, "maxval": 0.05, "seed": null}}, "embeddings_regularizer": null, "activity_regularizer": null, "embeddings_constraint": null, "mask_zero": false, "input_length": null}, "inbound_nodes": [[["input_377", 0, 0, {}]]]}, {"name": "embedding_44", "class_name": "Embedding", "config": {"name": "embedding_44", "trainable": true, "batch_input_shape": [null, null], "dtype": "float32", "input_dim": 5, "output_dim": 6, "embeddings_initializer": {"class_name": "RandomUniform", "config": {"minval": -0.05, "maxval": 0.05, "seed": null}}, "embeddings_regularizer": null, "activity_regularizer": null, "embeddings_constraint": null, "mask_zero": false, "input_length": null}, "inbound_nodes": [[["input_378", 0, 0, {}]]]}, {"name": "embedding_45", "class_name": "Embedding", "config": {"name": "embedding_45", "trainable": true, "batch_input_shape": [null, null], "dtype": "float32", "input_dim": 5, "output_dim": 6, "embeddings_initializer": {"class_name": "RandomUniform", "config": {"minval": -0.05, "maxval": 0.05, "seed": null}}, "embeddings_regularizer": null, "activity_regularizer": null, "embeddings_constraint": null, "mask_zero": false, "input_length": null}, "inbound_nodes": [[["input_379", 0, 0, {}]]]}, {"name": "embedding_46", "class_name": "Embedding", "config": {"name": "embedding_46", "trainable": true, "batch_input_shape": [null, null], "dtype": "float32", "input_dim": 5, "output_dim": 6, "embeddings_initializer": {"class_name": "RandomUniform", "config": {"minval": -0.05, "maxval": 0.05, "seed": null}}, "embeddings_regularizer": null, "activity_regularizer": null, "embeddings_constraint": null, "mask_zero": false, "input_length": null}, "inbound_nodes": [[["input_380", 0, 0, {}]]]}, {"name": "embedding_47", "class_name": "Embedding", "config": {"name": "embedding_47", "trainable": true, "batch_input_shape": [null, null], "dtype": "float32", "input_dim": 5, "output_dim": 6, "embeddings_initializer": {"class_name": "RandomUniform", "config": {"minval": -0.05, "maxval": 0.05, "seed": null}}, "embeddings_regularizer": null, "activity_regularizer": null, "embeddings_constraint": null, "mask_zero": false, "input_length": null}, "inbound_nodes": [[["input_381", 0, 0, {}]]]}, {"name": "embedding_48", "class_name": "Embedding", "config": {"name": "embedding_48", "trainable": true, "batch_input_shape": [null, null], "dtype": "float32", "input_dim": 5, "output_dim": 6, "embeddings_initializer": {"class_name": "RandomUniform", "config": {"minval": -0.05, "maxval": 0.05, "seed": null}}, "embeddings_regularizer": null, "activity_regularizer": null, "embeddings_constraint": null, "mask_zero": false, "input_length": null}, "inbound_nodes": [[["input_382", 0, 0, {}]]]}, {"name": "embedding_49", "class_name": "Embedding", "config": {"name": "embedding_49", "trainable": true, "batch_input_shape": [null, null], "dtype": "float32", "input_dim": 5, "output_dim": 6, "embeddings_initializer": {"class_name": "RandomUniform", "config": {"minval": -0.05, "maxval": 0.05, "seed": null}}, "embeddings_regularizer": null, "activity_regularizer": null, "embeddings_constraint": null, "mask_zero": false, "input_length": null}, "inbound_nodes": [[["input_383", 0, 0, {}]]]}, {"name": "embedding_50", "class_name": "Embedding", "config": {"name": "embedding_50", "trainable": true, "batch_input_shape": [null, null], "dtype": "float32", "input_dim": 5, "output_dim": 6, "embeddings_initializer": {"class_name": "RandomUniform", "config": {"minval": -0.05, "maxval": 0.05, "seed": null}}, "embeddings_regularizer": null, "activity_regularizer": null, "embeddings_constraint": null, "mask_zero": false, "input_length": null}, "inbound_nodes": [[["input_384", 0, 0, {}]]]}, {"name": "embedding_51", "class_name": "Embedding", "config": {"name": "embedding_51", "trainable": true, "batch_input_shape": [null, null], "dtype": "float32", "input_dim": 5, "output_dim": 6, "embeddings_initializer": {"class_name": "RandomUniform", "config": {"minval": -0.05, "maxval": 0.05, "seed": null}}, "embeddings_regularizer": null, "activity_regularizer": null, "embeddings_constraint": null, "mask_zero": false, "input_length": null}, "inbound_nodes": [[["input_385", 0, 0, {}]]]}, {"name": "embedding_52", "class_name": "Embedding", "config": {"name": "embedding_52", "trainable": true, "batch_input_shape": [null, null], "dtype": "float32", "input_dim": 5, "output_dim": 6, "embeddings_initializer": {"class_name": "RandomUniform", "config": {"minval": -0.05, "maxval": 0.05, "seed": null}}, "embeddings_regularizer": null, "activity_regularizer": null, "embeddings_constraint": null, "mask_zero": false, "input_length": null}, "inbound_nodes": [[["input_386", 0, 0, {}]]]}, {"name": "embedding_53", "class_name": "Embedding", "config": {"name": "embedding_53", "trainable": true, "batch_input_shape": [null, null], "dtype": "float32", "input_dim": 5, "output_dim": 6, "embeddings_initializer": {"class_name": "RandomUniform", "config": {"minval": -0.05, "maxval": 0.05, "seed": null}}, "embeddings_regularizer": null, "activity_regularizer": null, "embeddings_constraint": null, "mask_zero": false, "input_length": null}, "inbound_nodes": [[["input_387", 0, 0, {}]]]}, {"name": "embedding_54", "class_name": "Embedding", "config": {"name": "embedding_54", "trainable": true, "batch_input_shape": [null, null], "dtype": "float32", "input_dim": 5, "output_dim": 6, "embeddings_initializer": {"class_name": "RandomUniform", "config": {"minval": -0.05, "maxval": 0.05, "seed": null}}, "embeddings_regularizer": null, "activity_regularizer": null, "embeddings_constraint": null, "mask_zero": false, "input_length": null}, "inbound_nodes": [[["input_388", 0, 0, {}]]]}, {"name": "embedding_55", "class_name": "Embedding", "config": {"name": "embedding_55", "trainable": true, "batch_input_shape": [null, null], "dtype": "float32", "input_dim": 5, "output_dim": 6, "embeddings_initializer": {"class_name": "RandomUniform", "config": {"minval": -0.05, "maxval": 0.05, "seed": null}}, "embeddings_regularizer": null, "activity_regularizer": null, "embeddings_constraint": null, "mask_zero": false, "input_length": null}, "inbound_nodes": [[["input_389", 0, 0, {}]]]}, {"name": "embedding_56", "class_name": "Embedding", "config": {"name": "embedding_56", "trainable": true, "batch_input_shape": [null, null], "dtype": "float32", "input_dim": 5, "output_dim": 6, "embeddings_initializer": {"class_name": "RandomUniform", "config": {"minval": -0.05, "maxval": 0.05, "seed": null}}, "embeddings_regularizer": null, "activity_regularizer": null, "embeddings_constraint": null, "mask_zero": false, "input_length": null}, "inbound_nodes": [[["input_390", 0, 0, {}]]]}, {"name": "embedding_57", "class_name": "Embedding", "config": {"name": "embedding_57", "trainable": true, "batch_input_shape": [null, null], "dtype": "float32", "input_dim": 5, "output_dim": 6, "embeddings_initializer": {"class_name": "RandomUniform", "config": {"minval": -0.05, "maxval": 0.05, "seed": null}}, "embeddings_regularizer": null, "activity_regularizer": null, "embeddings_constraint": null, "mask_zero": false, "input_length": null}, "inbound_nodes": [[["input_391", 0, 0, {}]]]}, {"name": "embedding_58", "class_name": "Embedding", "config": {"name": "embedding_58", "trainable": true, "batch_input_shape": [null, null], "dtype": "float32", "input_dim": 5, "output_dim": 6, "embeddings_initializer": {"class_name": "RandomUniform", "config": {"minval": -0.05, "maxval": 0.05, "seed": null}}, "embeddings_regularizer": null, "activity_regularizer": null, "embeddings_constraint": null, "mask_zero": false, "input_length": null}, "inbound_nodes": [[["input_392", 0, 0, {}]]]}, {"name": "embedding_59", "class_name": "Embedding", "config": {"name": "embedding_59", "trainable": true, "batch_input_shape": [null, null], "dtype": "float32", "input_dim": 5, "output_dim": 6, "embeddings_initializer": {"class_name": "RandomUniform", "config": {"minval": -0.05, "maxval": 0.05, "seed": null}}, "embeddings_regularizer": null, "activity_regularizer": null, "embeddings_constraint": null, "mask_zero": false, "input_length": null}, "inbound_nodes": [[["input_393", 0, 0, {}]]]}, {"name": "reshape_334", "class_name": "Reshape", "config": {"name": "reshape_334", "trainable": true, "dtype": "float32", "target_shape": [6]}, "inbound_nodes": [[["embedding_0", 0, 0, {}]]]}, {"name": "reshape_335", "class_name": "Reshape", "config": {"name": "reshape_335", "trainable": true, "dtype": "float32", "target_shape": [6]}, "inbound_nodes": [[["embedding_1", 0, 0, {}]]]}, {"name": "reshape_336", "class_name": "Reshape", "config": {"name": "reshape_336", "trainable": true, "dtype": "float32", "target_shape": [6]}, "inbound_nodes": [[["embedding_2", 0, 0, {}]]]}, {"name": "reshape_337", "class_name": "Reshape", "config": {"name": "reshape_337", "trainable": true, "dtype": "float32", "target_shape": [6]}, "inbound_nodes": [[["embedding_3", 0, 0, {}]]]}, {"name": "reshape_338", "class_name": "Reshape", "config": {"name": "reshape_338", "trainable": true, "dtype": "float32", "target_shape": [6]}, "inbound_nodes": [[["embedding_4", 0, 0, {}]]]}, {"name": "reshape_339", "class_name": "Reshape", "config": {"name": "reshape_339", "trainable": true, "dtype": "float32", "target_shape": [6]}, "inbound_nodes": [[["embedding_5", 0, 0, {}]]]}, {"name": "reshape_340", "class_name": "Reshape", "config": {"name": "reshape_340", "trainable": true, "dtype": "float32", "target_shape": [6]}, "inbound_nodes": [[["embedding_6", 0, 0, {}]]]}, {"name": "reshape_341", "class_name": "Reshape", "config": {"name": "reshape_341", "trainable": true, "dtype": "float32", "target_shape": [6]}, "inbound_nodes": [[["embedding_7", 0, 0, {}]]]}, {"name": "reshape_342", "class_name": "Reshape", "config": {"name": "reshape_342", "trainable": true, "dtype": "float32", "target_shape": [6]}, "inbound_nodes": [[["embedding_8", 0, 0, {}]]]}, {"name": "reshape_343", "class_name": "Reshape", "config": {"name": "reshape_343", "trainable": true, "dtype": "float32", "target_shape": [6]}, "inbound_nodes": [[["embedding_9", 0, 0, {}]]]}, {"name": "reshape_344", "class_name": "Reshape", "config": {"name": "reshape_344", "trainable": true, "dtype": "float32", "target_shape": [6]}, "inbound_nodes": [[["embedding_10", 0, 0, {}]]]}, {"name": "reshape_345", "class_name": "Reshape", "config": {"name": "reshape_345", "trainable": true, "dtype": "float32", "target_shape": [6]}, "inbound_nodes": [[["embedding_11", 0, 0, {}]]]}, {"name": "reshape_346", "class_name": "Reshape", "config": {"name": "reshape_346", "trainable": true, "dtype": "float32", "target_shape": [6]}, "inbound_nodes": [[["embedding_12", 0, 0, {}]]]}, {"name": "reshape_347", "class_name": "Reshape", "config": {"name": "reshape_347", "trainable": true, "dtype": "float32", "target_shape": [6]}, "inbound_nodes": [[["embedding_13", 0, 0, {}]]]}, {"name": "reshape_348", "class_name": "Reshape", "config": {"name": "reshape_348", "trainable": true, "dtype": "float32", "target_shape": [6]}, "inbound_nodes": [[["embedding_14", 0, 0, {}]]]}, {"name": "reshape_349", "class_name": "Reshape", "config": {"name": "reshape_349", "trainable": true, "dtype": "float32", "target_shape": [6]}, "inbound_nodes": [[["embedding_15", 0, 0, {}]]]}, {"name": "reshape_350", "class_name": "Reshape", "config": {"name": "reshape_350", "trainable": true, "dtype": "float32", "target_shape": [6]}, "inbound_nodes": [[["embedding_16", 0, 0, {}]]]}, {"name": "reshape_351", "class_name": "Reshape", "config": {"name": "reshape_351", "trainable": true, "dtype": "float32", "target_shape": [6]}, "inbound_nodes": [[["embedding_17", 0, 0, {}]]]}, {"name": "reshape_352", "class_name": "Reshape", "config": {"name": "reshape_352", "trainable": true, "dtype": "float32", "target_shape": [6]}, "inbound_nodes": [[["embedding_18", 0, 0, {}]]]}, {"name": "reshape_353", "class_name": "Reshape", "config": {"name": "reshape_353", "trainable": true, "dtype": "float32", "target_shape": [6]}, "inbound_nodes": [[["embedding_19", 0, 0, {}]]]}, {"name": "reshape_354", "class_name": "Reshape", "config": {"name": "reshape_354", "trainable": true, "dtype": "float32", "target_shape": [6]}, "inbound_nodes": [[["embedding_20", 0, 0, {}]]]}, {"name": "reshape_355", "class_name": "Reshape", "config": {"name": "reshape_355", "trainable": true, "dtype": "float32", "target_shape": [6]}, "inbound_nodes": [[["embedding_21", 0, 0, {}]]]}, {"name": "reshape_356", "class_name": "Reshape", "config": {"name": "reshape_356", "trainable": true, "dtype": "float32", "target_shape": [6]}, "inbound_nodes": [[["embedding_22", 0, 0, {}]]]}, {"name": "reshape_357", "class_name": "Reshape", "config": {"name": "reshape_357", "trainable": true, "dtype": "float32", "target_shape": [6]}, "inbound_nodes": [[["embedding_23", 0, 0, {}]]]}, {"name": "reshape_358", "class_name": "Reshape", "config": {"name": "reshape_358", "trainable": true, "dtype": "float32", "target_shape": [6]}, "inbound_nodes": [[["embedding_24", 0, 0, {}]]]}, {"name": "reshape_359", "class_name": "Reshape", "config": {"name": "reshape_359", "trainable": true, "dtype": "float32", "target_shape": [6]}, "inbound_nodes": [[["embedding_25", 0, 0, {}]]]}, {"name": "reshape_360", "class_name": "Reshape", "config": {"name": "reshape_360", "trainable": true, "dtype": "float32", "target_shape": [6]}, "inbound_nodes": [[["embedding_26", 0, 0, {}]]]}, {"name": "reshape_361", "class_name": "Reshape", "config": {"name": "reshape_361", "trainable": true, "dtype": "float32", "target_shape": [6]}, "inbound_nodes": [[["embedding_27", 0, 0, {}]]]}, {"name": "reshape_362", "class_name": "Reshape", "config": {"name": "reshape_362", "trainable": true, "dtype": "float32", "target_shape": [6]}, "inbound_nodes": [[["embedding_28", 0, 0, {}]]]}, {"name": "reshape_363", "class_name": "Reshape", "config": {"name": "reshape_363", "trainable": true, "dtype": "float32", "target_shape": [6]}, "inbound_nodes": [[["embedding_29", 0, 0, {}]]]}, {"name": "reshape_364", "class_name": "Reshape", "config": {"name": "reshape_364", "trainable": true, "dtype": "float32", "target_shape": [6]}, "inbound_nodes": [[["embedding_30", 0, 0, {}]]]}, {"name": "reshape_365", "class_name": "Reshape", "config": {"name": "reshape_365", "trainable": true, "dtype": "float32", "target_shape": [6]}, "inbound_nodes": [[["embedding_31", 0, 0, {}]]]}, {"name": "reshape_366", "class_name": "Reshape", "config": {"name": "reshape_366", "trainable": true, "dtype": "float32", "target_shape": [6]}, "inbound_nodes": [[["embedding_32", 0, 0, {}]]]}, {"name": "reshape_367", "class_name": "Reshape", "config": {"name": "reshape_367", "trainable": true, "dtype": "float32", "target_shape": [6]}, "inbound_nodes": [[["embedding_33", 0, 0, {}]]]}, {"name": "reshape_368", "class_name": "Reshape", "config": {"name": "reshape_368", "trainable": true, "dtype": "float32", "target_shape": [6]}, "inbound_nodes": [[["embedding_34", 0, 0, {}]]]}, {"name": "reshape_369", "class_name": "Reshape", "config": {"name": "reshape_369", "trainable": true, "dtype": "float32", "target_shape": [6]}, "inbound_nodes": [[["embedding_35", 0, 0, {}]]]}, {"name": "reshape_370", "class_name": "Reshape", "config": {"name": "reshape_370", "trainable": true, "dtype": "float32", "target_shape": [6]}, "inbound_nodes": [[["embedding_36", 0, 0, {}]]]}, {"name": "reshape_371", "class_name": "Reshape", "config": {"name": "reshape_371", "trainable": true, "dtype": "float32", "target_shape": [6]}, "inbound_nodes": [[["embedding_37", 0, 0, {}]]]}, {"name": "reshape_372", "class_name": "Reshape", "config": {"name": "reshape_372", "trainable": true, "dtype": "float32", "target_shape": [6]}, "inbound_nodes": [[["embedding_38", 0, 0, {}]]]}, {"name": "reshape_373", "class_name": "Reshape", "config": {"name": "reshape_373", "trainable": true, "dtype": "float32", "target_shape": [6]}, "inbound_nodes": [[["embedding_39", 0, 0, {}]]]}, {"name": "reshape_374", "class_name": "Reshape", "config": {"name": "reshape_374", "trainable": true, "dtype": "float32", "target_shape": [6]}, "inbound_nodes": [[["embedding_40", 0, 0, {}]]]}, {"name": "reshape_375", "class_name": "Reshape", "config": {"name": "reshape_375", "trainable": true, "dtype": "float32", "target_shape": [6]}, "inbound_nodes": [[["embedding_41", 0, 0, {}]]]}, {"name": "reshape_376", "class_name": "Reshape", "config": {"name": "reshape_376", "trainable": true, "dtype": "float32", "target_shape": [6]}, "inbound_nodes": [[["embedding_42", 0, 0, {}]]]}, {"name": "reshape_377", "class_name": "Reshape", "config": {"name": "reshape_377", "trainable": true, "dtype": "float32", "target_shape": [6]}, "inbound_nodes": [[["embedding_43", 0, 0, {}]]]}, {"name": "reshape_378", "class_name": "Reshape", "config": {"name": "reshape_378", "trainable": true, "dtype": "float32", "target_shape": [6]}, "inbound_nodes": [[["embedding_44", 0, 0, {}]]]}, {"name": "reshape_379", "class_name": "Reshape", "config": {"name": "reshape_379", "trainable": true, "dtype": "float32", "target_shape": [6]}, "inbound_nodes": [[["embedding_45", 0, 0, {}]]]}, {"name": "reshape_380", "class_name": "Reshape", "config": {"name": "reshape_380", "trainable": true, "dtype": "float32", "target_shape": [6]}, "inbound_nodes": [[["embedding_46", 0, 0, {}]]]}, {"name": "reshape_381", "class_name": "Reshape", "config": {"name": "reshape_381", "trainable": true, "dtype": "float32", "target_shape": [6]}, "inbound_nodes": [[["embedding_47", 0, 0, {}]]]}, {"name": "reshape_382", "class_name": "Reshape", "config": {"name": "reshape_382", "trainable": true, "dtype": "float32", "target_shape": [6]}, "inbound_nodes": [[["embedding_48", 0, 0, {}]]]}, {"name": "reshape_383", "class_name": "Reshape", "config": {"name": "reshape_383", "trainable": true, "dtype": "float32", "target_shape": [6]}, "inbound_nodes": [[["embedding_49", 0, 0, {}]]]}, {"name": "reshape_384", "class_name": "Reshape", "config": {"name": "reshape_384", "trainable": true, "dtype": "float32", "target_shape": [6]}, "inbound_nodes": [[["embedding_50", 0, 0, {}]]]}, {"name": "reshape_385", "class_name": "Reshape", "config": {"name": "reshape_385", "trainable": true, "dtype": "float32", "target_shape": [6]}, "inbound_nodes": [[["embedding_51", 0, 0, {}]]]}, {"name": "reshape_386", "class_name": "Reshape", "config": {"name": "reshape_386", "trainable": true, "dtype": "float32", "target_shape": [6]}, "inbound_nodes": [[["embedding_52", 0, 0, {}]]]}, {"name": "reshape_387", "class_name": "Reshape", "config": {"name": "reshape_387", "trainable": true, "dtype": "float32", "target_shape": [6]}, "inbound_nodes": [[["embedding_53", 0, 0, {}]]]}, {"name": "reshape_388", "class_name": "Reshape", "config": {"name": "reshape_388", "trainable": true, "dtype": "float32", "target_shape": [6]}, "inbound_nodes": [[["embedding_54", 0, 0, {}]]]}, {"name": "reshape_389", "class_name": "Reshape", "config": {"name": "reshape_389", "trainable": true, "dtype": "float32", "target_shape": [6]}, "inbound_nodes": [[["embedding_55", 0, 0, {}]]]}, {"name": "reshape_390", "class_name": "Reshape", "config": {"name": "reshape_390", "trainable": true, "dtype": "float32", "target_shape": [6]}, "inbound_nodes": [[["embedding_56", 0, 0, {}]]]}, {"name": "reshape_391", "class_name": "Reshape", "config": {"name": "reshape_391", "trainable": true, "dtype": "float32", "target_shape": [6]}, "inbound_nodes": [[["embedding_57", 0, 0, {}]]]}, {"name": "reshape_392", "class_name": "Reshape", "config": {"name": "reshape_392", "trainable": true, "dtype": "float32", "target_shape": [6]}, "inbound_nodes": [[["embedding_58", 0, 0, {}]]]}, {"name": "reshape_393", "class_name": "Reshape", "config": {"name": "reshape_393", "trainable": true, "dtype": "float32", "target_shape": [6]}, "inbound_nodes": [[["embedding_59", 0, 0, {}]]]}, {"name": "embedding", "class_name": "Concatenate", "config": {"name": "embedding", "trainable": true, "dtype": "float32", "axis": -1}, "inbound_nodes": [[["reshape_334", 0, 0, {}], ["reshape_335", 0, 0, {}], ["reshape_336", 0, 0, {}], ["reshape_337", 0, 0, {}], ["reshape_338", 0, 0, {}], ["reshape_339", 0, 0, {}], ["reshape_340", 0, 0, {}], ["reshape_341", 0, 0, {}], ["reshape_342", 0, 0, {}], ["reshape_343", 0, 0, {}], ["reshape_344", 0, 0, {}], ["reshape_345", 0, 0, {}], ["reshape_346", 0, 0, {}], ["reshape_347", 0, 0, {}], ["reshape_348", 0, 0, {}], ["reshape_349", 0, 0, {}], ["reshape_350", 0, 0, {}], ["reshape_351", 0, 0, {}], ["reshape_352", 0, 0, {}], ["reshape_353", 0, 0, {}], ["reshape_354", 0, 0, {}], ["reshape_355", 0, 0, {}], ["reshape_356", 0, 0, {}], ["reshape_357", 0, 0, {}], ["reshape_358", 0, 0, {}], ["reshape_359", 0, 0, {}], ["reshape_360", 0, 0, {}], ["reshape_361", 0, 0, {}], ["reshape_362", 0, 0, {}], ["reshape_363", 0, 0, {}], ["reshape_364", 0, 0, {}], ["reshape_365", 0, 0, {}], ["reshape_366", 0, 0, {}], ["reshape_367", 0, 0, {}], ["reshape_368", 0, 0, {}], ["reshape_369", 0, 0, {}], ["reshape_370", 0, 0, {}], ["reshape_371", 0, 0, {}], ["reshape_372", 0, 0, {}], ["reshape_373", 0, 0, {}], ["reshape_374", 0, 0, {}], ["reshape_375", 0, 0, {}], ["reshape_376", 0, 0, {}], ["reshape_377", 0, 0, {}], ["reshape_378", 0, 0, {}], ["reshape_379", 0, 0, {}], ["reshape_380", 0, 0, {}], ["reshape_381", 0, 0, {}], ["reshape_382", 0, 0, {}], ["reshape_383", 0, 0, {}], ["reshape_384", 0, 0, {}], ["reshape_385", 0, 0, {}], ["reshape_386", 0, 0, {}], ["reshape_387", 0, 0, {}], ["reshape_388", 0, 0, {}], ["reshape_389", 0, 0, {}], ["reshape_390", 0, 0, {}], ["reshape_391", 0, 0, {}], ["reshape_392", 0, 0, {}], ["reshape_393", 0, 0, {}]]]}, {"name": "fully-connected-1", "class_name": "Dense", "config": {"name": "fully-connected-1", "trainable": true, "dtype": "float32", "units": 1000, "activation": "linear", "use_bias": true, "kernel_initializer": {"class_name": "RandomUniform", "config": {"minval": -0.05, "maxval": 0.05, "seed": null}}, "bias_initializer": {"class_name": "Zeros", "config": {}}, "kernel_regularizer": null, "bias_regularizer": null, "activity_regularizer": null, "kernel_constraint": null, "bias_constraint": null}, "inbound_nodes": [[["embedding", 0, 0, {}]]]}, {"name": "activation_13", "class_name": "Activation", "config": {"name": "activation_13", "trainable": true, "dtype": "float32", "activation": "relu"}, "inbound_nodes": [[["fully-connected-1", 0, 0, {}]]]}, {"name": "fully-connected-2", "class_name": "Dense", "config": {"name": "fully-connected-2", "trainable": true, "dtype": "float32", "units": 500, "activation": "linear", "use_bias": true, "kernel_initializer": {"class_name": "RandomUniform", "config": {"minval": -0.05, "maxval": 0.05, "seed": null}}, "bias_initializer": {"class_name": "Zeros", "config": {}}, "kernel_regularizer": null, "bias_regularizer": null, "activity_regularizer": null, "kernel_constraint": null, "bias_constraint": null}, "inbound_nodes": [[["activation_13", 0, 0, {}]]]}, {"name": "activation_14", "class_name": "Activation", "config": {"name": "activation_14", "trainable": true, "dtype": "float32", "activation": "relu"}, "inbound_nodes": [[["fully-connected-2", 0, 0, {}]]]}, {"name": "output", "class_name": "Dense", "config": {"name": "output", "trainable": true, "dtype": "float32", "units": 3, "activation": "linear", "use_bias": true, "kernel_initializer": {"class_name": "VarianceScaling", "config": {"scale": 1.0, "mode": "fan_avg", "distribution": "uniform", "seed": null}}, "bias_initializer": {"class_name": "Zeros", "config": {}}, "kernel_regularizer": null, "bias_regularizer": null, "activity_regularizer": null, "kernel_constraint": null, "bias_constraint": null}, "inbound_nodes": [[["activation_14", 0, 0, {}]]]}, {"name": "activation_15", "class_name": "Activation", "config": {"name": "activation_15", "trainable": true, "dtype": "float32", "activation": "softmax"}, "inbound_nodes": [[["output", 0, 0, {}]]]}], "input_layers": [["input_334", 0, 0], ["input_335", 0, 0], ["input_336", 0, 0], ["input_337", 0, 0], ["input_338", 0, 0], ["input_339", 0, 0], ["input_340", 0, 0], ["input_341", 0, 0], ["input_342", 0, 0], ["input_343", 0, 0], ["input_344", 0, 0], ["input_345", 0, 0], ["input_346", 0, 0], ["input_347", 0, 0], ["input_348", 0, 0], ["input_349", 0, 0], ["input_350", 0, 0], ["input_351", 0, 0], ["input_352", 0, 0], ["input_353", 0, 0], ["input_354", 0, 0], ["input_355", 0, 0], ["input_356", 0, 0], ["input_357", 0, 0], ["input_358", 0, 0], ["input_359", 0, 0], ["input_360", 0, 0], ["input_361", 0, 0], ["input_362", 0, 0], ["input_363", 0, 0], ["input_364", 0, 0], ["input_365", 0, 0], ["input_366", 0, 0], ["input_367", 0, 0], ["input_368", 0, 0], ["input_369", 0, 0], ["input_370", 0, 0], ["input_371", 0, 0], ["input_372", 0, 0], ["input_373", 0, 0], ["input_374", 0, 0], ["input_375", 0, 0], ["input_376", 0, 0], ["input_377", 0, 0], ["input_378", 0, 0], ["input_379", 0, 0], ["input_380", 0, 0], ["input_381", 0, 0], ["input_382", 0, 0], ["input_383", 0, 0], ["input_384", 0, 0], ["input_385", 0, 0], ["input_386", 0, 0], ["input_387", 0, 0], ["input_388", 0, 0], ["input_389", 0, 0], ["input_390", 0, 0], ["input_391", 0, 0], ["input_392", 0, 0], ["input_393", 0, 0]], "output_layers": [["activation_15", 0, 0]]}, "keras_version": "2.2.5", "backend": "tensorflow"}