{"class_name": "Model", "config": {"name": "model_2", "layers": [{"name": "input_37", "class_name": "InputLayer", "config": {"batch_input_shape": [null, 1], "dtype": "float32", "sparse": false, "name": "input_37"}, "inbound_nodes": []}, {"name": "input_38", "class_name": "InputLayer", "config": {"batch_input_shape": [null, 1], "dtype": "float32", "sparse": false, "name": "input_38"}, "inbound_nodes": []}, {"name": "input_39", "class_name": "InputLayer", "config": {"batch_input_shape": [null, 1], "dtype": "float32", "sparse": false, "name": "input_39"}, "inbound_nodes": []}, {"name": "input_40", "class_name": "InputLayer", "config": {"batch_input_shape": [null, 1], "dtype": "float32", "sparse": false, "name": "input_40"}, "inbound_nodes": []}, {"name": "input_41", "class_name": "InputLayer", "config": {"batch_input_shape": [null, 1], "dtype": "float32", "sparse": false, "name": "input_41"}, "inbound_nodes": []}, {"name": "input_42", "class_name": "InputLayer", "config": {"batch_input_shape": [null, 1], "dtype": "float32", "sparse": false, "name": "input_42"}, "inbound_nodes": []}, {"name": "input_43", "class_name": "InputLayer", "config": {"batch_input_shape": [null, 1], "dtype": "float32", "sparse": false, "name": "input_43"}, "inbound_nodes": []}, {"name": "input_44", "class_name": "InputLayer", "config": {"batch_input_shape": [null, 1], "dtype": "float32", "sparse": false, "name": "input_44"}, "inbound_nodes": []}, {"name": "input_45", "class_name": "InputLayer", "config": {"batch_input_shape": [null, 1], "dtype": "float32", "sparse": false, "name": "input_45"}, "inbound_nodes": []}, {"name": "input_46", "class_name": "InputLayer", "config": {"batch_input_shape": [null, 1], "dtype": "float32", "sparse": false, "name": "input_46"}, "inbound_nodes": []}, {"name": "input_47", "class_name": "InputLayer", "config": {"batch_input_shape": [null, 1], "dtype": "float32", "sparse": false, "name": "input_47"}, "inbound_nodes": []}, {"name": "input_48", "class_name": "InputLayer", "config": {"batch_input_shape": [null, 1], "dtype": "float32", "sparse": false, "name": "input_48"}, "inbound_nodes": []}, {"name": "input_49", "class_name": "InputLayer", "config": {"batch_input_shape": [null, 1], "dtype": "float32", "sparse": false, "name": "input_49"}, "inbound_nodes": []}, {"name": "input_50", "class_name": "InputLayer", "config": {"batch_input_shape": [null, 1], "dtype": "float32", "sparse": false, "name": "input_50"}, "inbound_nodes": []}, {"name": "input_51", "class_name": "InputLayer", "config": {"batch_input_shape": [null, 1], "dtype": "float32", "sparse": false, "name": "input_51"}, "inbound_nodes": []}, {"name": "input_52", "class_name": "InputLayer", "config": {"batch_input_shape": [null, 1], "dtype": "float32", "sparse": false, "name": "input_52"}, "inbound_nodes": []}, {"name": "input_53", "class_name": "InputLayer", "config": {"batch_input_shape": [null, 1], "dtype": "float32", "sparse": false, "name": "input_53"}, "inbound_nodes": []}, {"name": "input_54", "class_name": "InputLayer", "config": {"batch_input_shape": [null, 1], "dtype": "float32", "sparse": false, "name": "input_54"}, "inbound_nodes": []}, {"name": "input_55", "class_name": "InputLayer", "config": {"batch_input_shape": [null, 1], "dtype": "float32", "sparse": false, "name": "input_55"}, "inbound_nodes": []}, {"name": "input_56", "class_name": "InputLayer", "config": {"batch_input_shape": [null, 1], "dtype": "float32", "sparse": false, "name": "input_56"}, "inbound_nodes": []}, {"name": "input_57", "class_name": "InputLayer", "config": {"batch_input_shape": [null, 1], "dtype": "float32", "sparse": false, "name": "input_57"}, "inbound_nodes": []}, {"name": "input_58", "class_name": "InputLayer", "config": {"batch_input_shape": [null, 1], "dtype": "float32", "sparse": false, "name": "input_58"}, "inbound_nodes": []}, {"name": "input_59", "class_name": "InputLayer", "config": {"batch_input_shape": [null, 1], "dtype": "float32", "sparse": false, "name": "input_59"}, "inbound_nodes": []}, {"name": "input_60", "class_name": "InputLayer", "config": {"batch_input_shape": [null, 1], "dtype": "float32", "sparse": false, "name": "input_60"}, "inbound_nodes": []}, {"name": "input_61", "class_name": "InputLayer", "config": {"batch_input_shape": [null, 1], "dtype": "float32", "sparse": false, "name": "input_61"}, "inbound_nodes": []}, {"name": "input_62", "class_name": "InputLayer", "config": {"batch_input_shape": [null, 1], "dtype": "float32", "sparse": false, "name": "input_62"}, "inbound_nodes": []}, {"name": "input_63", "class_name": "InputLayer", "config": {"batch_input_shape": [null, 1], "dtype": "float32", "sparse": false, "name": "input_63"}, "inbound_nodes": []}, {"name": "input_64", "class_name": "InputLayer", "config": {"batch_input_shape": [null, 1], "dtype": "float32", "sparse": false, "name": "input_64"}, "inbound_nodes": []}, {"name": "input_65", "class_name": "InputLayer", "config": {"batch_input_shape": [null, 1], "dtype": "float32", "sparse": false, "name": "input_65"}, "inbound_nodes": []}, {"name": "input_66", "class_name": "InputLayer", "config": {"batch_input_shape": [null, 1], "dtype": "float32", "sparse": false, "name": "input_66"}, "inbound_nodes": []}, {"name": "input_67", "class_name": "InputLayer", "config": {"batch_input_shape": [null, 1], "dtype": "float32", "sparse": false, "name": "input_67"}, "inbound_nodes": []}, {"name": "input_68", "class_name": "InputLayer", "config": {"batch_input_shape": [null, 1], "dtype": "float32", "sparse": false, "name": "input_68"}, "inbound_nodes": []}, {"name": "input_69", "class_name": "InputLayer", "config": {"batch_input_shape": [null, 1], "dtype": "float32", "sparse": false, "name": "input_69"}, "inbound_nodes": []}, {"name": "input_70", "class_name": "InputLayer", "config": {"batch_input_shape": [null, 1], "dtype": "float32", "sparse": false, "name": "input_70"}, "inbound_nodes": []}, {"name": "input_71", "class_name": "InputLayer", "config": {"batch_input_shape": [null, 1], "dtype": "float32", "sparse": false, "name": "input_71"}, "inbound_nodes": []}, {"name": "input_72", "class_name": "InputLayer", "config": {"batch_input_shape": [null, 1], "dtype": "float32", "sparse": false, "name": "input_72"}, "inbound_nodes": []}, {"name": "input_73", "class_name": "InputLayer", "config": {"batch_input_shape": [null, 1], "dtype": "float32", "sparse": false, "name": "input_73"}, "inbound_nodes": []}, {"name": "input_74", "class_name": "InputLayer", "config": {"batch_input_shape": [null, 1], "dtype": "float32", "sparse": false, "name": "input_74"}, "inbound_nodes": []}, {"name": "input_75", "class_name": "InputLayer", "config": {"batch_input_shape": [null, 1], "dtype": "float32", "sparse": false, "name": "input_75"}, "inbound_nodes": []}, {"name": "input_76", "class_name": "InputLayer", "config": {"batch_input_shape": [null, 1], "dtype": "float32", "sparse": false, "name": "input_76"}, "inbound_nodes": []}, {"name": "input_77", "class_name": "InputLayer", "config": {"batch_input_shape": [null, 1], "dtype": "float32", "sparse": false, "name": "input_77"}, "inbound_nodes": []}, {"name": "input_78", "class_name": "InputLayer", "config": {"batch_input_shape": [null, 1], "dtype": "float32", "sparse": false, "name": "input_78"}, "inbound_nodes": []}, {"name": "input_79", "class_name": "InputLayer", "config": {"batch_input_shape": [null, 1], "dtype": "float32", "sparse": false, "name": "input_79"}, "inbound_nodes": []}, {"name": "input_80", "class_name": "InputLayer", "config": {"batch_input_shape": [null, 1], "dtype": "float32", "sparse": false, "name": "input_80"}, "inbound_nodes": []}, {"name": "input_81", "class_name": "InputLayer", "config": {"batch_input_shape": [null, 1], "dtype": "float32", "sparse": false, "name": "input_81"}, "inbound_nodes": []}, {"name": "input_82", "class_name": "InputLayer", "config": {"batch_input_shape": [null, 1], "dtype": "float32", "sparse": false, "name": "input_82"}, "inbound_nodes": []}, {"name": "input_83", "class_name": "InputLayer", "config": {"batch_input_shape": [null, 1], "dtype": "float32", "sparse": false, "name": "input_83"}, "inbound_nodes": []}, {"name": "input_84", "class_name": "InputLayer", "config": {"batch_input_shape": [null, 1], "dtype": "float32", "sparse": false, "name": "input_84"}, "inbound_nodes": []}, {"name": "input_85", "class_name": "InputLayer", "config": {"batch_input_shape": [null, 1], "dtype": "float32", "sparse": false, "name": "input_85"}, "inbound_nodes": []}, {"name": "input_86", "class_name": "InputLayer", "config": {"batch_input_shape": [null, 1], "dtype": "float32", "sparse": false, "name": "input_86"}, "inbound_nodes": []}, {"name": "input_87", "class_name": "InputLayer", "config": {"batch_input_shape": [null, 1], "dtype": "float32", "sparse": false, "name": "input_87"}, "inbound_nodes": []}, {"name": "input_88", "class_name": "InputLayer", "config": {"batch_input_shape": [null, 1], "dtype": "float32", "sparse": false, "name": "input_88"}, "inbound_nodes": []}, {"name": "input_89", "class_name": "InputLayer", "config": {"batch_input_shape": [null, 1], "dtype": "float32", "sparse": false, "name": "input_89"}, "inbound_nodes": []}, {"name": "input_90", "class_name": "InputLayer", "config": {"batch_input_shape": [null, 1], "dtype": "float32", "sparse": false, "name": "input_90"}, "inbound_nodes": []}, {"name": "input_91", "class_name": "InputLayer", "config": {"batch_input_shape": [null, 1], "dtype": "float32", "sparse": false, "name": "input_91"}, "inbound_nodes": []}, {"name": "input_92", "class_name": "InputLayer", "config": {"batch_input_shape": [null, 1], "dtype": "float32", "sparse": false, "name": "input_92"}, "inbound_nodes": []}, {"name": "input_93", "class_name": "InputLayer", "config": {"batch_input_shape": [null, 1], "dtype": "float32", "sparse": false, "name": "input_93"}, "inbound_nodes": []}, {"name": "input_94", "class_name": "InputLayer", "config": {"batch_input_shape": [null, 1], "dtype": "float32", "sparse": false, "name": "input_94"}, "inbound_nodes": []}, {"name": "input_95", "class_name": "InputLayer", "config": {"batch_input_shape": [null, 1], "dtype": "float32", "sparse": false, "name": "input_95"}, "inbound_nodes": []}, {"name": "input_96", "class_name": "InputLayer", "config": {"batch_input_shape": [null, 1], "dtype": "float32", "sparse": false, "name": "input_96"}, "inbound_nodes": []}, {"name": "input_97", "class_name": "InputLayer", "config": {"batch_input_shape": [null, 1], "dtype": "float32", "sparse": false, "name": "input_97"}, "inbound_nodes": []}, {"name": "input_98", "class_name": "InputLayer", "config": {"batch_input_shape": [null, 1], "dtype": "float32", "sparse": false, "name": "input_98"}, "inbound_nodes": []}, {"name": "input_99", "class_name": "InputLayer", "config": {"batch_input_shape": [null, 1], "dtype": "float32", "sparse": false, "name": "input_99"}, "inbound_nodes": []}, {"name": "input_100", "class_name": "InputLayer", "config": {"batch_input_shape": [null, 1], "dtype": "float32", "sparse": false, "name": "input_100"}, "inbound_nodes": []}, {"name": "input_101", "class_name": "InputLayer", "config": {"batch_input_shape": [null, 1], "dtype": "float32", "sparse": false, "name": "input_101"}, "inbound_nodes": []}, {"name": "input_102", "class_name": "InputLayer", "config": {"batch_input_shape": [null, 1], "dtype": "float32", "sparse": false, "name": "input_102"}, "inbound_nodes": []}, {"name": "input_103", "class_name": "InputLayer", "config": {"batch_input_shape": [null, 1], "dtype": "float32", "sparse": false, "name": "input_103"}, "inbound_nodes": []}, {"name": "input_104", "class_name": "InputLayer", "config": {"batch_input_shape": [null, 1], "dtype": "float32", "sparse": false, "name": "input_104"}, "inbound_nodes": []}, {"name": "input_105", "class_name": "InputLayer", "config": {"batch_input_shape": [null, 1], "dtype": "float32", "sparse": false, "name": "input_105"}, "inbound_nodes": []}, {"name": "input_106", "class_name": "InputLayer", "config": {"batch_input_shape": [null, 1], "dtype": "float32", "sparse": false, "name": "input_106"}, "inbound_nodes": []}, {"name": "input_107", "class_name": "InputLayer", "config": {"batch_input_shape": [null, 1], "dtype": "float32", "sparse": false, "name": "input_107"}, "inbound_nodes": []}, {"name": "input_108", "class_name": "InputLayer", "config": {"batch_input_shape": [null, 1], "dtype": "float32", "sparse": false, "name": "input_108"}, "inbound_nodes": []}, {"name": "input_109", "class_name": "InputLayer", "config": {"batch_input_shape": [null, 1], "dtype": "float32", "sparse": false, "name": "input_109"}, "inbound_nodes": []}, {"name": "input_110", "class_name": "InputLayer", "config": {"batch_input_shape": [null, 1], "dtype": "float32", "sparse": false, "name": "input_110"}, "inbound_nodes": []}, {"name": "input_111", "class_name": "InputLayer", "config": {"batch_input_shape": [null, 1], "dtype": "float32", "sparse": false, "name": "input_111"}, "inbound_nodes": []}, {"name": "input_112", "class_name": "InputLayer", "config": {"batch_input_shape": [null, 1], "dtype": "float32", "sparse": false, "name": "input_112"}, "inbound_nodes": []}, {"name": "input_113", "class_name": "InputLayer", "config": {"batch_input_shape": [null, 1], "dtype": "float32", "sparse": false, "name": "input_113"}, "inbound_nodes": []}, {"name": "input_114", "class_name": "InputLayer", "config": {"batch_input_shape": [null, 1], "dtype": "float32", "sparse": false, "name": "input_114"}, "inbound_nodes": []}, {"name": "input_115", "class_name": "InputLayer", "config": {"batch_input_shape": [null, 1], "dtype": "float32", "sparse": false, "name": "input_115"}, "inbound_nodes": []}, {"name": "input_116", "class_name": "InputLayer", "config": {"batch_input_shape": [null, 1], "dtype": "float32", "sparse": false, "name": "input_116"}, "inbound_nodes": []}, {"name": "input_117", "class_name": "InputLayer", "config": {"batch_input_shape": [null, 1], "dtype": "float32", "sparse": false, "name": "input_117"}, "inbound_nodes": []}, {"name": "input_118", "class_name": "InputLayer", "config": {"batch_input_shape": [null, 1], "dtype": "float32", "sparse": false, "name": "input_118"}, "inbound_nodes": []}, {"name": "input_119", "class_name": "InputLayer", "config": {"batch_input_shape": [null, 1], "dtype": "float32", "sparse": false, "name": "input_119"}, "inbound_nodes": []}, {"name": "input_120", "class_name": "InputLayer", "config": {"batch_input_shape": [null, 1], "dtype": "float32", "sparse": false, "name": "input_120"}, "inbound_nodes": []}, {"name": "input_121", "class_name": "InputLayer", "config": {"batch_input_shape": [null, 1], "dtype": "float32", "sparse": false, "name": "input_121"}, "inbound_nodes": []}, {"name": "input_122", "class_name": "InputLayer", "config": {"batch_input_shape": [null, 1], "dtype": "float32", "sparse": false, "name": "input_122"}, "inbound_nodes": []}, {"name": "input_123", "class_name": "InputLayer", "config": {"batch_input_shape": [null, 1], "dtype": "float32", "sparse": false, "name": "input_123"}, "inbound_nodes": []}, {"name": "input_124", "class_name": "InputLayer", "config": {"batch_input_shape": [null, 1], "dtype": "float32", "sparse": false, "name": "input_124"}, "inbound_nodes": []}, {"name": "input_125", "class_name": "InputLayer", "config": {"batch_input_shape": [null, 1], "dtype": "float32", "sparse": false, "name": "input_125"}, "inbound_nodes": []}, {"name": "input_126", "class_name": "InputLayer", "config": {"batch_input_shape": [null, 1], "dtype": "float32", "sparse": false, "name": "input_126"}, "inbound_nodes": []}, {"name": "input_127", "class_name": "InputLayer", "config": {"batch_input_shape": [null, 1], "dtype": "float32", "sparse": false, "name": "input_127"}, "inbound_nodes": []}, {"name": "input_128", "class_name": "InputLayer", "config": {"batch_input_shape": [null, 1], "dtype": "float32", "sparse": false, "name": "input_128"}, "inbound_nodes": []}, {"name": "input_129", "class_name": "InputLayer", "config": {"batch_input_shape": [null, 1], "dtype": "float32", "sparse": false, "name": "input_129"}, "inbound_nodes": []}, {"name": "input_130", "class_name": "InputLayer", "config": {"batch_input_shape": [null, 1], "dtype": "float32", "sparse": false, "name": "input_130"}, "inbound_nodes": []}, {"name": "input_131", "class_name": "InputLayer", "config": {"batch_input_shape": [null, 1], "dtype": "float32", "sparse": false, "name": "input_131"}, "inbound_nodes": []}, {"name": "input_132", "class_name": "InputLayer", "config": {"batch_input_shape": [null, 1], "dtype": "float32", "sparse": false, "name": "input_132"}, "inbound_nodes": []}, {"name": "input_133", "class_name": "InputLayer", "config": {"batch_input_shape": [null, 1], "dtype": "float32", "sparse": false, "name": "input_133"}, "inbound_nodes": []}, {"name": "input_134", "class_name": "InputLayer", "config": {"batch_input_shape": [null, 1], "dtype": "float32", "sparse": false, "name": "input_134"}, "inbound_nodes": []}, {"name": "input_135", "class_name": "InputLayer", "config": {"batch_input_shape": [null, 1], "dtype": "float32", "sparse": false, "name": "input_135"}, "inbound_nodes": []}, {"name": "input_136", "class_name": "InputLayer", "config": {"batch_input_shape": [null, 1], "dtype": "float32", "sparse": false, "name": "input_136"}, "inbound_nodes": []}, {"name": "input_137", "class_name": "InputLayer", "config": {"batch_input_shape": [null, 1], "dtype": "float32", "sparse": false, "name": "input_137"}, "inbound_nodes": []}, {"name": "input_138", "class_name": "InputLayer", "config": {"batch_input_shape": [null, 1], "dtype": "float32", "sparse": false, "name": "input_138"}, "inbound_nodes": []}, {"name": "input_139", "class_name": "InputLayer", "config": {"batch_input_shape": [null, 1], "dtype": "float32", "sparse": false, "name": "input_139"}, "inbound_nodes": []}, {"name": "input_140", "class_name": "InputLayer", "config": {"batch_input_shape": [null, 1], "dtype": "float32", "sparse": false, "name": "input_140"}, "inbound_nodes": []}, {"name": "input_141", "class_name": "InputLayer", "config": {"batch_input_shape": [null, 1], "dtype": "float32", "sparse": false, "name": "input_141"}, "inbound_nodes": []}, {"name": "input_142", "class_name": "InputLayer", "config": {"batch_input_shape": [null, 1], "dtype": "float32", "sparse": false, "name": "input_142"}, "inbound_nodes": []}, {"name": "input_143", "class_name": "InputLayer", "config": {"batch_input_shape": [null, 1], "dtype": "float32", "sparse": false, "name": "input_143"}, "inbound_nodes": []}, {"name": "input_144", "class_name": "InputLayer", "config": {"batch_input_shape": [null, 1], "dtype": "float32", "sparse": false, "name": "input_144"}, "inbound_nodes": []}, {"name": "input_145", "class_name": "InputLayer", "config": {"batch_input_shape": [null, 1], "dtype": "float32", "sparse": false, "name": "input_145"}, "inbound_nodes": []}, {"name": "input_146", "class_name": "InputLayer", "config": {"batch_input_shape": [null, 1], "dtype": "float32", "sparse": false, "name": "input_146"}, "inbound_nodes": []}, {"name": "input_147", "class_name": "InputLayer", "config": {"batch_input_shape": [null, 1], "dtype": "float32", "sparse": false, "name": "input_147"}, "inbound_nodes": []}, {"name": "input_148", "class_name": "InputLayer", "config": {"batch_input_shape": [null, 1], "dtype": "float32", "sparse": false, "name": "input_148"}, "inbound_nodes": []}, {"name": "input_149", "class_name": "InputLayer", "config": {"batch_input_shape": [null, 1], "dtype": "float32", "sparse": false, "name": "input_149"}, "inbound_nodes": []}, {"name": "input_150", "class_name": "InputLayer", "config": {"batch_input_shape": [null, 1], "dtype": "float32", "sparse": false, "name": "input_150"}, "inbound_nodes": []}, {"name": "input_151", "class_name": "InputLayer", "config": {"batch_input_shape": [null, 1], "dtype": "float32", "sparse": false, "name": "input_151"}, "inbound_nodes": []}, {"name": "input_152", "class_name": "InputLayer", "config": {"batch_input_shape": [null, 1], "dtype": "float32", "sparse": false, "name": "input_152"}, "inbound_nodes": []}, {"name": "input_153", "class_name": "InputLayer", "config": {"batch_input_shape": [null, 1], "dtype": "float32", "sparse": false, "name": "input_153"}, "inbound_nodes": []}, {"name": "input_154", "class_name": "InputLayer", "config": {"batch_input_shape": [null, 1], "dtype": "float32", "sparse": false, "name": "input_154"}, "inbound_nodes": []}, {"name": "input_155", "class_name": "InputLayer", "config": {"batch_input_shape": [null, 1], "dtype": "float32", "sparse": false, "name": "input_155"}, "inbound_nodes": []}, {"name": "input_156", "class_name": "InputLayer", "config": {"batch_input_shape": [null, 1], "dtype": "float32", "sparse": false, "name": "input_156"}, "inbound_nodes": []}, {"name": "input_157", "class_name": "InputLayer", "config": {"batch_input_shape": [null, 1], "dtype": "float32", "sparse": false, "name": "input_157"}, "inbound_nodes": []}, {"name": "input_158", "class_name": "InputLayer", "config": {"batch_input_shape": [null, 1], "dtype": "float32", "sparse": false, "name": "input_158"}, "inbound_nodes": []}, {"name": "input_159", "class_name": "InputLayer", "config": {"batch_input_shape": [null, 1], "dtype": "float32", "sparse": false, "name": "input_159"}, "inbound_nodes": []}, {"name": "input_160", "class_name": "InputLayer", "config": {"batch_input_shape": [null, 1], "dtype": "float32", "sparse": false, "name": "input_160"}, "inbound_nodes": []}, {"name": "input_161", "class_name": "InputLayer", "config": {"batch_input_shape": [null, 1], "dtype": "float32", "sparse": false, "name": "input_161"}, "inbound_nodes": []}, {"name": "input_162", "class_name": "InputLayer", "config": {"batch_input_shape": [null, 1], "dtype": "float32", "sparse": false, "name": "input_162"}, "inbound_nodes": []}, {"name": "input_163", "class_name": "InputLayer", "config": {"batch_input_shape": [null, 1], "dtype": "float32", "sparse": false, "name": "input_163"}, "inbound_nodes": []}, {"name": "input_164", "class_name": "InputLayer", "config": {"batch_input_shape": [null, 1], "dtype": "float32", "sparse": false, "name": "input_164"}, "inbound_nodes": []}, {"name": "input_165", "class_name": "InputLayer", "config": {"batch_input_shape": [null, 1], "dtype": "float32", "sparse": false, "name": "input_165"}, "inbound_nodes": []}, {"name": "input_166", "class_name": "InputLayer", "config": {"batch_input_shape": [null, 1], "dtype": "float32", "sparse": false, "name": "input_166"}, "inbound_nodes": []}, {"name": "input_167", "class_name": "InputLayer", "config": {"batch_input_shape": [null, 1], "dtype": "float32", "sparse": false, "name": "input_167"}, "inbound_nodes": []}, {"name": "input_168", "class_name": "InputLayer", "config": {"batch_input_shape": [null, 1], "dtype": "float32", "sparse": false, "name": "input_168"}, "inbound_nodes": []}, {"name": "input_169", "class_name": "InputLayer", "config": {"batch_input_shape": [null, 1], "dtype": "float32", "sparse": false, "name": "input_169"}, "inbound_nodes": []}, {"name": "input_170", "class_name": "InputLayer", "config": {"batch_input_shape": [null, 1], "dtype": "float32", "sparse": false, "name": "input_170"}, "inbound_nodes": []}, {"name": "input_171", "class_name": "InputLayer", "config": {"batch_input_shape": [null, 1], "dtype": "float32", "sparse": false, "name": "input_171"}, "inbound_nodes": []}, {"name": "input_172", "class_name": "InputLayer", "config": {"batch_input_shape": [null, 1], "dtype": "float32", "sparse": false, "name": "input_172"}, "inbound_nodes": []}, {"name": "input_173", "class_name": "InputLayer", "config": {"batch_input_shape": [null, 1], "dtype": "float32", "sparse": false, "name": "input_173"}, "inbound_nodes": []}, {"name": "input_174", "class_name": "InputLayer", "config": {"batch_input_shape": [null, 1], "dtype": "float32", "sparse": false, "name": "input_174"}, "inbound_nodes": []}, {"name": "input_175", "class_name": "InputLayer", "config": {"batch_input_shape": [null, 1], "dtype": "float32", "sparse": false, "name": "input_175"}, "inbound_nodes": []}, {"name": "input_176", "class_name": "InputLayer", "config": {"batch_input_shape": [null, 1], "dtype": "float32", "sparse": false, "name": "input_176"}, "inbound_nodes": []}, {"name": "input_177", "class_name": "InputLayer", "config": {"batch_input_shape": [null, 1], "dtype": "float32", "sparse": false, "name": "input_177"}, "inbound_nodes": []}, {"name": "input_178", "class_name": "InputLayer", "config": {"batch_input_shape": [null, 1], "dtype": "float32", "sparse": false, "name": "input_178"}, "inbound_nodes": []}, {"name": "input_179", "class_name": "InputLayer", "config": {"batch_input_shape": [null, 1], "dtype": "float32", "sparse": false, "name": "input_179"}, "inbound_nodes": []}, {"name": "input_180", "class_name": "InputLayer", "config": {"batch_input_shape": [null, 1], "dtype": "float32", "sparse": false, "name": "input_180"}, "inbound_nodes": []}, {"name": "input_181", "class_name": "InputLayer", "config": {"batch_input_shape": [null, 1], "dtype": "float32", "sparse": false, "name": "input_181"}, "inbound_nodes": []}, {"name": "input_182", "class_name": "InputLayer", "config": {"batch_input_shape": [null, 1], "dtype": "float32", "sparse": false, "name": "input_182"}, "inbound_nodes": []}, {"name": "input_183", "class_name": "InputLayer", "config": {"batch_input_shape": [null, 1], "dtype": "float32", "sparse": false, "name": "input_183"}, "inbound_nodes": []}, {"name": "input_184", "class_name": "InputLayer", "config": {"batch_input_shape": [null, 1], "dtype": "float32", "sparse": false, "name": "input_184"}, "inbound_nodes": []}, {"name": "input_185", "class_name": "InputLayer", "config": {"batch_input_shape": [null, 1], "dtype": "float32", "sparse": false, "name": "input_185"}, "inbound_nodes": []}, {"name": "input_186", "class_name": "InputLayer", "config": {"batch_input_shape": [null, 1], "dtype": "float32", "sparse": false, "name": "input_186"}, "inbound_nodes": []}, {"name": "input_187", "class_name": "InputLayer", "config": {"batch_input_shape": [null, 1], "dtype": "float32", "sparse": false, "name": "input_187"}, "inbound_nodes": []}, {"name": "input_188", "class_name": "InputLayer", "config": {"batch_input_shape": [null, 1], "dtype": "float32", "sparse": false, "name": "input_188"}, "inbound_nodes": []}, {"name": "input_189", "class_name": "InputLayer", "config": {"batch_input_shape": [null, 1], "dtype": "float32", "sparse": false, "name": "input_189"}, "inbound_nodes": []}, {"name": "input_190", "class_name": "InputLayer", "config": {"batch_input_shape": [null, 1], "dtype": "float32", "sparse": false, "name": "input_190"}, "inbound_nodes": []}, {"name": "input_191", "class_name": "InputLayer", "config": {"batch_input_shape": [null, 1], "dtype": "float32", "sparse": false, "name": "input_191"}, "inbound_nodes": []}, {"name": "input_192", "class_name": "InputLayer", "config": {"batch_input_shape": [null, 1], "dtype": "float32", "sparse": false, "name": "input_192"}, "inbound_nodes": []}, {"name": "input_193", "class_name": "InputLayer", "config": {"batch_input_shape": [null, 1], "dtype": "float32", "sparse": false, "name": "input_193"}, "inbound_nodes": []}, {"name": "input_194", "class_name": "InputLayer", "config": {"batch_input_shape": [null, 1], "dtype": "float32", "sparse": false, "name": "input_194"}, "inbound_nodes": []}, {"name": "input_195", "class_name": "InputLayer", "config": {"batch_input_shape": [null, 1], "dtype": "float32", "sparse": false, "name": "input_195"}, "inbound_nodes": []}, {"name": "input_196", "class_name": "InputLayer", "config": {"batch_input_shape": [null, 1], "dtype": "float32", "sparse": false, "name": "input_196"}, "inbound_nodes": []}, {"name": "input_197", "class_name": "InputLayer", "config": {"batch_input_shape": [null, 1], "dtype": "float32", "sparse": false, "name": "input_197"}, "inbound_nodes": []}, {"name": "input_198", "class_name": "InputLayer", "config": {"batch_input_shape": [null, 1], "dtype": "float32", "sparse": false, "name": "input_198"}, "inbound_nodes": []}, {"name": "input_199", "class_name": "InputLayer", "config": {"batch_input_shape": [null, 1], "dtype": "float32", "sparse": false, "name": "input_199"}, "inbound_nodes": []}, {"name": "input_200", "class_name": "InputLayer", "config": {"batch_input_shape": [null, 1], "dtype": "float32", "sparse": false, "name": "input_200"}, "inbound_nodes": []}, {"name": "input_201", "class_name": "InputLayer", "config": {"batch_input_shape": [null, 1], "dtype": "float32", "sparse": false, "name": "input_201"}, "inbound_nodes": []}, {"name": "input_202", "class_name": "InputLayer", "config": {"batch_input_shape": [null, 1], "dtype": "float32", "sparse": false, "name": "input_202"}, "inbound_nodes": []}, {"name": "input_203", "class_name": "InputLayer", "config": {"batch_input_shape": [null, 1], "dtype": "float32", "sparse": false, "name": "input_203"}, "inbound_nodes": []}, {"name": "input_204", "class_name": "InputLayer", "config": {"batch_input_shape": [null, 1], "dtype": "float32", "sparse": false, "name": "input_204"}, "inbound_nodes": []}, {"name": "input_205", "class_name": "InputLayer", "config": {"batch_input_shape": [null, 1], "dtype": "float32", "sparse": false, "name": "input_205"}, "inbound_nodes": []}, {"name": "input_206", "class_name": "InputLayer", "config": {"batch_input_shape": [null, 1], "dtype": "float32", "sparse": false, "name": "input_206"}, "inbound_nodes": []}, {"name": "input_207", "class_name": "InputLayer", "config": {"batch_input_shape": [null, 1], "dtype": "float32", "sparse": false, "name": "input_207"}, "inbound_nodes": []}, {"name": "input_208", "class_name": "InputLayer", "config": {"batch_input_shape": [null, 1], "dtype": "float32", "sparse": false, "name": "input_208"}, "inbound_nodes": []}, {"name": "input_209", "class_name": "InputLayer", "config": {"batch_input_shape": [null, 1], "dtype": "float32", "sparse": false, "name": "input_209"}, "inbound_nodes": []}, {"name": "input_210", "class_name": "InputLayer", "config": {"batch_input_shape": [null, 1], "dtype": "float32", "sparse": false, "name": "input_210"}, "inbound_nodes": []}, {"name": "input_211", "class_name": "InputLayer", "config": {"batch_input_shape": [null, 1], "dtype": "float32", "sparse": false, "name": "input_211"}, "inbound_nodes": []}, {"name": "input_212", "class_name": "InputLayer", "config": {"batch_input_shape": [null, 1], "dtype": "float32", "sparse": false, "name": "input_212"}, "inbound_nodes": []}, {"name": "input_213", "class_name": "InputLayer", "config": {"batch_input_shape": [null, 1], "dtype": "float32", "sparse": false, "name": "input_213"}, "inbound_nodes": []}, {"name": "input_214", "class_name": "InputLayer", "config": {"batch_input_shape": [null, 1], "dtype": "float32", "sparse": false, "name": "input_214"}, "inbound_nodes": []}, {"name": "input_215", "class_name": "InputLayer", "config": {"batch_input_shape": [null, 1], "dtype": "float32", "sparse": false, "name": "input_215"}, "inbound_nodes": []}, {"name": "input_216", "class_name": "InputLayer", "config": {"batch_input_shape": [null, 1], "dtype": "float32", "sparse": false, "name": "input_216"}, "inbound_nodes": []}, {"name": "input_217", "class_name": "InputLayer", "config": {"batch_input_shape": [null, 1], "dtype": "float32", "sparse": false, "name": "input_217"}, "inbound_nodes": []}, {"name": "input_218", "class_name": "InputLayer", "config": {"batch_input_shape": [null, 1], "dtype": "float32", "sparse": false, "name": "input_218"}, "inbound_nodes": []}, {"name": "input_219", "class_name": "InputLayer", "config": {"batch_input_shape": [null, 1], "dtype": "float32", "sparse": false, "name": "input_219"}, "inbound_nodes": []}, {"name": "input_220", "class_name": "InputLayer", "config": {"batch_input_shape": [null, 1], "dtype": "float32", "sparse": false, "name": "input_220"}, "inbound_nodes": []}, {"name": "input_221", "class_name": "InputLayer", "config": {"batch_input_shape": [null, 1], "dtype": "float32", "sparse": false, "name": "input_221"}, "inbound_nodes": []}, {"name": "input_222", "class_name": "InputLayer", "config": {"batch_input_shape": [null, 1], "dtype": "float32", "sparse": false, "name": "input_222"}, "inbound_nodes": []}, {"name": "input_223", "class_name": "InputLayer", "config": {"batch_input_shape": [null, 1], "dtype": "float32", "sparse": false, "name": "input_223"}, "inbound_nodes": []}, {"name": "input_224", "class_name": "InputLayer", "config": {"batch_input_shape": [null, 1], "dtype": "float32", "sparse": false, "name": "input_224"}, "inbound_nodes": []}, {"name": "input_225", "class_name": "InputLayer", "config": {"batch_input_shape": [null, 1], "dtype": "float32", "sparse": false, "name": "input_225"}, "inbound_nodes": []}, {"name": "input_226", "class_name": "InputLayer", "config": {"batch_input_shape": [null, 1], "dtype": "float32", "sparse": false, "name": "input_226"}, "inbound_nodes": []}, {"name": "input_227", "class_name": "InputLayer", "config": {"batch_input_shape": [null, 1], "dtype": "float32", "sparse": false, "name": "input_227"}, "inbound_nodes": []}, {"name": "input_228", "class_name": "InputLayer", "config": {"batch_input_shape": [null, 1], "dtype": "float32", "sparse": false, "name": "input_228"}, "inbound_nodes": []}, {"name": "input_229", "class_name": "InputLayer", "config": {"batch_input_shape": [null, 1], "dtype": "float32", "sparse": false, "name": "input_229"}, "inbound_nodes": []}, {"name": "input_230", "class_name": "InputLayer", "config": {"batch_input_shape": [null, 1], "dtype": "float32", "sparse": false, "name": "input_230"}, "inbound_nodes": []}, {"name": "input_231", "class_name": "InputLayer", "config": {"batch_input_shape": [null, 1], "dtype": "float32", "sparse": false, "name": "input_231"}, "inbound_nodes": []}, {"name": "input_232", "class_name": "InputLayer", "config": {"batch_input_shape": [null, 1], "dtype": "float32", "sparse": false, "name": "input_232"}, "inbound_nodes": []}, {"name": "input_233", "class_name": "InputLayer", "config": {"batch_input_shape": [null, 1], "dtype": "float32", "sparse": false, "name": "input_233"}, "inbound_nodes": []}, {"name": "input_234", "class_name": "InputLayer", "config": {"batch_input_shape": [null, 1], "dtype": "float32", "sparse": false, "name": "input_234"}, "inbound_nodes": []}, {"name": "input_235", "class_name": "InputLayer", "config": {"batch_input_shape": [null, 1], "dtype": "float32", "sparse": false, "name": "input_235"}, "inbound_nodes": []}, {"name": "input_236", "class_name": "InputLayer", "config": {"batch_input_shape": [null, 1], "dtype": "float32", "sparse": false, "name": "input_236"}, "inbound_nodes": []}, {"name": "input_237", "class_name": "InputLayer", "config": {"batch_input_shape": [null, 1], "dtype": "float32", "sparse": false, "name": "input_237"}, "inbound_nodes": []}, {"name": "input_238", "class_name": "InputLayer", "config": {"batch_input_shape": [null, 1], "dtype": "float32", "sparse": false, "name": "input_238"}, "inbound_nodes": []}, {"name": "input_239", "class_name": "InputLayer", "config": {"batch_input_shape": [null, 1], "dtype": "float32", "sparse": false, "name": "input_239"}, "inbound_nodes": []}, {"name": "input_240", "class_name": "InputLayer", "config": {"batch_input_shape": [null, 1], "dtype": "float32", "sparse": false, "name": "input_240"}, "inbound_nodes": []}, {"name": "input_241", "class_name": "InputLayer", "config": {"batch_input_shape": [null, 1], "dtype": "float32", "sparse": false, "name": "input_241"}, "inbound_nodes": []}, {"name": "input_242", "class_name": "InputLayer", "config": {"batch_input_shape": [null, 1], "dtype": "float32", "sparse": false, "name": "input_242"}, "inbound_nodes": []}, {"name": "input_243", "class_name": "InputLayer", "config": {"batch_input_shape": [null, 1], "dtype": "float32", "sparse": false, "name": "input_243"}, "inbound_nodes": []}, {"name": "input_244", "class_name": "InputLayer", "config": {"batch_input_shape": [null, 1], "dtype": "float32", "sparse": false, "name": "input_244"}, "inbound_nodes": []}, {"name": "input_245", "class_name": "InputLayer", "config": {"batch_input_shape": [null, 1], "dtype": "float32", "sparse": false, "name": "input_245"}, "inbound_nodes": []}, {"name": "input_246", "class_name": "InputLayer", "config": {"batch_input_shape": [null, 1], "dtype": "float32", "sparse": false, "name": "input_246"}, "inbound_nodes": []}, {"name": "input_247", "class_name": "InputLayer", "config": {"batch_input_shape": [null, 1], "dtype": "float32", "sparse": false, "name": "input_247"}, "inbound_nodes": []}, {"name": "input_248", "class_name": "InputLayer", "config": {"batch_input_shape": [null, 1], "dtype": "float32", "sparse": false, "name": "input_248"}, "inbound_nodes": []}, {"name": "input_249", "class_name": "InputLayer", "config": {"batch_input_shape": [null, 1], "dtype": "float32", "sparse": false, "name": "input_249"}, "inbound_nodes": []}, {"name": "input_250", "class_name": "InputLayer", "config": {"batch_input_shape": [null, 1], "dtype": "float32", "sparse": false, "name": "input_250"}, "inbound_nodes": []}, {"name": "input_251", "class_name": "InputLayer", "config": {"batch_input_shape": [null, 1], "dtype": "float32", "sparse": false, "name": "input_251"}, "inbound_nodes": []}, {"name": "input_252", "class_name": "InputLayer", "config": {"batch_input_shape": [null, 1], "dtype": "float32", "sparse": false, "name": "input_252"}, "inbound_nodes": []}, {"name": "input_253", "class_name": "InputLayer", "config": {"batch_input_shape": [null, 1], "dtype": "float32", "sparse": false, "name": "input_253"}, "inbound_nodes": []}, {"name": "input_254", "class_name": "InputLayer", "config": {"batch_input_shape": [null, 1], "dtype": "float32", "sparse": false, "name": "input_254"}, "inbound_nodes": []}, {"name": "input_255", "class_name": "InputLayer", "config": {"batch_input_shape": [null, 1], "dtype": "float32", "sparse": false, "name": "input_255"}, "inbound_nodes": []}, {"name": "input_256", "class_name": "InputLayer", "config": {"batch_input_shape": [null, 1], "dtype": "float32", "sparse": false, "name": "input_256"}, "inbound_nodes": []}, {"name": "input_257", "class_name": "InputLayer", "config": {"batch_input_shape": [null, 1], "dtype": "float32", "sparse": false, "name": "input_257"}, "inbound_nodes": []}, {"name": "input_258", "class_name": "InputLayer", "config": {"batch_input_shape": [null, 1], "dtype": "float32", "sparse": false, "name": "input_258"}, "inbound_nodes": []}, {"name": "input_259", "class_name": "InputLayer", "config": {"batch_input_shape": [null, 1], "dtype": "float32", "sparse": false, "name": "input_259"}, "inbound_nodes": []}, {"name": "input_260", "class_name": "InputLayer", "config": {"batch_input_shape": [null, 1], "dtype": "float32", "sparse": false, "name": "input_260"}, "inbound_nodes": []}, {"name": "input_261", "class_name": "InputLayer", "config": {"batch_input_shape": [null, 1], "dtype": "float32", "sparse": false, "name": "input_261"}, "inbound_nodes": []}, {"name": "input_262", "class_name": "InputLayer", "config": {"batch_input_shape": [null, 1], "dtype": "float32", "sparse": false, "name": "input_262"}, "inbound_nodes": []}, {"name": "input_263", "class_name": "InputLayer", "config": {"batch_input_shape": [null, 1], "dtype": "float32", "sparse": false, "name": "input_263"}, "inbound_nodes": []}, {"name": "input_264", "class_name": "InputLayer", "config": {"batch_input_shape": [null, 1], "dtype": "float32", "sparse": false, "name": "input_264"}, "inbound_nodes": []}, {"name": "input_265", "class_name": "InputLayer", "config": {"batch_input_shape": [null, 1], "dtype": "float32", "sparse": false, "name": "input_265"}, "inbound_nodes": []}, {"name": "input_266", "class_name": "InputLayer", "config": {"batch_input_shape": [null, 1], "dtype": "float32", "sparse": false, "name": "input_266"}, "inbound_nodes": []}, {"name": "input_267", "class_name": "InputLayer", "config": {"batch_input_shape": [null, 1], "dtype": "float32", "sparse": false, "name": "input_267"}, "inbound_nodes": []}, {"name": "input_268", "class_name": "InputLayer", "config": {"batch_input_shape": [null, 1], "dtype": "float32", "sparse": false, "name": "input_268"}, "inbound_nodes": []}, {"name": "input_269", "class_name": "InputLayer", "config": {"batch_input_shape": [null, 1], "dtype": "float32", "sparse": false, "name": "input_269"}, "inbound_nodes": []}, {"name": "input_270", "class_name": "InputLayer", "config": {"batch_input_shape": [null, 1], "dtype": "float32", "sparse": false, "name": "input_270"}, "inbound_nodes": []}, {"name": "input_271", "class_name": "InputLayer", "config": {"batch_input_shape": [null, 1], "dtype": "float32", "sparse": false, "name": "input_271"}, "inbound_nodes": []}, {"name": "input_272", "class_name": "InputLayer", "config": {"batch_input_shape": [null, 1], "dtype": "float32", "sparse": false, "name": "input_272"}, "inbound_nodes": []}, {"name": "input_273", "class_name": "InputLayer", "config": {"batch_input_shape": [null, 1], "dtype": "float32", "sparse": false, "name": "input_273"}, "inbound_nodes": []}, {"name": "input_274", "class_name": "InputLayer", "config": {"batch_input_shape": [null, 1], "dtype": "float32", "sparse": false, "name": "input_274"}, "inbound_nodes": []}, {"name": "input_275", "class_name": "InputLayer", "config": {"batch_input_shape": [null, 1], "dtype": "float32", "sparse": false, "name": "input_275"}, "inbound_nodes": []}, {"name": "input_276", "class_name": "InputLayer", "config": {"batch_input_shape": [null, 1], "dtype": "float32", "sparse": false, "name": "input_276"}, "inbound_nodes": []}, {"name": "embedding_0", "class_name": "Embedding", "config": {"name": "embedding_0", "trainable": true, "batch_input_shape": [null, null], "dtype": "float32", "input_dim": 6, "output_dim": 6, "embeddings_initializer": {"class_name": "RandomUniform", "config": {"minval": -0.05, "maxval": 0.05, "seed": null}}, "embeddings_regularizer": null, "activity_regularizer": null, "embeddings_constraint": null, "mask_zero": false, "input_length": null}, "inbound_nodes": [[["input_37", 0, 0, {}]]]}, {"name": "embedding_1", "class_name": "Embedding", "config": {"name": "embedding_1", "trainable": true, "batch_input_shape": [null, null], "dtype": "float32", "input_dim": 7, "output_dim": 6, "embeddings_initializer": {"class_name": "RandomUniform", "config": {"minval": -0.05, "maxval": 0.05, "seed": null}}, "embeddings_regularizer": null, "activity_regularizer": null, "embeddings_constraint": null, "mask_zero": false, "input_length": null}, "inbound_nodes": [[["input_38", 0, 0, {}]]]}, {"name": "embedding_2", "class_name": "Embedding", "config": {"name": "embedding_2", "trainable": true, "batch_input_shape": [null, null], "dtype": "float32", "input_dim": 7, "output_dim": 6, "embeddings_initializer": {"class_name": "RandomUniform", "config": {"minval": -0.05, "maxval": 0.05, "seed": null}}, "embeddings_regularizer": null, "activity_regularizer": null, "embeddings_constraint": null, "mask_zero": false, "input_length": null}, "inbound_nodes": [[["input_39", 0, 0, {}]]]}, {"name": "embedding_3", "class_name": "Embedding", "config": {"name": "embedding_3", "trainable": true, "batch_input_shape": [null, null], "dtype": "float32", "input_dim": 7, "output_dim": 6, "embeddings_initializer": {"class_name": "RandomUniform", "config": {"minval": -0.05, "maxval": 0.05, "seed": null}}, "embeddings_regularizer": null, "activity_regularizer": null, "embeddings_constraint": null, "mask_zero": false, "input_length": null}, "inbound_nodes": [[["input_40", 0, 0, {}]]]}, {"name": "embedding_4", "class_name": "Embedding", "config": {"name": "embedding_4", "trainable": true, "batch_input_shape": [null, null], "dtype": "float32", "input_dim": 7, "output_dim": 6, "embeddings_initializer": {"class_name": "RandomUniform", "config": {"minval": -0.05, "maxval": 0.05, "seed": null}}, "embeddings_regularizer": null, "activity_regularizer": null, "embeddings_constraint": null, "mask_zero": false, "input_length": null}, "inbound_nodes": [[["input_41", 0, 0, {}]]]}, {"name": "embedding_5", "class_name": "Embedding", "config": {"name": "embedding_5", "trainable": true, "batch_input_shape": [null, null], "dtype": "float32", "input_dim": 7, "output_dim": 6, "embeddings_initializer": {"class_name": "RandomUniform", "config": {"minval": -0.05, "maxval": 0.05, "seed": null}}, "embeddings_regularizer": null, "activity_regularizer": null, "embeddings_constraint": null, "mask_zero": false, "input_length": null}, "inbound_nodes": [[["input_42", 0, 0, {}]]]}, {"name": "embedding_6", "class_name": "Embedding", "config": {"name": "embedding_6", "trainable": true, "batch_input_shape": [null, null], "dtype": "float32", "input_dim": 7, "output_dim": 6, "embeddings_initializer": {"class_name": "RandomUniform", "config": {"minval": -0.05, "maxval": 0.05, "seed": null}}, "embeddings_regularizer": null, "activity_regularizer": null, "embeddings_constraint": null, "mask_zero": false, "input_length": null}, "inbound_nodes": [[["input_43", 0, 0, {}]]]}, {"name": "embedding_7", "class_name": "Embedding", "config": {"name": "embedding_7", "trainable": true, "batch_input_shape": [null, null], "dtype": "float32", "input_dim": 7, "output_dim": 6, "embeddings_initializer": {"class_name": "RandomUniform", "config": {"minval": -0.05, "maxval": 0.05, "seed": null}}, "embeddings_regularizer": null, "activity_regularizer": null, "embeddings_constraint": null, "mask_zero": false, "input_length": null}, "inbound_nodes": [[["input_44", 0, 0, {}]]]}, {"name": "embedding_8", "class_name": "Embedding", "config": {"name": "embedding_8", "trainable": true, "batch_input_shape": [null, null], "dtype": "float32", "input_dim": 7, "output_dim": 6, "embeddings_initializer": {"class_name": "RandomUniform", "config": {"minval": -0.05, "maxval": 0.05, "seed": null}}, "embeddings_regularizer": null, "activity_regularizer": null, "embeddings_constraint": null, "mask_zero": false, "input_length": null}, "inbound_nodes": [[["input_45", 0, 0, {}]]]}, {"name": "embedding_9", "class_name": "Embedding", "config": {"name": "embedding_9", "trainable": true, "batch_input_shape": [null, null], "dtype": "float32", "input_dim": 7, "output_dim": 6, "embeddings_initializer": {"class_name": "RandomUniform", "config": {"minval": -0.05, "maxval": 0.05, "seed": null}}, "embeddings_regularizer": null, "activity_regularizer": null, "embeddings_constraint": null, "mask_zero": false, "input_length": null}, "inbound_nodes": [[["input_46", 0, 0, {}]]]}, {"name": "embedding_10", "class_name": "Embedding", "config": {"name": "embedding_10", "trainable": true, "batch_input_shape": [null, null], "dtype": "float32", "input_dim": 7, "output_dim": 6, "embeddings_initializer": {"class_name": "RandomUniform", "config": {"minval": -0.05, "maxval": 0.05, "seed": null}}, "embeddings_regularizer": null, "activity_regularizer": null, "embeddings_constraint": null, "mask_zero": false, "input_length": null}, "inbound_nodes": [[["input_47", 0, 0, {}]]]}, {"name": "embedding_11", "class_name": "Embedding", "config": {"name": "embedding_11", "trainable": true, "batch_input_shape": [null, null], "dtype": "float32", "input_dim": 7, "output_dim": 6, "embeddings_initializer": {"class_name": "RandomUniform", "config": {"minval": -0.05, "maxval": 0.05, "seed": null}}, "embeddings_regularizer": null, "activity_regularizer": null, "embeddings_constraint": null, "mask_zero": false, "input_length": null}, "inbound_nodes": [[["input_48", 0, 0, {}]]]}, {"name": "embedding_12", "class_name": "Embedding", "config": {"name": "embedding_12", "trainable": true, "batch_input_shape": [null, null], "dtype": "float32", "input_dim": 7, "output_dim": 6, "embeddings_initializer": {"class_name": "RandomUniform", "config": {"minval": -0.05, "maxval": 0.05, "seed": null}}, "embeddings_regularizer": null, "activity_regularizer": null, "embeddings_constraint": null, "mask_zero": false, "input_length": null}, "inbound_nodes": [[["input_49", 0, 0, {}]]]}, {"name": "embedding_13", "class_name": "Embedding", "config": {"name": "embedding_13", "trainable": true, "batch_input_shape": [null, null], "dtype": "float32", "input_dim": 7, "output_dim": 6, "embeddings_initializer": {"class_name": "RandomUniform", "config": {"minval": -0.05, "maxval": 0.05, "seed": null}}, "embeddings_regularizer": null, "activity_regularizer": null, "embeddings_constraint": null, "mask_zero": false, "input_length": null}, "inbound_nodes": [[["input_50", 0, 0, {}]]]}, {"name": "embedding_14", "class_name": "Embedding", "config": {"name": "embedding_14", "trainable": true, "batch_input_shape": [null, null], "dtype": "float32", "input_dim": 6, "output_dim": 6, "embeddings_initializer": {"class_name": "RandomUniform", "config": {"minval": -0.05, "maxval": 0.05, "seed": null}}, "embeddings_regularizer": null, "activity_regularizer": null, "embeddings_constraint": null, "mask_zero": false, "input_length": null}, "inbound_nodes": [[["input_51", 0, 0, {}]]]}, {"name": "embedding_15", "class_name": "Embedding", "config": {"name": "embedding_15", "trainable": true, "batch_input_shape": [null, null], "dtype": "float32", "input_dim": 7, "output_dim": 6, "embeddings_initializer": {"class_name": "RandomUniform", "config": {"minval": -0.05, "maxval": 0.05, "seed": null}}, "embeddings_regularizer": null, "activity_regularizer": null, "embeddings_constraint": null, "mask_zero": false, "input_length": null}, "inbound_nodes": [[["input_52", 0, 0, {}]]]}, {"name": "embedding_16", "class_name": "Embedding", "config": {"name": "embedding_16", "trainable": true, "batch_input_shape": [null, null], "dtype": "float32", "input_dim": 7, "output_dim": 6, "embeddings_initializer": {"class_name": "RandomUniform", "config": {"minval": -0.05, "maxval": 0.05, "seed": null}}, "embeddings_regularizer": null, "activity_regularizer": null, "embeddings_constraint": null, "mask_zero": false, "input_length": null}, "inbound_nodes": [[["input_53", 0, 0, {}]]]}, {"name": "embedding_17", "class_name": "Embedding", "config": {"name": "embedding_17", "trainable": true, "batch_input_shape": [null, null], "dtype": "float32", "input_dim": 7, "output_dim": 6, "embeddings_initializer": {"class_name": "RandomUniform", "config": {"minval": -0.05, "maxval": 0.05, "seed": null}}, "embeddings_regularizer": null, "activity_regularizer": null, "embeddings_constraint": null, "mask_zero": false, "input_length": null}, "inbound_nodes": [[["input_54", 0, 0, {}]]]}, {"name": "embedding_18", "class_name": "Embedding", "config": {"name": "embedding_18", "trainable": true, "batch_input_shape": [null, null], "dtype": "float32", "input_dim": 7, "output_dim": 6, "embeddings_initializer": {"class_name": "RandomUniform", "config": {"minval": -0.05, "maxval": 0.05, "seed": null}}, "embeddings_regularizer": null, "activity_regularizer": null, "embeddings_constraint": null, "mask_zero": false, "input_length": null}, "inbound_nodes": [[["input_55", 0, 0, {}]]]}, {"name": "embedding_19", "class_name": "Embedding", "config": {"name": "embedding_19", "trainable": true, "batch_input_shape": [null, null], "dtype": "float32", "input_dim": 7, "output_dim": 6, "embeddings_initializer": {"class_name": "RandomUniform", "config": {"minval": -0.05, "maxval": 0.05, "seed": null}}, "embeddings_regularizer": null, "activity_regularizer": null, "embeddings_constraint": null, "mask_zero": false, "input_length": null}, "inbound_nodes": [[["input_56", 0, 0, {}]]]}, {"name": "embedding_20", "class_name": "Embedding", "config": {"name": "embedding_20", "trainable": true, "batch_input_shape": [null, null], "dtype": "float32", "input_dim": 7, "output_dim": 6, "embeddings_initializer": {"class_name": "RandomUniform", "config": {"minval": -0.05, "maxval": 0.05, "seed": null}}, "embeddings_regularizer": null, "activity_regularizer": null, "embeddings_constraint": null, "mask_zero": false, "input_length": null}, "inbound_nodes": [[["input_57", 0, 0, {}]]]}, {"name": "embedding_21", "class_name": "Embedding", "config": {"name": "embedding_21", "trainable": true, "batch_input_shape": [null, null], "dtype": "float32", "input_dim": 7, "output_dim": 6, "embeddings_initializer": {"class_name": "RandomUniform", "config": {"minval": -0.05, "maxval": 0.05, "seed": null}}, "embeddings_regularizer": null, "activity_regularizer": null, "embeddings_constraint": null, "mask_zero": false, "input_length": null}, "inbound_nodes": [[["input_58", 0, 0, {}]]]}, {"name": "embedding_22", "class_name": "Embedding", "config": {"name": "embedding_22", "trainable": true, "batch_input_shape": [null, null], "dtype": "float32", "input_dim": 7, "output_dim": 6, "embeddings_initializer": {"class_name": "RandomUniform", "config": {"minval": -0.05, "maxval": 0.05, "seed": null}}, "embeddings_regularizer": null, "activity_regularizer": null, "embeddings_constraint": null, "mask_zero": false, "input_length": null}, "inbound_nodes": [[["input_59", 0, 0, {}]]]}, {"name": "embedding_23", "class_name": "Embedding", "config": {"name": "embedding_23", "trainable": true, "batch_input_shape": [null, null], "dtype": "float32", "input_dim": 7, "output_dim": 6, "embeddings_initializer": {"class_name": "RandomUniform", "config": {"minval": -0.05, "maxval": 0.05, "seed": null}}, "embeddings_regularizer": null, "activity_regularizer": null, "embeddings_constraint": null, "mask_zero": false, "input_length": null}, "inbound_nodes": [[["input_60", 0, 0, {}]]]}, {"name": "embedding_24", "class_name": "Embedding", "config": {"name": "embedding_24", "trainable": true, "batch_input_shape": [null, null], "dtype": "float32", "input_dim": 7, "output_dim": 6, "embeddings_initializer": {"class_name": "RandomUniform", "config": {"minval": -0.05, "maxval": 0.05, "seed": null}}, "embeddings_regularizer": null, "activity_regularizer": null, "embeddings_constraint": null, "mask_zero": false, "input_length": null}, "inbound_nodes": [[["input_61", 0, 0, {}]]]}, {"name": "embedding_25", "class_name": "Embedding", "config": {"name": "embedding_25", "trainable": true, "batch_input_shape": [null, null], "dtype": "float32", "input_dim": 7, "output_dim": 6, "embeddings_initializer": {"class_name": "RandomUniform", "config": {"minval": -0.05, "maxval": 0.05, "seed": null}}, "embeddings_regularizer": null, "activity_regularizer": null, "embeddings_constraint": null, "mask_zero": false, "input_length": null}, "inbound_nodes": [[["input_62", 0, 0, {}]]]}, {"name": "embedding_26", "class_name": "Embedding", "config": {"name": "embedding_26", "trainable": true, "batch_input_shape": [null, null], "dtype": "float32", "input_dim": 7, "output_dim": 6, "embeddings_initializer": {"class_name": "RandomUniform", "config": {"minval": -0.05, "maxval": 0.05, "seed": null}}, "embeddings_regularizer": null, "activity_regularizer": null, "embeddings_constraint": null, "mask_zero": false, "input_length": null}, "inbound_nodes": [[["input_63", 0, 0, {}]]]}, {"name": "embedding_27", "class_name": "Embedding", "config": {"name": "embedding_27", "trainable": true, "batch_input_shape": [null, null], "dtype": "float32", "input_dim": 7, "output_dim": 6, "embeddings_initializer": {"class_name": "RandomUniform", "config": {"minval": -0.05, "maxval": 0.05, "seed": null}}, "embeddings_regularizer": null, "activity_regularizer": null, "embeddings_constraint": null, "mask_zero": false, "input_length": null}, "inbound_nodes": [[["input_64", 0, 0, {}]]]}, {"name": "embedding_28", "class_name": "Embedding", "config": {"name": "embedding_28", "trainable": true, "batch_input_shape": [null, null], "dtype": "float32", "input_dim": 7, "output_dim": 6, "embeddings_initializer": {"class_name": "RandomUniform", "config": {"minval": -0.05, "maxval": 0.05, "seed": null}}, "embeddings_regularizer": null, "activity_regularizer": null, "embeddings_constraint": null, "mask_zero": false, "input_length": null}, "inbound_nodes": [[["input_65", 0, 0, {}]]]}, {"name": "embedding_29", "class_name": "Embedding", "config": {"name": "embedding_29", "trainable": true, "batch_input_shape": [null, null], "dtype": "float32", "input_dim": 7, "output_dim": 6, "embeddings_initializer": {"class_name": "RandomUniform", "config": {"minval": -0.05, "maxval": 0.05, "seed": null}}, "embeddings_regularizer": null, "activity_regularizer": null, "embeddings_constraint": null, "mask_zero": false, "input_length": null}, "inbound_nodes": [[["input_66", 0, 0, {}]]]}, {"name": "embedding_30", "class_name": "Embedding", "config": {"name": "embedding_30", "trainable": true, "batch_input_shape": [null, null], "dtype": "float32", "input_dim": 7, "output_dim": 6, "embeddings_initializer": {"class_name": "RandomUniform", "config": {"minval": -0.05, "maxval": 0.05, "seed": null}}, "embeddings_regularizer": null, "activity_regularizer": null, "embeddings_constraint": null, "mask_zero": false, "input_length": null}, "inbound_nodes": [[["input_67", 0, 0, {}]]]}, {"name": "embedding_31", "class_name": "Embedding", "config": {"name": "embedding_31", "trainable": true, "batch_input_shape": [null, null], "dtype": "float32", "input_dim": 7, "output_dim": 6, "embeddings_initializer": {"class_name": "RandomUniform", "config": {"minval": -0.05, "maxval": 0.05, "seed": null}}, "embeddings_regularizer": null, "activity_regularizer": null, "embeddings_constraint": null, "mask_zero": false, "input_length": null}, "inbound_nodes": [[["input_68", 0, 0, {}]]]}, {"name": "embedding_32", "class_name": "Embedding", "config": {"name": "embedding_32", "trainable": true, "batch_input_shape": [null, null], "dtype": "float32", "input_dim": 7, "output_dim": 6, "embeddings_initializer": {"class_name": "RandomUniform", "config": {"minval": -0.05, "maxval": 0.05, "seed": null}}, "embeddings_regularizer": null, "activity_regularizer": null, "embeddings_constraint": null, "mask_zero": false, "input_length": null}, "inbound_nodes": [[["input_69", 0, 0, {}]]]}, {"name": "embedding_33", "class_name": "Embedding", "config": {"name": "embedding_33", "trainable": true, "batch_input_shape": [null, null], "dtype": "float32", "input_dim": 7, "output_dim": 6, "embeddings_initializer": {"class_name": "RandomUniform", "config": {"minval": -0.05, "maxval": 0.05, "seed": null}}, "embeddings_regularizer": null, "activity_regularizer": null, "embeddings_constraint": null, "mask_zero": false, "input_length": null}, "inbound_nodes": [[["input_70", 0, 0, {}]]]}, {"name": "embedding_34", "class_name": "Embedding", "config": {"name": "embedding_34", "trainable": true, "batch_input_shape": [null, null], "dtype": "float32", "input_dim": 7, "output_dim": 6, "embeddings_initializer": {"class_name": "RandomUniform", "config": {"minval": -0.05, "maxval": 0.05, "seed": null}}, "embeddings_regularizer": null, "activity_regularizer": null, "embeddings_constraint": null, "mask_zero": false, "input_length": null}, "inbound_nodes": [[["input_71", 0, 0, {}]]]}, {"name": "embedding_35", "class_name": "Embedding", "config": {"name": "embedding_35", "trainable": true, "batch_input_shape": [null, null], "dtype": "float32", "input_dim": 7, "output_dim": 6, "embeddings_initializer": {"class_name": "RandomUniform", "config": {"minval": -0.05, "maxval": 0.05, "seed": null}}, "embeddings_regularizer": null, "activity_regularizer": null, "embeddings_constraint": null, "mask_zero": false, "input_length": null}, "inbound_nodes": [[["input_72", 0, 0, {}]]]}, {"name": "embedding_36", "class_name": "Embedding", "config": {"name": "embedding_36", "trainable": true, "batch_input_shape": [null, null], "dtype": "float32", "input_dim": 7, "output_dim": 6, "embeddings_initializer": {"class_name": "RandomUniform", "config": {"minval": -0.05, "maxval": 0.05, "seed": null}}, "embeddings_regularizer": null, "activity_regularizer": null, "embeddings_constraint": null, "mask_zero": false, "input_length": null}, "inbound_nodes": [[["input_73", 0, 0, {}]]]}, {"name": "embedding_37", "class_name": "Embedding", "config": {"name": "embedding_37", "trainable": true, "batch_input_shape": [null, null], "dtype": "float32", "input_dim": 7, "output_dim": 6, "embeddings_initializer": {"class_name": "RandomUniform", "config": {"minval": -0.05, "maxval": 0.05, "seed": null}}, "embeddings_regularizer": null, "activity_regularizer": null, "embeddings_constraint": null, "mask_zero": false, "input_length": null}, "inbound_nodes": [[["input_74", 0, 0, {}]]]}, {"name": "embedding_38", "class_name": "Embedding", "config": {"name": "embedding_38", "trainable": true, "batch_input_shape": [null, null], "dtype": "float32", "input_dim": 7, "output_dim": 6, "embeddings_initializer": {"class_name": "RandomUniform", "config": {"minval": -0.05, "maxval": 0.05, "seed": null}}, "embeddings_regularizer": null, "activity_regularizer": null, "embeddings_constraint": null, "mask_zero": false, "input_length": null}, "inbound_nodes": [[["input_75", 0, 0, {}]]]}, {"name": "embedding_39", "class_name": "Embedding", "config": {"name": "embedding_39", "trainable": true, "batch_input_shape": [null, null], "dtype": "float32", "input_dim": 7, "output_dim": 6, "embeddings_initializer": {"class_name": "RandomUniform", "config": {"minval": -0.05, "maxval": 0.05, "seed": null}}, "embeddings_regularizer": null, "activity_regularizer": null, "embeddings_constraint": null, "mask_zero": false, "input_length": null}, "inbound_nodes": [[["input_76", 0, 0, {}]]]}, {"name": "embedding_40", "class_name": "Embedding", "config": {"name": "embedding_40", "trainable": true, "batch_input_shape": [null, null], "dtype": "float32", "input_dim": 7, "output_dim": 6, "embeddings_initializer": {"class_name": "RandomUniform", "config": {"minval": -0.05, "maxval": 0.05, "seed": null}}, "embeddings_regularizer": null, "activity_regularizer": null, "embeddings_constraint": null, "mask_zero": false, "input_length": null}, "inbound_nodes": [[["input_77", 0, 0, {}]]]}, {"name": "embedding_41", "class_name": "Embedding", "config": {"name": "embedding_41", "trainable": true, "batch_input_shape": [null, null], "dtype": "float32", "input_dim": 7, "output_dim": 6, "embeddings_initializer": {"class_name": "RandomUniform", "config": {"minval": -0.05, "maxval": 0.05, "seed": null}}, "embeddings_regularizer": null, "activity_regularizer": null, "embeddings_constraint": null, "mask_zero": false, "input_length": null}, "inbound_nodes": [[["input_78", 0, 0, {}]]]}, {"name": "embedding_42", "class_name": "Embedding", "config": {"name": "embedding_42", "trainable": true, "batch_input_shape": [null, null], "dtype": "float32", "input_dim": 7, "output_dim": 6, "embeddings_initializer": {"class_name": "RandomUniform", "config": {"minval": -0.05, "maxval": 0.05, "seed": null}}, "embeddings_regularizer": null, "activity_regularizer": null, "embeddings_constraint": null, "mask_zero": false, "input_length": null}, "inbound_nodes": [[["input_79", 0, 0, {}]]]}, {"name": "embedding_43", "class_name": "Embedding", "config": {"name": "embedding_43", "trainable": true, "batch_input_shape": [null, null], "dtype": "float32", "input_dim": 7, "output_dim": 6, "embeddings_initializer": {"class_name": "RandomUniform", "config": {"minval": -0.05, "maxval": 0.05, "seed": null}}, "embeddings_regularizer": null, "activity_regularizer": null, "embeddings_constraint": null, "mask_zero": false, "input_length": null}, "inbound_nodes": [[["input_80", 0, 0, {}]]]}, {"name": "embedding_44", "class_name": "Embedding", "config": {"name": "embedding_44", "trainable": true, "batch_input_shape": [null, null], "dtype": "float32", "input_dim": 7, "output_dim": 6, "embeddings_initializer": {"class_name": "RandomUniform", "config": {"minval": -0.05, "maxval": 0.05, "seed": null}}, "embeddings_regularizer": null, "activity_regularizer": null, "embeddings_constraint": null, "mask_zero": false, "input_length": null}, "inbound_nodes": [[["input_81", 0, 0, {}]]]}, {"name": "embedding_45", "class_name": "Embedding", "config": {"name": "embedding_45", "trainable": true, "batch_input_shape": [null, null], "dtype": "float32", "input_dim": 7, "output_dim": 6, "embeddings_initializer": {"class_name": "RandomUniform", "config": {"minval": -0.05, "maxval": 0.05, "seed": null}}, "embeddings_regularizer": null, "activity_regularizer": null, "embeddings_constraint": null, "mask_zero": false, "input_length": null}, "inbound_nodes": [[["input_82", 0, 0, {}]]]}, {"name": "embedding_46", "class_name": "Embedding", "config": {"name": "embedding_46", "trainable": true, "batch_input_shape": [null, null], "dtype": "float32", "input_dim": 7, "output_dim": 6, "embeddings_initializer": {"class_name": "RandomUniform", "config": {"minval": -0.05, "maxval": 0.05, "seed": null}}, "embeddings_regularizer": null, "activity_regularizer": null, "embeddings_constraint": null, "mask_zero": false, "input_length": null}, "inbound_nodes": [[["input_83", 0, 0, {}]]]}, {"name": "embedding_47", "class_name": "Embedding", "config": {"name": "embedding_47", "trainable": true, "batch_input_shape": [null, null], "dtype": "float32", "input_dim": 7, "output_dim": 6, "embeddings_initializer": {"class_name": "RandomUniform", "config": {"minval": -0.05, "maxval": 0.05, "seed": null}}, "embeddings_regularizer": null, "activity_regularizer": null, "embeddings_constraint": null, "mask_zero": false, "input_length": null}, "inbound_nodes": [[["input_84", 0, 0, {}]]]}, {"name": "embedding_48", "class_name": "Embedding", "config": {"name": "embedding_48", "trainable": true, "batch_input_shape": [null, null], "dtype": "float32", "input_dim": 7, "output_dim": 6, "embeddings_initializer": {"class_name": "RandomUniform", "config": {"minval": -0.05, "maxval": 0.05, "seed": null}}, "embeddings_regularizer": null, "activity_regularizer": null, "embeddings_constraint": null, "mask_zero": false, "input_length": null}, "inbound_nodes": [[["input_85", 0, 0, {}]]]}, {"name": "embedding_49", "class_name": "Embedding", "config": {"name": "embedding_49", "trainable": true, "batch_input_shape": [null, null], "dtype": "float32", "input_dim": 7, "output_dim": 6, "embeddings_initializer": {"class_name": "RandomUniform", "config": {"minval": -0.05, "maxval": 0.05, "seed": null}}, "embeddings_regularizer": null, "activity_regularizer": null, "embeddings_constraint": null, "mask_zero": false, "input_length": null}, "inbound_nodes": [[["input_86", 0, 0, {}]]]}, {"name": "embedding_50", "class_name": "Embedding", "config": {"name": "embedding_50", "trainable": true, "batch_input_shape": [null, null], "dtype": "float32", "input_dim": 7, "output_dim": 6, "embeddings_initializer": {"class_name": "RandomUniform", "config": {"minval": -0.05, "maxval": 0.05, "seed": null}}, "embeddings_regularizer": null, "activity_regularizer": null, "embeddings_constraint": null, "mask_zero": false, "input_length": null}, "inbound_nodes": [[["input_87", 0, 0, {}]]]}, {"name": "embedding_51", "class_name": "Embedding", "config": {"name": "embedding_51", "trainable": true, "batch_input_shape": [null, null], "dtype": "float32", "input_dim": 7, "output_dim": 6, "embeddings_initializer": {"class_name": "RandomUniform", "config": {"minval": -0.05, "maxval": 0.05, "seed": null}}, "embeddings_regularizer": null, "activity_regularizer": null, "embeddings_constraint": null, "mask_zero": false, "input_length": null}, "inbound_nodes": [[["input_88", 0, 0, {}]]]}, {"name": "embedding_52", "class_name": "Embedding", "config": {"name": "embedding_52", "trainable": true, "batch_input_shape": [null, null], "dtype": "float32", "input_dim": 7, "output_dim": 6, "embeddings_initializer": {"class_name": "RandomUniform", "config": {"minval": -0.05, "maxval": 0.05, "seed": null}}, "embeddings_regularizer": null, "activity_regularizer": null, "embeddings_constraint": null, "mask_zero": false, "input_length": null}, "inbound_nodes": [[["input_89", 0, 0, {}]]]}, {"name": "embedding_53", "class_name": "Embedding", "config": {"name": "embedding_53", "trainable": true, "batch_input_shape": [null, null], "dtype": "float32", "input_dim": 7, "output_dim": 6, "embeddings_initializer": {"class_name": "RandomUniform", "config": {"minval": -0.05, "maxval": 0.05, "seed": null}}, "embeddings_regularizer": null, "activity_regularizer": null, "embeddings_constraint": null, "mask_zero": false, "input_length": null}, "inbound_nodes": [[["input_90", 0, 0, {}]]]}, {"name": "embedding_54", "class_name": "Embedding", "config": {"name": "embedding_54", "trainable": true, "batch_input_shape": [null, null], "dtype": "float32", "input_dim": 7, "output_dim": 6, "embeddings_initializer": {"class_name": "RandomUniform", "config": {"minval": -0.05, "maxval": 0.05, "seed": null}}, "embeddings_regularizer": null, "activity_regularizer": null, "embeddings_constraint": null, "mask_zero": false, "input_length": null}, "inbound_nodes": [[["input_91", 0, 0, {}]]]}, {"name": "embedding_55", "class_name": "Embedding", "config": {"name": "embedding_55", "trainable": true, "batch_input_shape": [null, null], "dtype": "float32", "input_dim": 7, "output_dim": 6, "embeddings_initializer": {"class_name": "RandomUniform", "config": {"minval": -0.05, "maxval": 0.05, "seed": null}}, "embeddings_regularizer": null, "activity_regularizer": null, "embeddings_constraint": null, "mask_zero": false, "input_length": null}, "inbound_nodes": [[["input_92", 0, 0, {}]]]}, {"name": "embedding_56", "class_name": "Embedding", "config": {"name": "embedding_56", "trainable": true, "batch_input_shape": [null, null], "dtype": "float32", "input_dim": 7, "output_dim": 6, "embeddings_initializer": {"class_name": "RandomUniform", "config": {"minval": -0.05, "maxval": 0.05, "seed": null}}, "embeddings_regularizer": null, "activity_regularizer": null, "embeddings_constraint": null, "mask_zero": false, "input_length": null}, "inbound_nodes": [[["input_93", 0, 0, {}]]]}, {"name": "embedding_57", "class_name": "Embedding", "config": {"name": "embedding_57", "trainable": true, "batch_input_shape": [null, null], "dtype": "float32", "input_dim": 7, "output_dim": 6, "embeddings_initializer": {"class_name": "RandomUniform", "config": {"minval": -0.05, "maxval": 0.05, "seed": null}}, "embeddings_regularizer": null, "activity_regularizer": null, "embeddings_constraint": null, "mask_zero": false, "input_length": null}, "inbound_nodes": [[["input_94", 0, 0, {}]]]}, {"name": "embedding_58", "class_name": "Embedding", "config": {"name": "embedding_58", "trainable": true, "batch_input_shape": [null, null], "dtype": "float32", "input_dim": 7, "output_dim": 6, "embeddings_initializer": {"class_name": "RandomUniform", "config": {"minval": -0.05, "maxval": 0.05, "seed": null}}, "embeddings_regularizer": null, "activity_regularizer": null, "embeddings_constraint": null, "mask_zero": false, "input_length": null}, "inbound_nodes": [[["input_95", 0, 0, {}]]]}, {"name": "embedding_59", "class_name": "Embedding", "config": {"name": "embedding_59", "trainable": true, "batch_input_shape": [null, null], "dtype": "float32", "input_dim": 7, "output_dim": 6, "embeddings_initializer": {"class_name": "RandomUniform", "config": {"minval": -0.05, "maxval": 0.05, "seed": null}}, "embeddings_regularizer": null, "activity_regularizer": null, "embeddings_constraint": null, "mask_zero": false, "input_length": null}, "inbound_nodes": [[["input_96", 0, 0, {}]]]}, {"name": "embedding_60", "class_name": "Embedding", "config": {"name": "embedding_60", "trainable": true, "batch_input_shape": [null, null], "dtype": "float32", "input_dim": 7, "output_dim": 6, "embeddings_initializer": {"class_name": "RandomUniform", "config": {"minval": -0.05, "maxval": 0.05, "seed": null}}, "embeddings_regularizer": null, "activity_regularizer": null, "embeddings_constraint": null, "mask_zero": false, "input_length": null}, "inbound_nodes": [[["input_97", 0, 0, {}]]]}, {"name": "embedding_61", "class_name": "Embedding", "config": {"name": "embedding_61", "trainable": true, "batch_input_shape": [null, null], "dtype": "float32", "input_dim": 7, "output_dim": 6, "embeddings_initializer": {"class_name": "RandomUniform", "config": {"minval": -0.05, "maxval": 0.05, "seed": null}}, "embeddings_regularizer": null, "activity_regularizer": null, "embeddings_constraint": null, "mask_zero": false, "input_length": null}, "inbound_nodes": [[["input_98", 0, 0, {}]]]}, {"name": "embedding_62", "class_name": "Embedding", "config": {"name": "embedding_62", "trainable": true, "batch_input_shape": [null, null], "dtype": "float32", "input_dim": 7, "output_dim": 6, "embeddings_initializer": {"class_name": "RandomUniform", "config": {"minval": -0.05, "maxval": 0.05, "seed": null}}, "embeddings_regularizer": null, "activity_regularizer": null, "embeddings_constraint": null, "mask_zero": false, "input_length": null}, "inbound_nodes": [[["input_99", 0, 0, {}]]]}, {"name": "embedding_63", "class_name": "Embedding", "config": {"name": "embedding_63", "trainable": true, "batch_input_shape": [null, null], "dtype": "float32", "input_dim": 7, "output_dim": 6, "embeddings_initializer": {"class_name": "RandomUniform", "config": {"minval": -0.05, "maxval": 0.05, "seed": null}}, "embeddings_regularizer": null, "activity_regularizer": null, "embeddings_constraint": null, "mask_zero": false, "input_length": null}, "inbound_nodes": [[["input_100", 0, 0, {}]]]}, {"name": "embedding_64", "class_name": "Embedding", "config": {"name": "embedding_64", "trainable": true, "batch_input_shape": [null, null], "dtype": "float32", "input_dim": 7, "output_dim": 6, "embeddings_initializer": {"class_name": "RandomUniform", "config": {"minval": -0.05, "maxval": 0.05, "seed": null}}, "embeddings_regularizer": null, "activity_regularizer": null, "embeddings_constraint": null, "mask_zero": false, "input_length": null}, "inbound_nodes": [[["input_101", 0, 0, {}]]]}, {"name": "embedding_65", "class_name": "Embedding", "config": {"name": "embedding_65", "trainable": true, "batch_input_shape": [null, null], "dtype": "float32", "input_dim": 7, "output_dim": 6, "embeddings_initializer": {"class_name": "RandomUniform", "config": {"minval": -0.05, "maxval": 0.05, "seed": null}}, "embeddings_regularizer": null, "activity_regularizer": null, "embeddings_constraint": null, "mask_zero": false, "input_length": null}, "inbound_nodes": [[["input_102", 0, 0, {}]]]}, {"name": "embedding_66", "class_name": "Embedding", "config": {"name": "embedding_66", "trainable": true, "batch_input_shape": [null, null], "dtype": "float32", "input_dim": 7, "output_dim": 6, "embeddings_initializer": {"class_name": "RandomUniform", "config": {"minval": -0.05, "maxval": 0.05, "seed": null}}, "embeddings_regularizer": null, "activity_regularizer": null, "embeddings_constraint": null, "mask_zero": false, "input_length": null}, "inbound_nodes": [[["input_103", 0, 0, {}]]]}, {"name": "embedding_67", "class_name": "Embedding", "config": {"name": "embedding_67", "trainable": true, "batch_input_shape": [null, null], "dtype": "float32", "input_dim": 7, "output_dim": 6, "embeddings_initializer": {"class_name": "RandomUniform", "config": {"minval": -0.05, "maxval": 0.05, "seed": null}}, "embeddings_regularizer": null, "activity_regularizer": null, "embeddings_constraint": null, "mask_zero": false, "input_length": null}, "inbound_nodes": [[["input_104", 0, 0, {}]]]}, {"name": "embedding_68", "class_name": "Embedding", "config": {"name": "embedding_68", "trainable": true, "batch_input_shape": [null, null], "dtype": "float32", "input_dim": 7, "output_dim": 6, "embeddings_initializer": {"class_name": "RandomUniform", "config": {"minval": -0.05, "maxval": 0.05, "seed": null}}, "embeddings_regularizer": null, "activity_regularizer": null, "embeddings_constraint": null, "mask_zero": false, "input_length": null}, "inbound_nodes": [[["input_105", 0, 0, {}]]]}, {"name": "embedding_69", "class_name": "Embedding", "config": {"name": "embedding_69", "trainable": true, "batch_input_shape": [null, null], "dtype": "float32", "input_dim": 7, "output_dim": 6, "embeddings_initializer": {"class_name": "RandomUniform", "config": {"minval": -0.05, "maxval": 0.05, "seed": null}}, "embeddings_regularizer": null, "activity_regularizer": null, "embeddings_constraint": null, "mask_zero": false, "input_length": null}, "inbound_nodes": [[["input_106", 0, 0, {}]]]}, {"name": "embedding_70", "class_name": "Embedding", "config": {"name": "embedding_70", "trainable": true, "batch_input_shape": [null, null], "dtype": "float32", "input_dim": 7, "output_dim": 6, "embeddings_initializer": {"class_name": "RandomUniform", "config": {"minval": -0.05, "maxval": 0.05, "seed": null}}, "embeddings_regularizer": null, "activity_regularizer": null, "embeddings_constraint": null, "mask_zero": false, "input_length": null}, "inbound_nodes": [[["input_107", 0, 0, {}]]]}, {"name": "embedding_71", "class_name": "Embedding", "config": {"name": "embedding_71", "trainable": true, "batch_input_shape": [null, null], "dtype": "float32", "input_dim": 7, "output_dim": 6, "embeddings_initializer": {"class_name": "RandomUniform", "config": {"minval": -0.05, "maxval": 0.05, "seed": null}}, "embeddings_regularizer": null, "activity_regularizer": null, "embeddings_constraint": null, "mask_zero": false, "input_length": null}, "inbound_nodes": [[["input_108", 0, 0, {}]]]}, {"name": "embedding_72", "class_name": "Embedding", "config": {"name": "embedding_72", "trainable": true, "batch_input_shape": [null, null], "dtype": "float32", "input_dim": 7, "output_dim": 6, "embeddings_initializer": {"class_name": "RandomUniform", "config": {"minval": -0.05, "maxval": 0.05, "seed": null}}, "embeddings_regularizer": null, "activity_regularizer": null, "embeddings_constraint": null, "mask_zero": false, "input_length": null}, "inbound_nodes": [[["input_109", 0, 0, {}]]]}, {"name": "embedding_73", "class_name": "Embedding", "config": {"name": "embedding_73", "trainable": true, "batch_input_shape": [null, null], "dtype": "float32", "input_dim": 7, "output_dim": 6, "embeddings_initializer": {"class_name": "RandomUniform", "config": {"minval": -0.05, "maxval": 0.05, "seed": null}}, "embeddings_regularizer": null, "activity_regularizer": null, "embeddings_constraint": null, "mask_zero": false, "input_length": null}, "inbound_nodes": [[["input_110", 0, 0, {}]]]}, {"name": "embedding_74", "class_name": "Embedding", "config": {"name": "embedding_74", "trainable": true, "batch_input_shape": [null, null], "dtype": "float32", "input_dim": 7, "output_dim": 6, "embeddings_initializer": {"class_name": "RandomUniform", "config": {"minval": -0.05, "maxval": 0.05, "seed": null}}, "embeddings_regularizer": null, "activity_regularizer": null, "embeddings_constraint": null, "mask_zero": false, "input_length": null}, "inbound_nodes": [[["input_111", 0, 0, {}]]]}, {"name": "embedding_75", "class_name": "Embedding", "config": {"name": "embedding_75", "trainable": true, "batch_input_shape": [null, null], "dtype": "float32", "input_dim": 7, "output_dim": 6, "embeddings_initializer": {"class_name": "RandomUniform", "config": {"minval": -0.05, "maxval": 0.05, "seed": null}}, "embeddings_regularizer": null, "activity_regularizer": null, "embeddings_constraint": null, "mask_zero": false, "input_length": null}, "inbound_nodes": [[["input_112", 0, 0, {}]]]}, {"name": "embedding_76", "class_name": "Embedding", "config": {"name": "embedding_76", "trainable": true, "batch_input_shape": [null, null], "dtype": "float32", "input_dim": 7, "output_dim": 6, "embeddings_initializer": {"class_name": "RandomUniform", "config": {"minval": -0.05, "maxval": 0.05, "seed": null}}, "embeddings_regularizer": null, "activity_regularizer": null, "embeddings_constraint": null, "mask_zero": false, "input_length": null}, "inbound_nodes": [[["input_113", 0, 0, {}]]]}, {"name": "embedding_77", "class_name": "Embedding", "config": {"name": "embedding_77", "trainable": true, "batch_input_shape": [null, null], "dtype": "float32", "input_dim": 7, "output_dim": 6, "embeddings_initializer": {"class_name": "RandomUniform", "config": {"minval": -0.05, "maxval": 0.05, "seed": null}}, "embeddings_regularizer": null, "activity_regularizer": null, "embeddings_constraint": null, "mask_zero": false, "input_length": null}, "inbound_nodes": [[["input_114", 0, 0, {}]]]}, {"name": "embedding_78", "class_name": "Embedding", "config": {"name": "embedding_78", "trainable": true, "batch_input_shape": [null, null], "dtype": "float32", "input_dim": 7, "output_dim": 6, "embeddings_initializer": {"class_name": "RandomUniform", "config": {"minval": -0.05, "maxval": 0.05, "seed": null}}, "embeddings_regularizer": null, "activity_regularizer": null, "embeddings_constraint": null, "mask_zero": false, "input_length": null}, "inbound_nodes": [[["input_115", 0, 0, {}]]]}, {"name": "embedding_79", "class_name": "Embedding", "config": {"name": "embedding_79", "trainable": true, "batch_input_shape": [null, null], "dtype": "float32", "input_dim": 7, "output_dim": 6, "embeddings_initializer": {"class_name": "RandomUniform", "config": {"minval": -0.05, "maxval": 0.05, "seed": null}}, "embeddings_regularizer": null, "activity_regularizer": null, "embeddings_constraint": null, "mask_zero": false, "input_length": null}, "inbound_nodes": [[["input_116", 0, 0, {}]]]}, {"name": "embedding_80", "class_name": "Embedding", "config": {"name": "embedding_80", "trainable": true, "batch_input_shape": [null, null], "dtype": "float32", "input_dim": 7, "output_dim": 6, "embeddings_initializer": {"class_name": "RandomUniform", "config": {"minval": -0.05, "maxval": 0.05, "seed": null}}, "embeddings_regularizer": null, "activity_regularizer": null, "embeddings_constraint": null, "mask_zero": false, "input_length": null}, "inbound_nodes": [[["input_117", 0, 0, {}]]]}, {"name": "embedding_81", "class_name": "Embedding", "config": {"name": "embedding_81", "trainable": true, "batch_input_shape": [null, null], "dtype": "float32", "input_dim": 7, "output_dim": 6, "embeddings_initializer": {"class_name": "RandomUniform", "config": {"minval": -0.05, "maxval": 0.05, "seed": null}}, "embeddings_regularizer": null, "activity_regularizer": null, "embeddings_constraint": null, "mask_zero": false, "input_length": null}, "inbound_nodes": [[["input_118", 0, 0, {}]]]}, {"name": "embedding_82", "class_name": "Embedding", "config": {"name": "embedding_82", "trainable": true, "batch_input_shape": [null, null], "dtype": "float32", "input_dim": 7, "output_dim": 6, "embeddings_initializer": {"class_name": "RandomUniform", "config": {"minval": -0.05, "maxval": 0.05, "seed": null}}, "embeddings_regularizer": null, "activity_regularizer": null, "embeddings_constraint": null, "mask_zero": false, "input_length": null}, "inbound_nodes": [[["input_119", 0, 0, {}]]]}, {"name": "embedding_83", "class_name": "Embedding", "config": {"name": "embedding_83", "trainable": true, "batch_input_shape": [null, null], "dtype": "float32", "input_dim": 7, "output_dim": 6, "embeddings_initializer": {"class_name": "RandomUniform", "config": {"minval": -0.05, "maxval": 0.05, "seed": null}}, "embeddings_regularizer": null, "activity_regularizer": null, "embeddings_constraint": null, "mask_zero": false, "input_length": null}, "inbound_nodes": [[["input_120", 0, 0, {}]]]}, {"name": "embedding_84", "class_name": "Embedding", "config": {"name": "embedding_84", "trainable": true, "batch_input_shape": [null, null], "dtype": "float32", "input_dim": 7, "output_dim": 6, "embeddings_initializer": {"class_name": "RandomUniform", "config": {"minval": -0.05, "maxval": 0.05, "seed": null}}, "embeddings_regularizer": null, "activity_regularizer": null, "embeddings_constraint": null, "mask_zero": false, "input_length": null}, "inbound_nodes": [[["input_121", 0, 0, {}]]]}, {"name": "embedding_85", "class_name": "Embedding", "config": {"name": "embedding_85", "trainable": true, "batch_input_shape": [null, null], "dtype": "float32", "input_dim": 7, "output_dim": 6, "embeddings_initializer": {"class_name": "RandomUniform", "config": {"minval": -0.05, "maxval": 0.05, "seed": null}}, "embeddings_regularizer": null, "activity_regularizer": null, "embeddings_constraint": null, "mask_zero": false, "input_length": null}, "inbound_nodes": [[["input_122", 0, 0, {}]]]}, {"name": "embedding_86", "class_name": "Embedding", "config": {"name": "embedding_86", "trainable": true, "batch_input_shape": [null, null], "dtype": "float32", "input_dim": 7, "output_dim": 6, "embeddings_initializer": {"class_name": "RandomUniform", "config": {"minval": -0.05, "maxval": 0.05, "seed": null}}, "embeddings_regularizer": null, "activity_regularizer": null, "embeddings_constraint": null, "mask_zero": false, "input_length": null}, "inbound_nodes": [[["input_123", 0, 0, {}]]]}, {"name": "embedding_87", "class_name": "Embedding", "config": {"name": "embedding_87", "trainable": true, "batch_input_shape": [null, null], "dtype": "float32", "input_dim": 7, "output_dim": 6, "embeddings_initializer": {"class_name": "RandomUniform", "config": {"minval": -0.05, "maxval": 0.05, "seed": null}}, "embeddings_regularizer": null, "activity_regularizer": null, "embeddings_constraint": null, "mask_zero": false, "input_length": null}, "inbound_nodes": [[["input_124", 0, 0, {}]]]}, {"name": "embedding_88", "class_name": "Embedding", "config": {"name": "embedding_88", "trainable": true, "batch_input_shape": [null, null], "dtype": "float32", "input_dim": 7, "output_dim": 6, "embeddings_initializer": {"class_name": "RandomUniform", "config": {"minval": -0.05, "maxval": 0.05, "seed": null}}, "embeddings_regularizer": null, "activity_regularizer": null, "embeddings_constraint": null, "mask_zero": false, "input_length": null}, "inbound_nodes": [[["input_125", 0, 0, {}]]]}, {"name": "embedding_89", "class_name": "Embedding", "config": {"name": "embedding_89", "trainable": true, "batch_input_shape": [null, null], "dtype": "float32", "input_dim": 7, "output_dim": 6, "embeddings_initializer": {"class_name": "RandomUniform", "config": {"minval": -0.05, "maxval": 0.05, "seed": null}}, "embeddings_regularizer": null, "activity_regularizer": null, "embeddings_constraint": null, "mask_zero": false, "input_length": null}, "inbound_nodes": [[["input_126", 0, 0, {}]]]}, {"name": "embedding_90", "class_name": "Embedding", "config": {"name": "embedding_90", "trainable": true, "batch_input_shape": [null, null], "dtype": "float32", "input_dim": 7, "output_dim": 6, "embeddings_initializer": {"class_name": "RandomUniform", "config": {"minval": -0.05, "maxval": 0.05, "seed": null}}, "embeddings_regularizer": null, "activity_regularizer": null, "embeddings_constraint": null, "mask_zero": false, "input_length": null}, "inbound_nodes": [[["input_127", 0, 0, {}]]]}, {"name": "embedding_91", "class_name": "Embedding", "config": {"name": "embedding_91", "trainable": true, "batch_input_shape": [null, null], "dtype": "float32", "input_dim": 7, "output_dim": 6, "embeddings_initializer": {"class_name": "RandomUniform", "config": {"minval": -0.05, "maxval": 0.05, "seed": null}}, "embeddings_regularizer": null, "activity_regularizer": null, "embeddings_constraint": null, "mask_zero": false, "input_length": null}, "inbound_nodes": [[["input_128", 0, 0, {}]]]}, {"name": "embedding_92", "class_name": "Embedding", "config": {"name": "embedding_92", "trainable": true, "batch_input_shape": [null, null], "dtype": "float32", "input_dim": 7, "output_dim": 6, "embeddings_initializer": {"class_name": "RandomUniform", "config": {"minval": -0.05, "maxval": 0.05, "seed": null}}, "embeddings_regularizer": null, "activity_regularizer": null, "embeddings_constraint": null, "mask_zero": false, "input_length": null}, "inbound_nodes": [[["input_129", 0, 0, {}]]]}, {"name": "embedding_93", "class_name": "Embedding", "config": {"name": "embedding_93", "trainable": true, "batch_input_shape": [null, null], "dtype": "float32", "input_dim": 7, "output_dim": 6, "embeddings_initializer": {"class_name": "RandomUniform", "config": {"minval": -0.05, "maxval": 0.05, "seed": null}}, "embeddings_regularizer": null, "activity_regularizer": null, "embeddings_constraint": null, "mask_zero": false, "input_length": null}, "inbound_nodes": [[["input_130", 0, 0, {}]]]}, {"name": "embedding_94", "class_name": "Embedding", "config": {"name": "embedding_94", "trainable": true, "batch_input_shape": [null, null], "dtype": "float32", "input_dim": 7, "output_dim": 6, "embeddings_initializer": {"class_name": "RandomUniform", "config": {"minval": -0.05, "maxval": 0.05, "seed": null}}, "embeddings_regularizer": null, "activity_regularizer": null, "embeddings_constraint": null, "mask_zero": false, "input_length": null}, "inbound_nodes": [[["input_131", 0, 0, {}]]]}, {"name": "embedding_95", "class_name": "Embedding", "config": {"name": "embedding_95", "trainable": true, "batch_input_shape": [null, null], "dtype": "float32", "input_dim": 7, "output_dim": 6, "embeddings_initializer": {"class_name": "RandomUniform", "config": {"minval": -0.05, "maxval": 0.05, "seed": null}}, "embeddings_regularizer": null, "activity_regularizer": null, "embeddings_constraint": null, "mask_zero": false, "input_length": null}, "inbound_nodes": [[["input_132", 0, 0, {}]]]}, {"name": "embedding_96", "class_name": "Embedding", "config": {"name": "embedding_96", "trainable": true, "batch_input_shape": [null, null], "dtype": "float32", "input_dim": 7, "output_dim": 6, "embeddings_initializer": {"class_name": "RandomUniform", "config": {"minval": -0.05, "maxval": 0.05, "seed": null}}, "embeddings_regularizer": null, "activity_regularizer": null, "embeddings_constraint": null, "mask_zero": false, "input_length": null}, "inbound_nodes": [[["input_133", 0, 0, {}]]]}, {"name": "embedding_97", "class_name": "Embedding", "config": {"name": "embedding_97", "trainable": true, "batch_input_shape": [null, null], "dtype": "float32", "input_dim": 7, "output_dim": 6, "embeddings_initializer": {"class_name": "RandomUniform", "config": {"minval": -0.05, "maxval": 0.05, "seed": null}}, "embeddings_regularizer": null, "activity_regularizer": null, "embeddings_constraint": null, "mask_zero": false, "input_length": null}, "inbound_nodes": [[["input_134", 0, 0, {}]]]}, {"name": "embedding_98", "class_name": "Embedding", "config": {"name": "embedding_98", "trainable": true, "batch_input_shape": [null, null], "dtype": "float32", "input_dim": 7, "output_dim": 6, "embeddings_initializer": {"class_name": "RandomUniform", "config": {"minval": -0.05, "maxval": 0.05, "seed": null}}, "embeddings_regularizer": null, "activity_regularizer": null, "embeddings_constraint": null, "mask_zero": false, "input_length": null}, "inbound_nodes": [[["input_135", 0, 0, {}]]]}, {"name": "embedding_99", "class_name": "Embedding", "config": {"name": "embedding_99", "trainable": true, "batch_input_shape": [null, null], "dtype": "float32", "input_dim": 7, "output_dim": 6, "embeddings_initializer": {"class_name": "RandomUniform", "config": {"minval": -0.05, "maxval": 0.05, "seed": null}}, "embeddings_regularizer": null, "activity_regularizer": null, "embeddings_constraint": null, "mask_zero": false, "input_length": null}, "inbound_nodes": [[["input_136", 0, 0, {}]]]}, {"name": "embedding_100", "class_name": "Embedding", "config": {"name": "embedding_100", "trainable": true, "batch_input_shape": [null, null], "dtype": "float32", "input_dim": 7, "output_dim": 6, "embeddings_initializer": {"class_name": "RandomUniform", "config": {"minval": -0.05, "maxval": 0.05, "seed": null}}, "embeddings_regularizer": null, "activity_regularizer": null, "embeddings_constraint": null, "mask_zero": false, "input_length": null}, "inbound_nodes": [[["input_137", 0, 0, {}]]]}, {"name": "embedding_101", "class_name": "Embedding", "config": {"name": "embedding_101", "trainable": true, "batch_input_shape": [null, null], "dtype": "float32", "input_dim": 7, "output_dim": 6, "embeddings_initializer": {"class_name": "RandomUniform", "config": {"minval": -0.05, "maxval": 0.05, "seed": null}}, "embeddings_regularizer": null, "activity_regularizer": null, "embeddings_constraint": null, "mask_zero": false, "input_length": null}, "inbound_nodes": [[["input_138", 0, 0, {}]]]}, {"name": "embedding_102", "class_name": "Embedding", "config": {"name": "embedding_102", "trainable": true, "batch_input_shape": [null, null], "dtype": "float32", "input_dim": 7, "output_dim": 6, "embeddings_initializer": {"class_name": "RandomUniform", "config": {"minval": -0.05, "maxval": 0.05, "seed": null}}, "embeddings_regularizer": null, "activity_regularizer": null, "embeddings_constraint": null, "mask_zero": false, "input_length": null}, "inbound_nodes": [[["input_139", 0, 0, {}]]]}, {"name": "embedding_103", "class_name": "Embedding", "config": {"name": "embedding_103", "trainable": true, "batch_input_shape": [null, null], "dtype": "float32", "input_dim": 7, "output_dim": 6, "embeddings_initializer": {"class_name": "RandomUniform", "config": {"minval": -0.05, "maxval": 0.05, "seed": null}}, "embeddings_regularizer": null, "activity_regularizer": null, "embeddings_constraint": null, "mask_zero": false, "input_length": null}, "inbound_nodes": [[["input_140", 0, 0, {}]]]}, {"name": "embedding_104", "class_name": "Embedding", "config": {"name": "embedding_104", "trainable": true, "batch_input_shape": [null, null], "dtype": "float32", "input_dim": 7, "output_dim": 6, "embeddings_initializer": {"class_name": "RandomUniform", "config": {"minval": -0.05, "maxval": 0.05, "seed": null}}, "embeddings_regularizer": null, "activity_regularizer": null, "embeddings_constraint": null, "mask_zero": false, "input_length": null}, "inbound_nodes": [[["input_141", 0, 0, {}]]]}, {"name": "embedding_105", "class_name": "Embedding", "config": {"name": "embedding_105", "trainable": true, "batch_input_shape": [null, null], "dtype": "float32", "input_dim": 7, "output_dim": 6, "embeddings_initializer": {"class_name": "RandomUniform", "config": {"minval": -0.05, "maxval": 0.05, "seed": null}}, "embeddings_regularizer": null, "activity_regularizer": null, "embeddings_constraint": null, "mask_zero": false, "input_length": null}, "inbound_nodes": [[["input_142", 0, 0, {}]]]}, {"name": "embedding_106", "class_name": "Embedding", "config": {"name": "embedding_106", "trainable": true, "batch_input_shape": [null, null], "dtype": "float32", "input_dim": 7, "output_dim": 6, "embeddings_initializer": {"class_name": "RandomUniform", "config": {"minval": -0.05, "maxval": 0.05, "seed": null}}, "embeddings_regularizer": null, "activity_regularizer": null, "embeddings_constraint": null, "mask_zero": false, "input_length": null}, "inbound_nodes": [[["input_143", 0, 0, {}]]]}, {"name": "embedding_107", "class_name": "Embedding", "config": {"name": "embedding_107", "trainable": true, "batch_input_shape": [null, null], "dtype": "float32", "input_dim": 7, "output_dim": 6, "embeddings_initializer": {"class_name": "RandomUniform", "config": {"minval": -0.05, "maxval": 0.05, "seed": null}}, "embeddings_regularizer": null, "activity_regularizer": null, "embeddings_constraint": null, "mask_zero": false, "input_length": null}, "inbound_nodes": [[["input_144", 0, 0, {}]]]}, {"name": "embedding_108", "class_name": "Embedding", "config": {"name": "embedding_108", "trainable": true, "batch_input_shape": [null, null], "dtype": "float32", "input_dim": 7, "output_dim": 6, "embeddings_initializer": {"class_name": "RandomUniform", "config": {"minval": -0.05, "maxval": 0.05, "seed": null}}, "embeddings_regularizer": null, "activity_regularizer": null, "embeddings_constraint": null, "mask_zero": false, "input_length": null}, "inbound_nodes": [[["input_145", 0, 0, {}]]]}, {"name": "embedding_109", "class_name": "Embedding", "config": {"name": "embedding_109", "trainable": true, "batch_input_shape": [null, null], "dtype": "float32", "input_dim": 7, "output_dim": 6, "embeddings_initializer": {"class_name": "RandomUniform", "config": {"minval": -0.05, "maxval": 0.05, "seed": null}}, "embeddings_regularizer": null, "activity_regularizer": null, "embeddings_constraint": null, "mask_zero": false, "input_length": null}, "inbound_nodes": [[["input_146", 0, 0, {}]]]}, {"name": "embedding_110", "class_name": "Embedding", "config": {"name": "embedding_110", "trainable": true, "batch_input_shape": [null, null], "dtype": "float32", "input_dim": 7, "output_dim": 6, "embeddings_initializer": {"class_name": "RandomUniform", "config": {"minval": -0.05, "maxval": 0.05, "seed": null}}, "embeddings_regularizer": null, "activity_regularizer": null, "embeddings_constraint": null, "mask_zero": false, "input_length": null}, "inbound_nodes": [[["input_147", 0, 0, {}]]]}, {"name": "embedding_111", "class_name": "Embedding", "config": {"name": "embedding_111", "trainable": true, "batch_input_shape": [null, null], "dtype": "float32", "input_dim": 7, "output_dim": 6, "embeddings_initializer": {"class_name": "RandomUniform", "config": {"minval": -0.05, "maxval": 0.05, "seed": null}}, "embeddings_regularizer": null, "activity_regularizer": null, "embeddings_constraint": null, "mask_zero": false, "input_length": null}, "inbound_nodes": [[["input_148", 0, 0, {}]]]}, {"name": "embedding_112", "class_name": "Embedding", "config": {"name": "embedding_112", "trainable": true, "batch_input_shape": [null, null], "dtype": "float32", "input_dim": 7, "output_dim": 6, "embeddings_initializer": {"class_name": "RandomUniform", "config": {"minval": -0.05, "maxval": 0.05, "seed": null}}, "embeddings_regularizer": null, "activity_regularizer": null, "embeddings_constraint": null, "mask_zero": false, "input_length": null}, "inbound_nodes": [[["input_149", 0, 0, {}]]]}, {"name": "embedding_113", "class_name": "Embedding", "config": {"name": "embedding_113", "trainable": true, "batch_input_shape": [null, null], "dtype": "float32", "input_dim": 7, "output_dim": 6, "embeddings_initializer": {"class_name": "RandomUniform", "config": {"minval": -0.05, "maxval": 0.05, "seed": null}}, "embeddings_regularizer": null, "activity_regularizer": null, "embeddings_constraint": null, "mask_zero": false, "input_length": null}, "inbound_nodes": [[["input_150", 0, 0, {}]]]}, {"name": "embedding_114", "class_name": "Embedding", "config": {"name": "embedding_114", "trainable": true, "batch_input_shape": [null, null], "dtype": "float32", "input_dim": 7, "output_dim": 6, "embeddings_initializer": {"class_name": "RandomUniform", "config": {"minval": -0.05, "maxval": 0.05, "seed": null}}, "embeddings_regularizer": null, "activity_regularizer": null, "embeddings_constraint": null, "mask_zero": false, "input_length": null}, "inbound_nodes": [[["input_151", 0, 0, {}]]]}, {"name": "embedding_115", "class_name": "Embedding", "config": {"name": "embedding_115", "trainable": true, "batch_input_shape": [null, null], "dtype": "float32", "input_dim": 7, "output_dim": 6, "embeddings_initializer": {"class_name": "RandomUniform", "config": {"minval": -0.05, "maxval": 0.05, "seed": null}}, "embeddings_regularizer": null, "activity_regularizer": null, "embeddings_constraint": null, "mask_zero": false, "input_length": null}, "inbound_nodes": [[["input_152", 0, 0, {}]]]}, {"name": "embedding_116", "class_name": "Embedding", "config": {"name": "embedding_116", "trainable": true, "batch_input_shape": [null, null], "dtype": "float32", "input_dim": 7, "output_dim": 6, "embeddings_initializer": {"class_name": "RandomUniform", "config": {"minval": -0.05, "maxval": 0.05, "seed": null}}, "embeddings_regularizer": null, "activity_regularizer": null, "embeddings_constraint": null, "mask_zero": false, "input_length": null}, "inbound_nodes": [[["input_153", 0, 0, {}]]]}, {"name": "embedding_117", "class_name": "Embedding", "config": {"name": "embedding_117", "trainable": true, "batch_input_shape": [null, null], "dtype": "float32", "input_dim": 7, "output_dim": 6, "embeddings_initializer": {"class_name": "RandomUniform", "config": {"minval": -0.05, "maxval": 0.05, "seed": null}}, "embeddings_regularizer": null, "activity_regularizer": null, "embeddings_constraint": null, "mask_zero": false, "input_length": null}, "inbound_nodes": [[["input_154", 0, 0, {}]]]}, {"name": "embedding_118", "class_name": "Embedding", "config": {"name": "embedding_118", "trainable": true, "batch_input_shape": [null, null], "dtype": "float32", "input_dim": 7, "output_dim": 6, "embeddings_initializer": {"class_name": "RandomUniform", "config": {"minval": -0.05, "maxval": 0.05, "seed": null}}, "embeddings_regularizer": null, "activity_regularizer": null, "embeddings_constraint": null, "mask_zero": false, "input_length": null}, "inbound_nodes": [[["input_155", 0, 0, {}]]]}, {"name": "embedding_119", "class_name": "Embedding", "config": {"name": "embedding_119", "trainable": true, "batch_input_shape": [null, null], "dtype": "float32", "input_dim": 7, "output_dim": 6, "embeddings_initializer": {"class_name": "RandomUniform", "config": {"minval": -0.05, "maxval": 0.05, "seed": null}}, "embeddings_regularizer": null, "activity_regularizer": null, "embeddings_constraint": null, "mask_zero": false, "input_length": null}, "inbound_nodes": [[["input_156", 0, 0, {}]]]}, {"name": "embedding_120", "class_name": "Embedding", "config": {"name": "embedding_120", "trainable": true, "batch_input_shape": [null, null], "dtype": "float32", "input_dim": 7, "output_dim": 6, "embeddings_initializer": {"class_name": "RandomUniform", "config": {"minval": -0.05, "maxval": 0.05, "seed": null}}, "embeddings_regularizer": null, "activity_regularizer": null, "embeddings_constraint": null, "mask_zero": false, "input_length": null}, "inbound_nodes": [[["input_157", 0, 0, {}]]]}, {"name": "embedding_121", "class_name": "Embedding", "config": {"name": "embedding_121", "trainable": true, "batch_input_shape": [null, null], "dtype": "float32", "input_dim": 7, "output_dim": 6, "embeddings_initializer": {"class_name": "RandomUniform", "config": {"minval": -0.05, "maxval": 0.05, "seed": null}}, "embeddings_regularizer": null, "activity_regularizer": null, "embeddings_constraint": null, "mask_zero": false, "input_length": null}, "inbound_nodes": [[["input_158", 0, 0, {}]]]}, {"name": "embedding_122", "class_name": "Embedding", "config": {"name": "embedding_122", "trainable": true, "batch_input_shape": [null, null], "dtype": "float32", "input_dim": 7, "output_dim": 6, "embeddings_initializer": {"class_name": "RandomUniform", "config": {"minval": -0.05, "maxval": 0.05, "seed": null}}, "embeddings_regularizer": null, "activity_regularizer": null, "embeddings_constraint": null, "mask_zero": false, "input_length": null}, "inbound_nodes": [[["input_159", 0, 0, {}]]]}, {"name": "embedding_123", "class_name": "Embedding", "config": {"name": "embedding_123", "trainable": true, "batch_input_shape": [null, null], "dtype": "float32", "input_dim": 7, "output_dim": 6, "embeddings_initializer": {"class_name": "RandomUniform", "config": {"minval": -0.05, "maxval": 0.05, "seed": null}}, "embeddings_regularizer": null, "activity_regularizer": null, "embeddings_constraint": null, "mask_zero": false, "input_length": null}, "inbound_nodes": [[["input_160", 0, 0, {}]]]}, {"name": "embedding_124", "class_name": "Embedding", "config": {"name": "embedding_124", "trainable": true, "batch_input_shape": [null, null], "dtype": "float32", "input_dim": 7, "output_dim": 6, "embeddings_initializer": {"class_name": "RandomUniform", "config": {"minval": -0.05, "maxval": 0.05, "seed": null}}, "embeddings_regularizer": null, "activity_regularizer": null, "embeddings_constraint": null, "mask_zero": false, "input_length": null}, "inbound_nodes": [[["input_161", 0, 0, {}]]]}, {"name": "embedding_125", "class_name": "Embedding", "config": {"name": "embedding_125", "trainable": true, "batch_input_shape": [null, null], "dtype": "float32", "input_dim": 7, "output_dim": 6, "embeddings_initializer": {"class_name": "RandomUniform", "config": {"minval": -0.05, "maxval": 0.05, "seed": null}}, "embeddings_regularizer": null, "activity_regularizer": null, "embeddings_constraint": null, "mask_zero": false, "input_length": null}, "inbound_nodes": [[["input_162", 0, 0, {}]]]}, {"name": "embedding_126", "class_name": "Embedding", "config": {"name": "embedding_126", "trainable": true, "batch_input_shape": [null, null], "dtype": "float32", "input_dim": 7, "output_dim": 6, "embeddings_initializer": {"class_name": "RandomUniform", "config": {"minval": -0.05, "maxval": 0.05, "seed": null}}, "embeddings_regularizer": null, "activity_regularizer": null, "embeddings_constraint": null, "mask_zero": false, "input_length": null}, "inbound_nodes": [[["input_163", 0, 0, {}]]]}, {"name": "embedding_127", "class_name": "Embedding", "config": {"name": "embedding_127", "trainable": true, "batch_input_shape": [null, null], "dtype": "float32", "input_dim": 7, "output_dim": 6, "embeddings_initializer": {"class_name": "RandomUniform", "config": {"minval": -0.05, "maxval": 0.05, "seed": null}}, "embeddings_regularizer": null, "activity_regularizer": null, "embeddings_constraint": null, "mask_zero": false, "input_length": null}, "inbound_nodes": [[["input_164", 0, 0, {}]]]}, {"name": "embedding_128", "class_name": "Embedding", "config": {"name": "embedding_128", "trainable": true, "batch_input_shape": [null, null], "dtype": "float32", "input_dim": 7, "output_dim": 6, "embeddings_initializer": {"class_name": "RandomUniform", "config": {"minval": -0.05, "maxval": 0.05, "seed": null}}, "embeddings_regularizer": null, "activity_regularizer": null, "embeddings_constraint": null, "mask_zero": false, "input_length": null}, "inbound_nodes": [[["input_165", 0, 0, {}]]]}, {"name": "embedding_129", "class_name": "Embedding", "config": {"name": "embedding_129", "trainable": true, "batch_input_shape": [null, null], "dtype": "float32", "input_dim": 7, "output_dim": 6, "embeddings_initializer": {"class_name": "RandomUniform", "config": {"minval": -0.05, "maxval": 0.05, "seed": null}}, "embeddings_regularizer": null, "activity_regularizer": null, "embeddings_constraint": null, "mask_zero": false, "input_length": null}, "inbound_nodes": [[["input_166", 0, 0, {}]]]}, {"name": "embedding_130", "class_name": "Embedding", "config": {"name": "embedding_130", "trainable": true, "batch_input_shape": [null, null], "dtype": "float32", "input_dim": 7, "output_dim": 6, "embeddings_initializer": {"class_name": "RandomUniform", "config": {"minval": -0.05, "maxval": 0.05, "seed": null}}, "embeddings_regularizer": null, "activity_regularizer": null, "embeddings_constraint": null, "mask_zero": false, "input_length": null}, "inbound_nodes": [[["input_167", 0, 0, {}]]]}, {"name": "embedding_131", "class_name": "Embedding", "config": {"name": "embedding_131", "trainable": true, "batch_input_shape": [null, null], "dtype": "float32", "input_dim": 7, "output_dim": 6, "embeddings_initializer": {"class_name": "RandomUniform", "config": {"minval": -0.05, "maxval": 0.05, "seed": null}}, "embeddings_regularizer": null, "activity_regularizer": null, "embeddings_constraint": null, "mask_zero": false, "input_length": null}, "inbound_nodes": [[["input_168", 0, 0, {}]]]}, {"name": "embedding_132", "class_name": "Embedding", "config": {"name": "embedding_132", "trainable": true, "batch_input_shape": [null, null], "dtype": "float32", "input_dim": 7, "output_dim": 6, "embeddings_initializer": {"class_name": "RandomUniform", "config": {"minval": -0.05, "maxval": 0.05, "seed": null}}, "embeddings_regularizer": null, "activity_regularizer": null, "embeddings_constraint": null, "mask_zero": false, "input_length": null}, "inbound_nodes": [[["input_169", 0, 0, {}]]]}, {"name": "embedding_133", "class_name": "Embedding", "config": {"name": "embedding_133", "trainable": true, "batch_input_shape": [null, null], "dtype": "float32", "input_dim": 7, "output_dim": 6, "embeddings_initializer": {"class_name": "RandomUniform", "config": {"minval": -0.05, "maxval": 0.05, "seed": null}}, "embeddings_regularizer": null, "activity_regularizer": null, "embeddings_constraint": null, "mask_zero": false, "input_length": null}, "inbound_nodes": [[["input_170", 0, 0, {}]]]}, {"name": "embedding_134", "class_name": "Embedding", "config": {"name": "embedding_134", "trainable": true, "batch_input_shape": [null, null], "dtype": "float32", "input_dim": 7, "output_dim": 6, "embeddings_initializer": {"class_name": "RandomUniform", "config": {"minval": -0.05, "maxval": 0.05, "seed": null}}, "embeddings_regularizer": null, "activity_regularizer": null, "embeddings_constraint": null, "mask_zero": false, "input_length": null}, "inbound_nodes": [[["input_171", 0, 0, {}]]]}, {"name": "embedding_135", "class_name": "Embedding", "config": {"name": "embedding_135", "trainable": true, "batch_input_shape": [null, null], "dtype": "float32", "input_dim": 7, "output_dim": 6, "embeddings_initializer": {"class_name": "RandomUniform", "config": {"minval": -0.05, "maxval": 0.05, "seed": null}}, "embeddings_regularizer": null, "activity_regularizer": null, "embeddings_constraint": null, "mask_zero": false, "input_length": null}, "inbound_nodes": [[["input_172", 0, 0, {}]]]}, {"name": "embedding_136", "class_name": "Embedding", "config": {"name": "embedding_136", "trainable": true, "batch_input_shape": [null, null], "dtype": "float32", "input_dim": 7, "output_dim": 6, "embeddings_initializer": {"class_name": "RandomUniform", "config": {"minval": -0.05, "maxval": 0.05, "seed": null}}, "embeddings_regularizer": null, "activity_regularizer": null, "embeddings_constraint": null, "mask_zero": false, "input_length": null}, "inbound_nodes": [[["input_173", 0, 0, {}]]]}, {"name": "embedding_137", "class_name": "Embedding", "config": {"name": "embedding_137", "trainable": true, "batch_input_shape": [null, null], "dtype": "float32", "input_dim": 7, "output_dim": 6, "embeddings_initializer": {"class_name": "RandomUniform", "config": {"minval": -0.05, "maxval": 0.05, "seed": null}}, "embeddings_regularizer": null, "activity_regularizer": null, "embeddings_constraint": null, "mask_zero": false, "input_length": null}, "inbound_nodes": [[["input_174", 0, 0, {}]]]}, {"name": "embedding_138", "class_name": "Embedding", "config": {"name": "embedding_138", "trainable": true, "batch_input_shape": [null, null], "dtype": "float32", "input_dim": 7, "output_dim": 6, "embeddings_initializer": {"class_name": "RandomUniform", "config": {"minval": -0.05, "maxval": 0.05, "seed": null}}, "embeddings_regularizer": null, "activity_regularizer": null, "embeddings_constraint": null, "mask_zero": false, "input_length": null}, "inbound_nodes": [[["input_175", 0, 0, {}]]]}, {"name": "embedding_139", "class_name": "Embedding", "config": {"name": "embedding_139", "trainable": true, "batch_input_shape": [null, null], "dtype": "float32", "input_dim": 7, "output_dim": 6, "embeddings_initializer": {"class_name": "RandomUniform", "config": {"minval": -0.05, "maxval": 0.05, "seed": null}}, "embeddings_regularizer": null, "activity_regularizer": null, "embeddings_constraint": null, "mask_zero": false, "input_length": null}, "inbound_nodes": [[["input_176", 0, 0, {}]]]}, {"name": "embedding_140", "class_name": "Embedding", "config": {"name": "embedding_140", "trainable": true, "batch_input_shape": [null, null], "dtype": "float32", "input_dim": 7, "output_dim": 6, "embeddings_initializer": {"class_name": "RandomUniform", "config": {"minval": -0.05, "maxval": 0.05, "seed": null}}, "embeddings_regularizer": null, "activity_regularizer": null, "embeddings_constraint": null, "mask_zero": false, "input_length": null}, "inbound_nodes": [[["input_177", 0, 0, {}]]]}, {"name": "embedding_141", "class_name": "Embedding", "config": {"name": "embedding_141", "trainable": true, "batch_input_shape": [null, null], "dtype": "float32", "input_dim": 7, "output_dim": 6, "embeddings_initializer": {"class_name": "RandomUniform", "config": {"minval": -0.05, "maxval": 0.05, "seed": null}}, "embeddings_regularizer": null, "activity_regularizer": null, "embeddings_constraint": null, "mask_zero": false, "input_length": null}, "inbound_nodes": [[["input_178", 0, 0, {}]]]}, {"name": "embedding_142", "class_name": "Embedding", "config": {"name": "embedding_142", "trainable": true, "batch_input_shape": [null, null], "dtype": "float32", "input_dim": 7, "output_dim": 6, "embeddings_initializer": {"class_name": "RandomUniform", "config": {"minval": -0.05, "maxval": 0.05, "seed": null}}, "embeddings_regularizer": null, "activity_regularizer": null, "embeddings_constraint": null, "mask_zero": false, "input_length": null}, "inbound_nodes": [[["input_179", 0, 0, {}]]]}, {"name": "embedding_143", "class_name": "Embedding", "config": {"name": "embedding_143", "trainable": true, "batch_input_shape": [null, null], "dtype": "float32", "input_dim": 7, "output_dim": 6, "embeddings_initializer": {"class_name": "RandomUniform", "config": {"minval": -0.05, "maxval": 0.05, "seed": null}}, "embeddings_regularizer": null, "activity_regularizer": null, "embeddings_constraint": null, "mask_zero": false, "input_length": null}, "inbound_nodes": [[["input_180", 0, 0, {}]]]}, {"name": "embedding_144", "class_name": "Embedding", "config": {"name": "embedding_144", "trainable": true, "batch_input_shape": [null, null], "dtype": "float32", "input_dim": 7, "output_dim": 6, "embeddings_initializer": {"class_name": "RandomUniform", "config": {"minval": -0.05, "maxval": 0.05, "seed": null}}, "embeddings_regularizer": null, "activity_regularizer": null, "embeddings_constraint": null, "mask_zero": false, "input_length": null}, "inbound_nodes": [[["input_181", 0, 0, {}]]]}, {"name": "embedding_145", "class_name": "Embedding", "config": {"name": "embedding_145", "trainable": true, "batch_input_shape": [null, null], "dtype": "float32", "input_dim": 7, "output_dim": 6, "embeddings_initializer": {"class_name": "RandomUniform", "config": {"minval": -0.05, "maxval": 0.05, "seed": null}}, "embeddings_regularizer": null, "activity_regularizer": null, "embeddings_constraint": null, "mask_zero": false, "input_length": null}, "inbound_nodes": [[["input_182", 0, 0, {}]]]}, {"name": "embedding_146", "class_name": "Embedding", "config": {"name": "embedding_146", "trainable": true, "batch_input_shape": [null, null], "dtype": "float32", "input_dim": 7, "output_dim": 6, "embeddings_initializer": {"class_name": "RandomUniform", "config": {"minval": -0.05, "maxval": 0.05, "seed": null}}, "embeddings_regularizer": null, "activity_regularizer": null, "embeddings_constraint": null, "mask_zero": false, "input_length": null}, "inbound_nodes": [[["input_183", 0, 0, {}]]]}, {"name": "embedding_147", "class_name": "Embedding", "config": {"name": "embedding_147", "trainable": true, "batch_input_shape": [null, null], "dtype": "float32", "input_dim": 7, "output_dim": 6, "embeddings_initializer": {"class_name": "RandomUniform", "config": {"minval": -0.05, "maxval": 0.05, "seed": null}}, "embeddings_regularizer": null, "activity_regularizer": null, "embeddings_constraint": null, "mask_zero": false, "input_length": null}, "inbound_nodes": [[["input_184", 0, 0, {}]]]}, {"name": "embedding_148", "class_name": "Embedding", "config": {"name": "embedding_148", "trainable": true, "batch_input_shape": [null, null], "dtype": "float32", "input_dim": 7, "output_dim": 6, "embeddings_initializer": {"class_name": "RandomUniform", "config": {"minval": -0.05, "maxval": 0.05, "seed": null}}, "embeddings_regularizer": null, "activity_regularizer": null, "embeddings_constraint": null, "mask_zero": false, "input_length": null}, "inbound_nodes": [[["input_185", 0, 0, {}]]]}, {"name": "embedding_149", "class_name": "Embedding", "config": {"name": "embedding_149", "trainable": true, "batch_input_shape": [null, null], "dtype": "float32", "input_dim": 7, "output_dim": 6, "embeddings_initializer": {"class_name": "RandomUniform", "config": {"minval": -0.05, "maxval": 0.05, "seed": null}}, "embeddings_regularizer": null, "activity_regularizer": null, "embeddings_constraint": null, "mask_zero": false, "input_length": null}, "inbound_nodes": [[["input_186", 0, 0, {}]]]}, {"name": "embedding_150", "class_name": "Embedding", "config": {"name": "embedding_150", "trainable": true, "batch_input_shape": [null, null], "dtype": "float32", "input_dim": 7, "output_dim": 6, "embeddings_initializer": {"class_name": "RandomUniform", "config": {"minval": -0.05, "maxval": 0.05, "seed": null}}, "embeddings_regularizer": null, "activity_regularizer": null, "embeddings_constraint": null, "mask_zero": false, "input_length": null}, "inbound_nodes": [[["input_187", 0, 0, {}]]]}, {"name": "embedding_151", "class_name": "Embedding", "config": {"name": "embedding_151", "trainable": true, "batch_input_shape": [null, null], "dtype": "float32", "input_dim": 7, "output_dim": 6, "embeddings_initializer": {"class_name": "RandomUniform", "config": {"minval": -0.05, "maxval": 0.05, "seed": null}}, "embeddings_regularizer": null, "activity_regularizer": null, "embeddings_constraint": null, "mask_zero": false, "input_length": null}, "inbound_nodes": [[["input_188", 0, 0, {}]]]}, {"name": "embedding_152", "class_name": "Embedding", "config": {"name": "embedding_152", "trainable": true, "batch_input_shape": [null, null], "dtype": "float32", "input_dim": 7, "output_dim": 6, "embeddings_initializer": {"class_name": "RandomUniform", "config": {"minval": -0.05, "maxval": 0.05, "seed": null}}, "embeddings_regularizer": null, "activity_regularizer": null, "embeddings_constraint": null, "mask_zero": false, "input_length": null}, "inbound_nodes": [[["input_189", 0, 0, {}]]]}, {"name": "embedding_153", "class_name": "Embedding", "config": {"name": "embedding_153", "trainable": true, "batch_input_shape": [null, null], "dtype": "float32", "input_dim": 7, "output_dim": 6, "embeddings_initializer": {"class_name": "RandomUniform", "config": {"minval": -0.05, "maxval": 0.05, "seed": null}}, "embeddings_regularizer": null, "activity_regularizer": null, "embeddings_constraint": null, "mask_zero": false, "input_length": null}, "inbound_nodes": [[["input_190", 0, 0, {}]]]}, {"name": "embedding_154", "class_name": "Embedding", "config": {"name": "embedding_154", "trainable": true, "batch_input_shape": [null, null], "dtype": "float32", "input_dim": 7, "output_dim": 6, "embeddings_initializer": {"class_name": "RandomUniform", "config": {"minval": -0.05, "maxval": 0.05, "seed": null}}, "embeddings_regularizer": null, "activity_regularizer": null, "embeddings_constraint": null, "mask_zero": false, "input_length": null}, "inbound_nodes": [[["input_191", 0, 0, {}]]]}, {"name": "embedding_155", "class_name": "Embedding", "config": {"name": "embedding_155", "trainable": true, "batch_input_shape": [null, null], "dtype": "float32", "input_dim": 7, "output_dim": 6, "embeddings_initializer": {"class_name": "RandomUniform", "config": {"minval": -0.05, "maxval": 0.05, "seed": null}}, "embeddings_regularizer": null, "activity_regularizer": null, "embeddings_constraint": null, "mask_zero": false, "input_length": null}, "inbound_nodes": [[["input_192", 0, 0, {}]]]}, {"name": "embedding_156", "class_name": "Embedding", "config": {"name": "embedding_156", "trainable": true, "batch_input_shape": [null, null], "dtype": "float32", "input_dim": 7, "output_dim": 6, "embeddings_initializer": {"class_name": "RandomUniform", "config": {"minval": -0.05, "maxval": 0.05, "seed": null}}, "embeddings_regularizer": null, "activity_regularizer": null, "embeddings_constraint": null, "mask_zero": false, "input_length": null}, "inbound_nodes": [[["input_193", 0, 0, {}]]]}, {"name": "embedding_157", "class_name": "Embedding", "config": {"name": "embedding_157", "trainable": true, "batch_input_shape": [null, null], "dtype": "float32", "input_dim": 7, "output_dim": 6, "embeddings_initializer": {"class_name": "RandomUniform", "config": {"minval": -0.05, "maxval": 0.05, "seed": null}}, "embeddings_regularizer": null, "activity_regularizer": null, "embeddings_constraint": null, "mask_zero": false, "input_length": null}, "inbound_nodes": [[["input_194", 0, 0, {}]]]}, {"name": "embedding_158", "class_name": "Embedding", "config": {"name": "embedding_158", "trainable": true, "batch_input_shape": [null, null], "dtype": "float32", "input_dim": 7, "output_dim": 6, "embeddings_initializer": {"class_name": "RandomUniform", "config": {"minval": -0.05, "maxval": 0.05, "seed": null}}, "embeddings_regularizer": null, "activity_regularizer": null, "embeddings_constraint": null, "mask_zero": false, "input_length": null}, "inbound_nodes": [[["input_195", 0, 0, {}]]]}, {"name": "embedding_159", "class_name": "Embedding", "config": {"name": "embedding_159", "trainable": true, "batch_input_shape": [null, null], "dtype": "float32", "input_dim": 7, "output_dim": 6, "embeddings_initializer": {"class_name": "RandomUniform", "config": {"minval": -0.05, "maxval": 0.05, "seed": null}}, "embeddings_regularizer": null, "activity_regularizer": null, "embeddings_constraint": null, "mask_zero": false, "input_length": null}, "inbound_nodes": [[["input_196", 0, 0, {}]]]}, {"name": "embedding_160", "class_name": "Embedding", "config": {"name": "embedding_160", "trainable": true, "batch_input_shape": [null, null], "dtype": "float32", "input_dim": 7, "output_dim": 6, "embeddings_initializer": {"class_name": "RandomUniform", "config": {"minval": -0.05, "maxval": 0.05, "seed": null}}, "embeddings_regularizer": null, "activity_regularizer": null, "embeddings_constraint": null, "mask_zero": false, "input_length": null}, "inbound_nodes": [[["input_197", 0, 0, {}]]]}, {"name": "embedding_161", "class_name": "Embedding", "config": {"name": "embedding_161", "trainable": true, "batch_input_shape": [null, null], "dtype": "float32", "input_dim": 7, "output_dim": 6, "embeddings_initializer": {"class_name": "RandomUniform", "config": {"minval": -0.05, "maxval": 0.05, "seed": null}}, "embeddings_regularizer": null, "activity_regularizer": null, "embeddings_constraint": null, "mask_zero": false, "input_length": null}, "inbound_nodes": [[["input_198", 0, 0, {}]]]}, {"name": "embedding_162", "class_name": "Embedding", "config": {"name": "embedding_162", "trainable": true, "batch_input_shape": [null, null], "dtype": "float32", "input_dim": 7, "output_dim": 6, "embeddings_initializer": {"class_name": "RandomUniform", "config": {"minval": -0.05, "maxval": 0.05, "seed": null}}, "embeddings_regularizer": null, "activity_regularizer": null, "embeddings_constraint": null, "mask_zero": false, "input_length": null}, "inbound_nodes": [[["input_199", 0, 0, {}]]]}, {"name": "embedding_163", "class_name": "Embedding", "config": {"name": "embedding_163", "trainable": true, "batch_input_shape": [null, null], "dtype": "float32", "input_dim": 7, "output_dim": 6, "embeddings_initializer": {"class_name": "RandomUniform", "config": {"minval": -0.05, "maxval": 0.05, "seed": null}}, "embeddings_regularizer": null, "activity_regularizer": null, "embeddings_constraint": null, "mask_zero": false, "input_length": null}, "inbound_nodes": [[["input_200", 0, 0, {}]]]}, {"name": "embedding_164", "class_name": "Embedding", "config": {"name": "embedding_164", "trainable": true, "batch_input_shape": [null, null], "dtype": "float32", "input_dim": 7, "output_dim": 6, "embeddings_initializer": {"class_name": "RandomUniform", "config": {"minval": -0.05, "maxval": 0.05, "seed": null}}, "embeddings_regularizer": null, "activity_regularizer": null, "embeddings_constraint": null, "mask_zero": false, "input_length": null}, "inbound_nodes": [[["input_201", 0, 0, {}]]]}, {"name": "embedding_165", "class_name": "Embedding", "config": {"name": "embedding_165", "trainable": true, "batch_input_shape": [null, null], "dtype": "float32", "input_dim": 7, "output_dim": 6, "embeddings_initializer": {"class_name": "RandomUniform", "config": {"minval": -0.05, "maxval": 0.05, "seed": null}}, "embeddings_regularizer": null, "activity_regularizer": null, "embeddings_constraint": null, "mask_zero": false, "input_length": null}, "inbound_nodes": [[["input_202", 0, 0, {}]]]}, {"name": "embedding_166", "class_name": "Embedding", "config": {"name": "embedding_166", "trainable": true, "batch_input_shape": [null, null], "dtype": "float32", "input_dim": 7, "output_dim": 6, "embeddings_initializer": {"class_name": "RandomUniform", "config": {"minval": -0.05, "maxval": 0.05, "seed": null}}, "embeddings_regularizer": null, "activity_regularizer": null, "embeddings_constraint": null, "mask_zero": false, "input_length": null}, "inbound_nodes": [[["input_203", 0, 0, {}]]]}, {"name": "embedding_167", "class_name": "Embedding", "config": {"name": "embedding_167", "trainable": true, "batch_input_shape": [null, null], "dtype": "float32", "input_dim": 7, "output_dim": 6, "embeddings_initializer": {"class_name": "RandomUniform", "config": {"minval": -0.05, "maxval": 0.05, "seed": null}}, "embeddings_regularizer": null, "activity_regularizer": null, "embeddings_constraint": null, "mask_zero": false, "input_length": null}, "inbound_nodes": [[["input_204", 0, 0, {}]]]}, {"name": "embedding_168", "class_name": "Embedding", "config": {"name": "embedding_168", "trainable": true, "batch_input_shape": [null, null], "dtype": "float32", "input_dim": 7, "output_dim": 6, "embeddings_initializer": {"class_name": "RandomUniform", "config": {"minval": -0.05, "maxval": 0.05, "seed": null}}, "embeddings_regularizer": null, "activity_regularizer": null, "embeddings_constraint": null, "mask_zero": false, "input_length": null}, "inbound_nodes": [[["input_205", 0, 0, {}]]]}, {"name": "embedding_169", "class_name": "Embedding", "config": {"name": "embedding_169", "trainable": true, "batch_input_shape": [null, null], "dtype": "float32", "input_dim": 7, "output_dim": 6, "embeddings_initializer": {"class_name": "RandomUniform", "config": {"minval": -0.05, "maxval": 0.05, "seed": null}}, "embeddings_regularizer": null, "activity_regularizer": null, "embeddings_constraint": null, "mask_zero": false, "input_length": null}, "inbound_nodes": [[["input_206", 0, 0, {}]]]}, {"name": "embedding_170", "class_name": "Embedding", "config": {"name": "embedding_170", "trainable": true, "batch_input_shape": [null, null], "dtype": "float32", "input_dim": 7, "output_dim": 6, "embeddings_initializer": {"class_name": "RandomUniform", "config": {"minval": -0.05, "maxval": 0.05, "seed": null}}, "embeddings_regularizer": null, "activity_regularizer": null, "embeddings_constraint": null, "mask_zero": false, "input_length": null}, "inbound_nodes": [[["input_207", 0, 0, {}]]]}, {"name": "embedding_171", "class_name": "Embedding", "config": {"name": "embedding_171", "trainable": true, "batch_input_shape": [null, null], "dtype": "float32", "input_dim": 7, "output_dim": 6, "embeddings_initializer": {"class_name": "RandomUniform", "config": {"minval": -0.05, "maxval": 0.05, "seed": null}}, "embeddings_regularizer": null, "activity_regularizer": null, "embeddings_constraint": null, "mask_zero": false, "input_length": null}, "inbound_nodes": [[["input_208", 0, 0, {}]]]}, {"name": "embedding_172", "class_name": "Embedding", "config": {"name": "embedding_172", "trainable": true, "batch_input_shape": [null, null], "dtype": "float32", "input_dim": 7, "output_dim": 6, "embeddings_initializer": {"class_name": "RandomUniform", "config": {"minval": -0.05, "maxval": 0.05, "seed": null}}, "embeddings_regularizer": null, "activity_regularizer": null, "embeddings_constraint": null, "mask_zero": false, "input_length": null}, "inbound_nodes": [[["input_209", 0, 0, {}]]]}, {"name": "embedding_173", "class_name": "Embedding", "config": {"name": "embedding_173", "trainable": true, "batch_input_shape": [null, null], "dtype": "float32", "input_dim": 7, "output_dim": 6, "embeddings_initializer": {"class_name": "RandomUniform", "config": {"minval": -0.05, "maxval": 0.05, "seed": null}}, "embeddings_regularizer": null, "activity_regularizer": null, "embeddings_constraint": null, "mask_zero": false, "input_length": null}, "inbound_nodes": [[["input_210", 0, 0, {}]]]}, {"name": "embedding_174", "class_name": "Embedding", "config": {"name": "embedding_174", "trainable": true, "batch_input_shape": [null, null], "dtype": "float32", "input_dim": 7, "output_dim": 6, "embeddings_initializer": {"class_name": "RandomUniform", "config": {"minval": -0.05, "maxval": 0.05, "seed": null}}, "embeddings_regularizer": null, "activity_regularizer": null, "embeddings_constraint": null, "mask_zero": false, "input_length": null}, "inbound_nodes": [[["input_211", 0, 0, {}]]]}, {"name": "embedding_175", "class_name": "Embedding", "config": {"name": "embedding_175", "trainable": true, "batch_input_shape": [null, null], "dtype": "float32", "input_dim": 7, "output_dim": 6, "embeddings_initializer": {"class_name": "RandomUniform", "config": {"minval": -0.05, "maxval": 0.05, "seed": null}}, "embeddings_regularizer": null, "activity_regularizer": null, "embeddings_constraint": null, "mask_zero": false, "input_length": null}, "inbound_nodes": [[["input_212", 0, 0, {}]]]}, {"name": "embedding_176", "class_name": "Embedding", "config": {"name": "embedding_176", "trainable": true, "batch_input_shape": [null, null], "dtype": "float32", "input_dim": 7, "output_dim": 6, "embeddings_initializer": {"class_name": "RandomUniform", "config": {"minval": -0.05, "maxval": 0.05, "seed": null}}, "embeddings_regularizer": null, "activity_regularizer": null, "embeddings_constraint": null, "mask_zero": false, "input_length": null}, "inbound_nodes": [[["input_213", 0, 0, {}]]]}, {"name": "embedding_177", "class_name": "Embedding", "config": {"name": "embedding_177", "trainable": true, "batch_input_shape": [null, null], "dtype": "float32", "input_dim": 7, "output_dim": 6, "embeddings_initializer": {"class_name": "RandomUniform", "config": {"minval": -0.05, "maxval": 0.05, "seed": null}}, "embeddings_regularizer": null, "activity_regularizer": null, "embeddings_constraint": null, "mask_zero": false, "input_length": null}, "inbound_nodes": [[["input_214", 0, 0, {}]]]}, {"name": "embedding_178", "class_name": "Embedding", "config": {"name": "embedding_178", "trainable": true, "batch_input_shape": [null, null], "dtype": "float32", "input_dim": 7, "output_dim": 6, "embeddings_initializer": {"class_name": "RandomUniform", "config": {"minval": -0.05, "maxval": 0.05, "seed": null}}, "embeddings_regularizer": null, "activity_regularizer": null, "embeddings_constraint": null, "mask_zero": false, "input_length": null}, "inbound_nodes": [[["input_215", 0, 0, {}]]]}, {"name": "embedding_179", "class_name": "Embedding", "config": {"name": "embedding_179", "trainable": true, "batch_input_shape": [null, null], "dtype": "float32", "input_dim": 7, "output_dim": 6, "embeddings_initializer": {"class_name": "RandomUniform", "config": {"minval": -0.05, "maxval": 0.05, "seed": null}}, "embeddings_regularizer": null, "activity_regularizer": null, "embeddings_constraint": null, "mask_zero": false, "input_length": null}, "inbound_nodes": [[["input_216", 0, 0, {}]]]}, {"name": "embedding_180", "class_name": "Embedding", "config": {"name": "embedding_180", "trainable": true, "batch_input_shape": [null, null], "dtype": "float32", "input_dim": 7, "output_dim": 6, "embeddings_initializer": {"class_name": "RandomUniform", "config": {"minval": -0.05, "maxval": 0.05, "seed": null}}, "embeddings_regularizer": null, "activity_regularizer": null, "embeddings_constraint": null, "mask_zero": false, "input_length": null}, "inbound_nodes": [[["input_217", 0, 0, {}]]]}, {"name": "embedding_181", "class_name": "Embedding", "config": {"name": "embedding_181", "trainable": true, "batch_input_shape": [null, null], "dtype": "float32", "input_dim": 7, "output_dim": 6, "embeddings_initializer": {"class_name": "RandomUniform", "config": {"minval": -0.05, "maxval": 0.05, "seed": null}}, "embeddings_regularizer": null, "activity_regularizer": null, "embeddings_constraint": null, "mask_zero": false, "input_length": null}, "inbound_nodes": [[["input_218", 0, 0, {}]]]}, {"name": "embedding_182", "class_name": "Embedding", "config": {"name": "embedding_182", "trainable": true, "batch_input_shape": [null, null], "dtype": "float32", "input_dim": 7, "output_dim": 6, "embeddings_initializer": {"class_name": "RandomUniform", "config": {"minval": -0.05, "maxval": 0.05, "seed": null}}, "embeddings_regularizer": null, "activity_regularizer": null, "embeddings_constraint": null, "mask_zero": false, "input_length": null}, "inbound_nodes": [[["input_219", 0, 0, {}]]]}, {"name": "embedding_183", "class_name": "Embedding", "config": {"name": "embedding_183", "trainable": true, "batch_input_shape": [null, null], "dtype": "float32", "input_dim": 7, "output_dim": 6, "embeddings_initializer": {"class_name": "RandomUniform", "config": {"minval": -0.05, "maxval": 0.05, "seed": null}}, "embeddings_regularizer": null, "activity_regularizer": null, "embeddings_constraint": null, "mask_zero": false, "input_length": null}, "inbound_nodes": [[["input_220", 0, 0, {}]]]}, {"name": "embedding_184", "class_name": "Embedding", "config": {"name": "embedding_184", "trainable": true, "batch_input_shape": [null, null], "dtype": "float32", "input_dim": 7, "output_dim": 6, "embeddings_initializer": {"class_name": "RandomUniform", "config": {"minval": -0.05, "maxval": 0.05, "seed": null}}, "embeddings_regularizer": null, "activity_regularizer": null, "embeddings_constraint": null, "mask_zero": false, "input_length": null}, "inbound_nodes": [[["input_221", 0, 0, {}]]]}, {"name": "embedding_185", "class_name": "Embedding", "config": {"name": "embedding_185", "trainable": true, "batch_input_shape": [null, null], "dtype": "float32", "input_dim": 7, "output_dim": 6, "embeddings_initializer": {"class_name": "RandomUniform", "config": {"minval": -0.05, "maxval": 0.05, "seed": null}}, "embeddings_regularizer": null, "activity_regularizer": null, "embeddings_constraint": null, "mask_zero": false, "input_length": null}, "inbound_nodes": [[["input_222", 0, 0, {}]]]}, {"name": "embedding_186", "class_name": "Embedding", "config": {"name": "embedding_186", "trainable": true, "batch_input_shape": [null, null], "dtype": "float32", "input_dim": 7, "output_dim": 6, "embeddings_initializer": {"class_name": "RandomUniform", "config": {"minval": -0.05, "maxval": 0.05, "seed": null}}, "embeddings_regularizer": null, "activity_regularizer": null, "embeddings_constraint": null, "mask_zero": false, "input_length": null}, "inbound_nodes": [[["input_223", 0, 0, {}]]]}, {"name": "embedding_187", "class_name": "Embedding", "config": {"name": "embedding_187", "trainable": true, "batch_input_shape": [null, null], "dtype": "float32", "input_dim": 7, "output_dim": 6, "embeddings_initializer": {"class_name": "RandomUniform", "config": {"minval": -0.05, "maxval": 0.05, "seed": null}}, "embeddings_regularizer": null, "activity_regularizer": null, "embeddings_constraint": null, "mask_zero": false, "input_length": null}, "inbound_nodes": [[["input_224", 0, 0, {}]]]}, {"name": "embedding_188", "class_name": "Embedding", "config": {"name": "embedding_188", "trainable": true, "batch_input_shape": [null, null], "dtype": "float32", "input_dim": 7, "output_dim": 6, "embeddings_initializer": {"class_name": "RandomUniform", "config": {"minval": -0.05, "maxval": 0.05, "seed": null}}, "embeddings_regularizer": null, "activity_regularizer": null, "embeddings_constraint": null, "mask_zero": false, "input_length": null}, "inbound_nodes": [[["input_225", 0, 0, {}]]]}, {"name": "embedding_189", "class_name": "Embedding", "config": {"name": "embedding_189", "trainable": true, "batch_input_shape": [null, null], "dtype": "float32", "input_dim": 7, "output_dim": 6, "embeddings_initializer": {"class_name": "RandomUniform", "config": {"minval": -0.05, "maxval": 0.05, "seed": null}}, "embeddings_regularizer": null, "activity_regularizer": null, "embeddings_constraint": null, "mask_zero": false, "input_length": null}, "inbound_nodes": [[["input_226", 0, 0, {}]]]}, {"name": "embedding_190", "class_name": "Embedding", "config": {"name": "embedding_190", "trainable": true, "batch_input_shape": [null, null], "dtype": "float32", "input_dim": 7, "output_dim": 6, "embeddings_initializer": {"class_name": "RandomUniform", "config": {"minval": -0.05, "maxval": 0.05, "seed": null}}, "embeddings_regularizer": null, "activity_regularizer": null, "embeddings_constraint": null, "mask_zero": false, "input_length": null}, "inbound_nodes": [[["input_227", 0, 0, {}]]]}, {"name": "embedding_191", "class_name": "Embedding", "config": {"name": "embedding_191", "trainable": true, "batch_input_shape": [null, null], "dtype": "float32", "input_dim": 7, "output_dim": 6, "embeddings_initializer": {"class_name": "RandomUniform", "config": {"minval": -0.05, "maxval": 0.05, "seed": null}}, "embeddings_regularizer": null, "activity_regularizer": null, "embeddings_constraint": null, "mask_zero": false, "input_length": null}, "inbound_nodes": [[["input_228", 0, 0, {}]]]}, {"name": "embedding_192", "class_name": "Embedding", "config": {"name": "embedding_192", "trainable": true, "batch_input_shape": [null, null], "dtype": "float32", "input_dim": 7, "output_dim": 6, "embeddings_initializer": {"class_name": "RandomUniform", "config": {"minval": -0.05, "maxval": 0.05, "seed": null}}, "embeddings_regularizer": null, "activity_regularizer": null, "embeddings_constraint": null, "mask_zero": false, "input_length": null}, "inbound_nodes": [[["input_229", 0, 0, {}]]]}, {"name": "embedding_193", "class_name": "Embedding", "config": {"name": "embedding_193", "trainable": true, "batch_input_shape": [null, null], "dtype": "float32", "input_dim": 7, "output_dim": 6, "embeddings_initializer": {"class_name": "RandomUniform", "config": {"minval": -0.05, "maxval": 0.05, "seed": null}}, "embeddings_regularizer": null, "activity_regularizer": null, "embeddings_constraint": null, "mask_zero": false, "input_length": null}, "inbound_nodes": [[["input_230", 0, 0, {}]]]}, {"name": "embedding_194", "class_name": "Embedding", "config": {"name": "embedding_194", "trainable": true, "batch_input_shape": [null, null], "dtype": "float32", "input_dim": 7, "output_dim": 6, "embeddings_initializer": {"class_name": "RandomUniform", "config": {"minval": -0.05, "maxval": 0.05, "seed": null}}, "embeddings_regularizer": null, "activity_regularizer": null, "embeddings_constraint": null, "mask_zero": false, "input_length": null}, "inbound_nodes": [[["input_231", 0, 0, {}]]]}, {"name": "embedding_195", "class_name": "Embedding", "config": {"name": "embedding_195", "trainable": true, "batch_input_shape": [null, null], "dtype": "float32", "input_dim": 7, "output_dim": 6, "embeddings_initializer": {"class_name": "RandomUniform", "config": {"minval": -0.05, "maxval": 0.05, "seed": null}}, "embeddings_regularizer": null, "activity_regularizer": null, "embeddings_constraint": null, "mask_zero": false, "input_length": null}, "inbound_nodes": [[["input_232", 0, 0, {}]]]}, {"name": "embedding_196", "class_name": "Embedding", "config": {"name": "embedding_196", "trainable": true, "batch_input_shape": [null, null], "dtype": "float32", "input_dim": 7, "output_dim": 6, "embeddings_initializer": {"class_name": "RandomUniform", "config": {"minval": -0.05, "maxval": 0.05, "seed": null}}, "embeddings_regularizer": null, "activity_regularizer": null, "embeddings_constraint": null, "mask_zero": false, "input_length": null}, "inbound_nodes": [[["input_233", 0, 0, {}]]]}, {"name": "embedding_197", "class_name": "Embedding", "config": {"name": "embedding_197", "trainable": true, "batch_input_shape": [null, null], "dtype": "float32", "input_dim": 7, "output_dim": 6, "embeddings_initializer": {"class_name": "RandomUniform", "config": {"minval": -0.05, "maxval": 0.05, "seed": null}}, "embeddings_regularizer": null, "activity_regularizer": null, "embeddings_constraint": null, "mask_zero": false, "input_length": null}, "inbound_nodes": [[["input_234", 0, 0, {}]]]}, {"name": "embedding_198", "class_name": "Embedding", "config": {"name": "embedding_198", "trainable": true, "batch_input_shape": [null, null], "dtype": "float32", "input_dim": 7, "output_dim": 6, "embeddings_initializer": {"class_name": "RandomUniform", "config": {"minval": -0.05, "maxval": 0.05, "seed": null}}, "embeddings_regularizer": null, "activity_regularizer": null, "embeddings_constraint": null, "mask_zero": false, "input_length": null}, "inbound_nodes": [[["input_235", 0, 0, {}]]]}, {"name": "embedding_199", "class_name": "Embedding", "config": {"name": "embedding_199", "trainable": true, "batch_input_shape": [null, null], "dtype": "float32", "input_dim": 7, "output_dim": 6, "embeddings_initializer": {"class_name": "RandomUniform", "config": {"minval": -0.05, "maxval": 0.05, "seed": null}}, "embeddings_regularizer": null, "activity_regularizer": null, "embeddings_constraint": null, "mask_zero": false, "input_length": null}, "inbound_nodes": [[["input_236", 0, 0, {}]]]}, {"name": "embedding_200", "class_name": "Embedding", "config": {"name": "embedding_200", "trainable": true, "batch_input_shape": [null, null], "dtype": "float32", "input_dim": 7, "output_dim": 6, "embeddings_initializer": {"class_name": "RandomUniform", "config": {"minval": -0.05, "maxval": 0.05, "seed": null}}, "embeddings_regularizer": null, "activity_regularizer": null, "embeddings_constraint": null, "mask_zero": false, "input_length": null}, "inbound_nodes": [[["input_237", 0, 0, {}]]]}, {"name": "embedding_201", "class_name": "Embedding", "config": {"name": "embedding_201", "trainable": true, "batch_input_shape": [null, null], "dtype": "float32", "input_dim": 7, "output_dim": 6, "embeddings_initializer": {"class_name": "RandomUniform", "config": {"minval": -0.05, "maxval": 0.05, "seed": null}}, "embeddings_regularizer": null, "activity_regularizer": null, "embeddings_constraint": null, "mask_zero": false, "input_length": null}, "inbound_nodes": [[["input_238", 0, 0, {}]]]}, {"name": "embedding_202", "class_name": "Embedding", "config": {"name": "embedding_202", "trainable": true, "batch_input_shape": [null, null], "dtype": "float32", "input_dim": 7, "output_dim": 6, "embeddings_initializer": {"class_name": "RandomUniform", "config": {"minval": -0.05, "maxval": 0.05, "seed": null}}, "embeddings_regularizer": null, "activity_regularizer": null, "embeddings_constraint": null, "mask_zero": false, "input_length": null}, "inbound_nodes": [[["input_239", 0, 0, {}]]]}, {"name": "embedding_203", "class_name": "Embedding", "config": {"name": "embedding_203", "trainable": true, "batch_input_shape": [null, null], "dtype": "float32", "input_dim": 7, "output_dim": 6, "embeddings_initializer": {"class_name": "RandomUniform", "config": {"minval": -0.05, "maxval": 0.05, "seed": null}}, "embeddings_regularizer": null, "activity_regularizer": null, "embeddings_constraint": null, "mask_zero": false, "input_length": null}, "inbound_nodes": [[["input_240", 0, 0, {}]]]}, {"name": "embedding_204", "class_name": "Embedding", "config": {"name": "embedding_204", "trainable": true, "batch_input_shape": [null, null], "dtype": "float32", "input_dim": 7, "output_dim": 6, "embeddings_initializer": {"class_name": "RandomUniform", "config": {"minval": -0.05, "maxval": 0.05, "seed": null}}, "embeddings_regularizer": null, "activity_regularizer": null, "embeddings_constraint": null, "mask_zero": false, "input_length": null}, "inbound_nodes": [[["input_241", 0, 0, {}]]]}, {"name": "embedding_205", "class_name": "Embedding", "config": {"name": "embedding_205", "trainable": true, "batch_input_shape": [null, null], "dtype": "float32", "input_dim": 7, "output_dim": 6, "embeddings_initializer": {"class_name": "RandomUniform", "config": {"minval": -0.05, "maxval": 0.05, "seed": null}}, "embeddings_regularizer": null, "activity_regularizer": null, "embeddings_constraint": null, "mask_zero": false, "input_length": null}, "inbound_nodes": [[["input_242", 0, 0, {}]]]}, {"name": "embedding_206", "class_name": "Embedding", "config": {"name": "embedding_206", "trainable": true, "batch_input_shape": [null, null], "dtype": "float32", "input_dim": 7, "output_dim": 6, "embeddings_initializer": {"class_name": "RandomUniform", "config": {"minval": -0.05, "maxval": 0.05, "seed": null}}, "embeddings_regularizer": null, "activity_regularizer": null, "embeddings_constraint": null, "mask_zero": false, "input_length": null}, "inbound_nodes": [[["input_243", 0, 0, {}]]]}, {"name": "embedding_207", "class_name": "Embedding", "config": {"name": "embedding_207", "trainable": true, "batch_input_shape": [null, null], "dtype": "float32", "input_dim": 7, "output_dim": 6, "embeddings_initializer": {"class_name": "RandomUniform", "config": {"minval": -0.05, "maxval": 0.05, "seed": null}}, "embeddings_regularizer": null, "activity_regularizer": null, "embeddings_constraint": null, "mask_zero": false, "input_length": null}, "inbound_nodes": [[["input_244", 0, 0, {}]]]}, {"name": "embedding_208", "class_name": "Embedding", "config": {"name": "embedding_208", "trainable": true, "batch_input_shape": [null, null], "dtype": "float32", "input_dim": 7, "output_dim": 6, "embeddings_initializer": {"class_name": "RandomUniform", "config": {"minval": -0.05, "maxval": 0.05, "seed": null}}, "embeddings_regularizer": null, "activity_regularizer": null, "embeddings_constraint": null, "mask_zero": false, "input_length": null}, "inbound_nodes": [[["input_245", 0, 0, {}]]]}, {"name": "embedding_209", "class_name": "Embedding", "config": {"name": "embedding_209", "trainable": true, "batch_input_shape": [null, null], "dtype": "float32", "input_dim": 7, "output_dim": 6, "embeddings_initializer": {"class_name": "RandomUniform", "config": {"minval": -0.05, "maxval": 0.05, "seed": null}}, "embeddings_regularizer": null, "activity_regularizer": null, "embeddings_constraint": null, "mask_zero": false, "input_length": null}, "inbound_nodes": [[["input_246", 0, 0, {}]]]}, {"name": "embedding_210", "class_name": "Embedding", "config": {"name": "embedding_210", "trainable": true, "batch_input_shape": [null, null], "dtype": "float32", "input_dim": 7, "output_dim": 6, "embeddings_initializer": {"class_name": "RandomUniform", "config": {"minval": -0.05, "maxval": 0.05, "seed": null}}, "embeddings_regularizer": null, "activity_regularizer": null, "embeddings_constraint": null, "mask_zero": false, "input_length": null}, "inbound_nodes": [[["input_247", 0, 0, {}]]]}, {"name": "embedding_211", "class_name": "Embedding", "config": {"name": "embedding_211", "trainable": true, "batch_input_shape": [null, null], "dtype": "float32", "input_dim": 7, "output_dim": 6, "embeddings_initializer": {"class_name": "RandomUniform", "config": {"minval": -0.05, "maxval": 0.05, "seed": null}}, "embeddings_regularizer": null, "activity_regularizer": null, "embeddings_constraint": null, "mask_zero": false, "input_length": null}, "inbound_nodes": [[["input_248", 0, 0, {}]]]}, {"name": "embedding_212", "class_name": "Embedding", "config": {"name": "embedding_212", "trainable": true, "batch_input_shape": [null, null], "dtype": "float32", "input_dim": 7, "output_dim": 6, "embeddings_initializer": {"class_name": "RandomUniform", "config": {"minval": -0.05, "maxval": 0.05, "seed": null}}, "embeddings_regularizer": null, "activity_regularizer": null, "embeddings_constraint": null, "mask_zero": false, "input_length": null}, "inbound_nodes": [[["input_249", 0, 0, {}]]]}, {"name": "embedding_213", "class_name": "Embedding", "config": {"name": "embedding_213", "trainable": true, "batch_input_shape": [null, null], "dtype": "float32", "input_dim": 7, "output_dim": 6, "embeddings_initializer": {"class_name": "RandomUniform", "config": {"minval": -0.05, "maxval": 0.05, "seed": null}}, "embeddings_regularizer": null, "activity_regularizer": null, "embeddings_constraint": null, "mask_zero": false, "input_length": null}, "inbound_nodes": [[["input_250", 0, 0, {}]]]}, {"name": "embedding_214", "class_name": "Embedding", "config": {"name": "embedding_214", "trainable": true, "batch_input_shape": [null, null], "dtype": "float32", "input_dim": 7, "output_dim": 6, "embeddings_initializer": {"class_name": "RandomUniform", "config": {"minval": -0.05, "maxval": 0.05, "seed": null}}, "embeddings_regularizer": null, "activity_regularizer": null, "embeddings_constraint": null, "mask_zero": false, "input_length": null}, "inbound_nodes": [[["input_251", 0, 0, {}]]]}, {"name": "embedding_215", "class_name": "Embedding", "config": {"name": "embedding_215", "trainable": true, "batch_input_shape": [null, null], "dtype": "float32", "input_dim": 7, "output_dim": 6, "embeddings_initializer": {"class_name": "RandomUniform", "config": {"minval": -0.05, "maxval": 0.05, "seed": null}}, "embeddings_regularizer": null, "activity_regularizer": null, "embeddings_constraint": null, "mask_zero": false, "input_length": null}, "inbound_nodes": [[["input_252", 0, 0, {}]]]}, {"name": "embedding_216", "class_name": "Embedding", "config": {"name": "embedding_216", "trainable": true, "batch_input_shape": [null, null], "dtype": "float32", "input_dim": 7, "output_dim": 6, "embeddings_initializer": {"class_name": "RandomUniform", "config": {"minval": -0.05, "maxval": 0.05, "seed": null}}, "embeddings_regularizer": null, "activity_regularizer": null, "embeddings_constraint": null, "mask_zero": false, "input_length": null}, "inbound_nodes": [[["input_253", 0, 0, {}]]]}, {"name": "embedding_217", "class_name": "Embedding", "config": {"name": "embedding_217", "trainable": true, "batch_input_shape": [null, null], "dtype": "float32", "input_dim": 7, "output_dim": 6, "embeddings_initializer": {"class_name": "RandomUniform", "config": {"minval": -0.05, "maxval": 0.05, "seed": null}}, "embeddings_regularizer": null, "activity_regularizer": null, "embeddings_constraint": null, "mask_zero": false, "input_length": null}, "inbound_nodes": [[["input_254", 0, 0, {}]]]}, {"name": "embedding_218", "class_name": "Embedding", "config": {"name": "embedding_218", "trainable": true, "batch_input_shape": [null, null], "dtype": "float32", "input_dim": 7, "output_dim": 6, "embeddings_initializer": {"class_name": "…
et_shape": [6]}, "inbound_nodes": [[["embedding_54", 0, 0, {}]]]}, {"name": "reshape_92", "class_name": "Reshape", "config": {"name": "reshape_92", "trainable": true, "dtype": "float32", "target_shape": [6]}, "inbound_nodes": [[["embedding_55", 0, 0, {}]]]}, {"name": "reshape_93", "class_name": "Reshape", "config": {"name": "reshape_93", "trainable": true, "dtype": "float32", "target_shape": [6]}, "inbound_nodes": [[["embedding_56", 0, 0, {}]]]}, {"name": "reshape_94", "class_name": "Reshape", "config": {"name": "reshape_94", "trainable": true, "dtype": "float32", "target_shape": [6]}, "inbound_nodes": [[["embedding_57", 0, 0, {}]]]}, {"name": "reshape_95", "class_name": "Reshape", "config": {"name": "reshape_95", "trainable": true, "dtype": "float32", "target_shape": [6]}, "inbound_nodes": [[["embedding_58", 0, 0, {}]]]}, {"name": "reshape_96", "class_name": "Reshape", "config": {"name": "reshape_96", "trainable": true, "dtype": "float32", "target_shape": [6]}, "inbound_nodes": [[["embedding_59", 0, 0, {}]]]}, {"name": "reshape_97", "class_name": "Reshape", "config": {"name": "reshape_97", "trainable": true, "dtype": "float32", "target_shape": [6]}, "inbound_nodes": [[["embedding_60", 0, 0, {}]]]}, {"name": "reshape_98", "class_name": "Reshape", "config": {"name": "reshape_98", "trainable": true, "dtype": "float32", "target_shape": [6]}, "inbound_nodes": [[["embedding_61", 0, 0, {}]]]}, {"name": "reshape_99", "class_name": "Reshape", "config": {"name": "reshape_99", "trainable": true, "dtype": "float32", "target_shape": [6]}, "inbound_nodes": [[["embedding_62", 0, 0, {}]]]}, {"name": "reshape_100", "class_name": "Reshape", "config": {"name": "reshape_100", "trainable": true, "dtype": "float32", "target_shape": [6]}, "inbound_nodes": [[["embedding_63", 0, 0, {}]]]}, {"name": "reshape_101", "class_name": "Reshape", "config": {"name": "reshape_101", "trainable": true, "dtype": "float32", "target_shape": [6]}, "inbound_nodes": [[["embedding_64", 0, 0, {}]]]}, {"name": "reshape_102", "class_name": "Reshape", "config": {"name": "reshape_102", "trainable": true, "dtype": "float32", "target_shape": [6]}, "inbound_nodes": [[["embedding_65", 0, 0, {}]]]}, {"name": "reshape_103", "class_name": "Reshape", "config": {"name": "reshape_103", "trainable": true, "dtype": "float32", "target_shape": [6]}, "inbound_nodes": [[["embedding_66", 0, 0, {}]]]}, {"name": "reshape_104", "class_name": "Reshape", "config": {"name": "reshape_104", "trainable": true, "dtype": "float32", "target_shape": [6]}, "inbound_nodes": [[["embedding_67", 0, 0, {}]]]}, {"name": "reshape_105", "class_name": "Reshape", "config": {"name": "reshape_105", "trainable": true, "dtype": "float32", "target_shape": [6]}, "inbound_nodes": [[["embedding_68", 0, 0, {}]]]}, {"name": "reshape_106", "class_name": "Reshape", "config": {"name": "reshape_106", "trainable": true, "dtype": "float32", "target_shape": [6]}, "inbound_nodes": [[["embedding_69", 0, 0, {}]]]}, {"name": "reshape_107", "class_name": "Reshape", "config": {"name": "reshape_107", "trainable": true, "dtype": "float32", "target_shape": [6]}, "inbound_nodes": [[["embedding_70", 0, 0, {}]]]}, {"name": "reshape_108", "class_name": "Reshape", "config": {"name": "reshape_108", "trainable": true, "dtype": "float32", "target_shape": [6]}, "inbound_nodes": [[["embedding_71", 0, 0, {}]]]}, {"name": "reshape_109", "class_name": "Reshape", "config": {"name": "reshape_109", "trainable": true, "dtype": "float32", "target_shape": [6]}, "inbound_nodes": [[["embedding_72", 0, 0, {}]]]}, {"name": "reshape_110", "class_name": "Reshape", "config": {"name": "reshape_110", "trainable": true, "dtype": "float32", "target_shape": [6]}, "inbound_nodes": [[["embedding_73", 0, 0, {}]]]}, {"name": "reshape_111", "class_name": "Reshape", "config": {"name": "reshape_111", "trainable": true, "dtype": "float32", "target_shape": [6]}, "inbound_nodes": [[["embedding_74", 0, 0, {}]]]}, {"name": "reshape_112", "class_name": "Reshape", "config": {"name": "reshape_112", "trainable": true, "dtype": "float32", "target_shape": [6]}, "inbound_nodes": [[["embedding_75", 0, 0, {}]]]}, {"name": "reshape_113", "class_name": "Reshape", "config": {"name": "reshape_113", "trainable": true, "dtype": "float32", "target_shape": [6]}, "inbound_nodes": [[["embedding_76", 0, 0, {}]]]}, {"name": "reshape_114", "class_name": "Reshape", "config": {"name": "reshape_114", "trainable": true, "dtype": "float32", "target_shape": [6]}, "inbound_nodes": [[["embedding_77", 0, 0, {}]]]}, {"name": "reshape_115", "class_name": "Reshape", "config": {"name": "reshape_115", "trainable": true, "dtype": "float32", "target_shape": [6]}, "inbound_nodes": [[["embedding_78", 0, 0, {}]]]}, {"name": "reshape_116", "class_name": "Reshape", "config": {"name": "reshape_116", "trainable": true, "dtype": "float32", "target_shape": [6]}, "inbound_nodes": [[["embedding_79", 0, 0, {}]]]}, {"name": "reshape_117", "class_name": "Reshape", "config": {"name": "reshape_117", "trainable": true, "dtype": "float32", "target_shape": [6]}, "inbound_nodes": [[["embedding_80", 0, 0, {}]]]}, {"name": "reshape_118", "class_name": "Reshape", "config": {"name": "reshape_118", "trainable": true, "dtype": "float32", "target_shape": [6]}, "inbound_nodes": [[["embedding_81", 0, 0, {}]]]}, {"name": "reshape_119", "class_name": "Reshape", "config": {"name": "reshape_119", "trainable": true, "dtype": "float32", "target_shape": [6]}, "inbound_nodes": [[["embedding_82", 0, 0, {}]]]}, {"name": "reshape_120", "class_name": "Reshape", "config": {"name": "reshape_120", "trainable": true, "dtype": "float32", "target_shape": [6]}, "inbound_nodes": [[["embedding_83", 0, 0, {}]]]}, {"name": "reshape_121", "class_name": "Reshape", "config": {"name": "reshape_121", "trainable": true, "dtype": "float32", "target_shape": [6]}, "inbound_nodes": [[["embedding_84", 0, 0, {}]]]}, {"name": "reshape_122", "class_name": "Reshape", "config": {"name": "reshape_122", "trainable": true, "dtype": "float32", "target_shape": [6]}, "inbound_nodes": [[["embedding_85", 0, 0, {}]]]}, {"name": "reshape_123", "class_name": "Reshape", "config": {"name": "reshape_123", "trainable": true, "dtype": "float32", "target_shape": [6]}, "inbound_nodes": [[["embedding_86", 0, 0, {}]]]}, {"name": "reshape_124", "class_name": "Reshape", "config": {"name": "reshape_124", "trainable": true, "dtype": "float32", "target_shape": [6]}, "inbound_nodes": [[["embedding_87", 0, 0, {}]]]}, {"name": "reshape_125", "class_name": "Reshape", "config": {"name": "reshape_125", "trainable": true, "dtype": "float32", "target_shape": [6]}, "inbound_nodes": [[["embedding_88", 0, 0, {}]]]}, {"name": "reshape_126", "class_name": "Reshape", "config": {"name": "reshape_126", "trainable": true, "dtype": "float32", "target_shape": [6]}, "inbound_nodes": [[["embedding_89", 0, 0, {}]]]}, {"name": "reshape_127", "class_name": "Reshape", "config": {"name": "reshape_127", "trainable": true, "dtype": "float32", "target_shape": [6]}, "inbound_nodes": [[["embedding_90", 0, 0, {}]]]}, {"name": "reshape_128", "class_name": "Reshape", "config": {"name": "reshape_128", "trainable": true, "dtype": "float32", "target_shape": [6]}, "inbound_nodes": [[["embedding_91", 0, 0, {}]]]}, {"name": "reshape_129", "class_name": "Reshape", "config": {"name": "reshape_129", "trainable": true, "dtype": "float32", "target_shape": [6]}, "inbound_nodes": [[["embedding_92", 0, 0, {}]]]}, {"name": "reshape_130", "class_name": "Reshape", "config": {"name": "reshape_130", "trainable": true, "dtype": "float32", "target_shape": [6]}, "inbound_nodes": [[["embedding_93", 0, 0, {}]]]}, {"name": "reshape_131", "class_name": "Reshape", "config": {"name": "reshape_131", "trainable": true, "dtype": "float32", "target_shape": [6]}, "inbound_nodes": [[["embedding_94", 0, 0, {}]]]}, {"name": "reshape_132", "class_name": "Reshape", "config": {"name": "reshape_132", "trainable": true, "dtype": "float32", "target_shape": [6]}, "inbound_nodes": [[["embedding_95", 0, 0, {}]]]}, {"name": "reshape_133", "class_name": "Reshape", "config": {"name": "reshape_133", "trainable": true, "dtype": "float32", "target_shape": [6]}, "inbound_nodes": [[["embedding_96", 0, 0, {}]]]}, {"name": "reshape_134", "class_name": "Reshape", "config": {"name": "reshape_134", "trainable": true, "dtype": "float32", "target_shape": [6]}, "inbound_nodes": [[["embedding_97", 0, 0, {}]]]}, {"name": "reshape_135", "class_name": "Reshape", "config": {"name": "reshape_135", "trainable": true, "dtype": "float32", "target_shape": [6]}, "inbound_nodes": [[["embedding_98", 0, 0, {}]]]}, {"name": "reshape_136", "class_name": "Reshape", "config": {"name": "reshape_136", "trainable": true, "dtype": "float32", "target_shape": [6]}, "inbound_nodes": [[["embedding_99", 0, 0, {}]]]}, {"name": "reshape_137", "class_name": "Reshape", "config": {"name": "reshape_137", "trainable": true, "dtype": "float32", "target_shape": [6]}, "inbound_nodes": [[["embedding_100", 0, 0, {}]]]}, {"name": "reshape_138", "class_name": "Reshape", "config": {"name": "reshape_138", "trainable": true, "dtype": "float32", "target_shape": [6]}, "inbound_nodes": [[["embedding_101", 0, 0, {}]]]}, {"name": "reshape_139", "class_name": "Reshape", "config": {"name": "reshape_139", "trainable": true, "dtype": "float32", "target_shape": [6]}, "inbound_nodes": [[["embedding_102", 0, 0, {}]]]}, {"name": "reshape_140", "class_name": "Reshape", "config": {"name": "reshape_140", "trainable": true, "dtype": "float32", "target_shape": [6]}, "inbound_nodes": [[["embedding_103", 0, 0, {}]]]}, {"name": "reshape_141", "class_name": "Reshape", "config": {"name": "reshape_141", "trainable": true, "dtype": "float32", "target_shape": [6]}, "inbound_nodes": [[["embedding_104", 0, 0, {}]]]}, {"name": "reshape_142", "class_name": "Reshape", "config": {"name": "reshape_142", "trainable": true, "dtype": "float32", "target_shape": [6]}, "inbound_nodes": [[["embedding_105", 0, 0, {}]]]}, {"name": "reshape_143", "class_name": "Reshape", "config": {"name": "reshape_143", "trainable": true, "dtype": "float32", "target_shape": [6]}, "inbound_nodes": [[["embedding_106", 0, 0, {}]]]}, {"name": "reshape_144", "class_name": "Reshape", "config": {"name": "reshape_144", "trainable": true, "dtype": "float32", "target_shape": [6]}, "inbound_nodes": [[["embedding_107", 0, 0, {}]]]}, {"name": "reshape_145", "class_name": "Reshape", "config": {"name": "reshape_145", "trainable": true, "dtype": "float32", "target_shape": [6]}, "inbound_nodes": [[["embedding_108", 0, 0, {}]]]}, {"name": "reshape_146", "class_name": "Reshape", "config": {"name": "reshape_146", "trainable": true, "dtype": "float32", "target_shape": [6]}, "inbound_nodes": [[["embedding_109", 0, 0, {}]]]}, {"name": "reshape_147", "class_name": "Reshape", "config": {"name": "reshape_147", "trainable": true, "dtype": "float32", "target_shape": [6]}, "inbound_nodes": [[["embedding_110", 0, 0, {}]]]}, {"name": "reshape_148", "class_name": "Reshape", "config": {"name": "reshape_148", "trainable": true, "dtype": "float32", "target_shape": [6]}, "inbound_nodes": [[["embedding_111", 0, 0, {}]]]}, {"name": "reshape_149", "class_name": "Reshape", "config": {"name": "reshape_149", "trainable": true, "dtype": "float32", "target_shape": [6]}, "inbound_nodes": [[["embedding_112", 0, 0, {}]]]}, {"name": "reshape_150", "class_name": "Reshape", "config": {"name": "reshape_150", "trainable": true, "dtype": "float32", "target_shape": [6]}, "inbound_nodes": [[["embedding_113", 0, 0, {}]]]}, {"name": "reshape_151", "class_name": "Reshape", "config": {"name": "reshape_151", "trainable": true, "dtype": "float32", "target_shape": [6]}, "inbound_nodes": [[["embedding_114", 0, 0, {}]]]}, {"name": "reshape_152", "class_name": "Reshape", "config": {"name": "reshape_152", "trainable": true, "dtype": "float32", "target_shape": [6]}, "inbound_nodes": [[["embedding_115", 0, 0, {}]]]}, {"name": "reshape_153", "class_name": "Reshape", "config": {"name": "reshape_153", "trainable": true, "dtype": "float32", "target_shape": [6]}, "inbound_nodes": [[["embedding_116", 0, 0, {}]]]}, {"name": "reshape_154", "class_name": "Reshape", "config": {"name": "reshape_154", "trainable": true, "dtype": "float32", "target_shape": [6]}, "inbound_nodes": [[["embedding_117", 0, 0, {}]]]}, {"name": "reshape_155", "class_name": "Reshape", "config": {"name": "reshape_155", "trainable": true, "dtype": "float32", "target_shape": [6]}, "inbound_nodes": [[["embedding_118", 0, 0, {}]]]}, {"name": "reshape_156", "class_name": "Reshape", "config": {"name": "reshape_156", "trainable": true, "dtype": "float32", "target_shape": [6]}, "inbound_nodes": [[["embedding_119", 0, 0, {}]]]}, {"name": "reshape_157", "class_name": "Reshape", "config": {"name": "reshape_157", "trainable": true, "dtype": "float32", "target_shape": [6]}, "inbound_nodes": [[["embedding_120", 0, 0, {}]]]}, {"name": "reshape_158", "class_name": "Reshape", "config": {"name": "reshape_158", "trainable": true, "dtype": "float32", "target_shape": [6]}, "inbound_nodes": [[["embedding_121", 0, 0, {}]]]}, {"name": "reshape_159", "class_name": "Reshape", "config": {"name": "reshape_159", "trainable": true, "dtype": "float32", "target_shape": [6]}, "inbound_nodes": [[["embedding_122", 0, 0, {}]]]}, {"name": "reshape_160", "class_name": "Reshape", "config": {"name": "reshape_160", "trainable": true, "dtype": "float32", "target_shape": [6]}, "inbound_nodes": [[["embedding_123", 0, 0, {}]]]}, {"name": "reshape_161", "class_name": "Reshape", "config": {"name": "reshape_161", "trainable": true, "dtype": "float32", "target_shape": [6]}, "inbound_nodes": [[["embedding_124", 0, 0, {}]]]}, {"name": "reshape_162", "class_name": "Reshape", "config": {"name": "reshape_162", "trainable": true, "dtype": "float32", "target_shape": [6]}, "inbound_nodes": [[["embedding_125", 0, 0, {}]]]}, {"name": "reshape_163", "class_name": "Reshape", "config": {"name": "reshape_163", "trainable": true, "dtype": "float32", "target_shape": [6]}, "inbound_nodes": [[["embedding_126", 0, 0, {}]]]}, {"name": "reshape_164", "class_name": "Reshape", "config": {"name": "reshape_164", "trainable": true, "dtype": "float32", "target_shape": [6]}, "inbound_nodes": [[["embedding_127", 0, 0, {}]]]}, {"name": "reshape_165", "class_name": "Reshape", "config": {"name": "reshape_165", "trainable": true, "dtype": "float32", "target_shape": [6]}, "inbound_nodes": [[["embedding_128", 0, 0, {}]]]}, {"name": "reshape_166", "class_name": "Reshape", "config": {"name": "reshape_166", "trainable": true, "dtype": "float32", "target_shape": [6]}, "inbound_nodes": [[["embedding_129", 0, 0, {}]]]}, {"name": "reshape_167", "class_name": "Reshape", "config": {"name": "reshape_167", "trainable": true, "dtype": "float32", "target_shape": [6]}, "inbound_nodes": [[["embedding_130", 0, 0, {}]]]}, {"name": "reshape_168", "class_name": "Reshape", "config": {"name": "reshape_168", "trainable": true, "dtype": "float32", "target_shape": [6]}, "inbound_nodes": [[["embedding_131", 0, 0, {}]]]}, {"name": "reshape_169", "class_name": "Reshape", "config": {"name": "reshape_169", "trainable": true, "dtype": "float32", "target_shape": [6]}, "inbound_nodes": [[["embedding_132", 0, 0, {}]]]}, {"name": "reshape_170", "class_name": "Reshape", "config": {"name": "reshape_170", "trainable": true, "dtype": "float32", "target_shape": [6]}, "inbound_nodes": [[["embedding_133", 0, 0, {}]]]}, {"name": "reshape_171", "class_name": "Reshape", "config": {"name": "reshape_171", "trainable": true, "dtype": "float32", "target_shape": [6]}, "inbound_nodes": [[["embedding_134", 0, 0, {}]]]}, {"name": "reshape_172", "class_name": "Reshape", "config": {"name": "reshape_172", "trainable": true, "dtype": "float32", "target_shape": [6]}, "inbound_nodes": [[["embedding_135", 0, 0, {}]]]}, {"name": "reshape_173", "class_name": "Reshape", "config": {"name": "reshape_173", "trainable": true, "dtype": "float32", "target_shape": [6]}, "inbound_nodes": [[["embedding_136", 0, 0, {}]]]}, {"name": "reshape_174", "class_name": "Reshape", "config": {"name": "reshape_174", "trainable": true, "dtype": "float32", "target_shape": [6]}, "inbound_nodes": [[["embedding_137", 0, 0, {}]]]}, {"name": "reshape_175", "class_name": "Reshape", "config": {"name": "reshape_175", "trainable": true, "dtype": "float32", "target_shape": [6]}, "inbound_nodes": [[["embedding_138", 0, 0, {}]]]}, {"name": "reshape_176", "class_name": "Reshape", "config": {"name": "reshape_176", "trainable": true, "dtype": "float32", "target_shape": [6]}, "inbound_nodes": [[["embedding_139", 0, 0, {}]]]}, {"name": "reshape_177", "class_name": "Reshape", "config": {"name": "reshape_177", "trainable": true, "dtype": "float32", "target_shape": [6]}, "inbound_nodes": [[["embedding_140", 0, 0, {}]]]}, {"name": "reshape_178", "class_name": "Reshape", "config": {"name": "reshape_178", "trainable": true, "dtype": "float32", "target_shape": [6]}, "inbound_nodes": [[["embedding_141", 0, 0, {}]]]}, {"name": "reshape_179", "class_name": "Reshape", "config": {"name": "reshape_179", "trainable": true, "dtype": "float32", "target_shape": [6]}, "inbound_nodes": [[["embedding_142", 0, 0, {}]]]}, {"name": "reshape_180", "class_name": "Reshape", "config": {"name": "reshape_180", "trainable": true, "dtype": "float32", "target_shape": [6]}, "inbound_nodes": [[["embedding_143", 0, 0, {}]]]}, {"name": "reshape_181", "class_name": "Reshape", "config": {"name": "reshape_181", "trainable": true, "dtype": "float32", "target_shape": [6]}, "inbound_nodes": [[["embedding_144", 0, 0, {}]]]}, {"name": "reshape_182", "class_name": "Reshape", "config": {"name": "reshape_182", "trainable": true, "dtype": "float32", "target_shape": [6]}, "inbound_nodes": [[["embedding_145", 0, 0, {}]]]}, {"name": "reshape_183", "class_name": "Reshape", "config": {"name": "reshape_183", "trainable": true, "dtype": "float32", "target_shape": [6]}, "inbound_nodes": [[["embedding_146", 0, 0, {}]]]}, {"name": "reshape_184", "class_name": "Reshape", "config": {"name": "reshape_184", "trainable": true, "dtype": "float32", "target_shape": [6]}, "inbound_nodes": [[["embedding_147", 0, 0, {}]]]}, {"name": "reshape_185", "class_name": "Reshape", "config": {"name": "reshape_185", "trainable": true, "dtype": "float32", "target_shape": [6]}, "inbound_nodes": [[["embedding_148", 0, 0, {}]]]}, {"name": "reshape_186", "class_name": "Reshape", "config": {"name": "reshape_186", "trainable": true, "dtype": "float32", "target_shape": [6]}, "inbound_nodes": [[["embedding_149", 0, 0, {}]]]}, {"name": "reshape_187", "class_name": "Reshape", "config": {"name": "reshape_187", "trainable": true, "dtype": "float32", "target_shape": [6]}, "inbound_nodes": [[["embedding_150", 0, 0, {}]]]}, {"name": "reshape_188", "class_name": "Reshape", "config": {"name": "reshape_188", "trainable": true, "dtype": "float32", "target_shape": [6]}, "inbound_nodes": [[["embedding_151", 0, 0, {}]]]}, {"name": "reshape_189", "class_name": "Reshape", "config": {"name": "reshape_189", "trainable": true, "dtype": "float32", "target_shape": [6]}, "inbound_nodes": [[["embedding_152", 0, 0, {}]]]}, {"name": "reshape_190", "class_name": "Reshape", "config": {"name": "reshape_190", "trainable": true, "dtype": "float32", "target_shape": [6]}, "inbound_nodes": [[["embedding_153", 0, 0, {}]]]}, {"name": "reshape_191", "class_name": "Reshape", "config": {"name": "reshape_191", "trainable": true, "dtype": "float32", "target_shape": [6]}, "inbound_nodes": [[["embedding_154", 0, 0, {}]]]}, {"name": "reshape_192", "class_name": "Reshape", "config": {"name": "reshape_192", "trainable": true, "dtype": "float32", "target_shape": [6]}, "inbound_nodes": [[["embedding_155", 0, 0, {}]]]}, {"name": "reshape_193", "class_name": "Reshape", "config": {"name": "reshape_193", "trainable": true, "dtype": "float32", "target_shape": [6]}, "inbound_nodes": [[["embedding_156", 0, 0, {}]]]}, {"name": "reshape_194", "class_name": "Reshape", "config": {"name": "reshape_194", "trainable": true, "dtype": "float32", "target_shape": [6]}, "inbound_nodes": [[["embedding_157", 0, 0, {}]]]}, {"name": "reshape_195", "class_name": "Reshape", "config": {"name": "reshape_195", "trainable": true, "dtype": "float32", "target_shape": [6]}, "inbound_nodes": [[["embedding_158", 0, 0, {}]]]}, {"name": "reshape_196", "class_name": "Reshape", "config": {"name": "reshape_196", "trainable": true, "dtype": "float32", "target_shape": [6]}, "inbound_nodes": [[["embedding_159", 0, 0, {}]]]}, {"name": "reshape_197", "class_name": "Reshape", "config": {"name": "reshape_197", "trainable": true, "dtype": "float32", "target_shape": [6]}, "inbound_nodes": [[["embedding_160", 0, 0, {}]]]}, {"name": "reshape_198", "class_name": "Reshape", "config": {"name": "reshape_198", "trainable": true, "dtype": "float32", "target_shape": [6]}, "inbound_nodes": [[["embedding_161", 0, 0, {}]]]}, {"name": "reshape_199", "class_name": "Reshape", "config": {"name": "reshape_199", "trainable": true, "dtype": "float32", "target_shape": [6]}, "inbound_nodes": [[["embedding_162", 0, 0, {}]]]}, {"name": "reshape_200", "class_name": "Reshape", "config": {"name": "reshape_200", "trainable": true, "dtype": "float32", "target_shape": [6]}, "inbound_nodes": [[["embedding_163", 0, 0, {}]]]}, {"name": "reshape_201", "class_name": "Reshape", "config": {"name": "reshape_201", "trainable": true, "dtype": "float32", "target_shape": [6]}, "inbound_nodes": [[["embedding_164", 0, 0, {}]]]}, {"name": "reshape_202", "class_name": "Reshape", "config": {"name": "reshape_202", "trainable": true, "dtype": "float32", "target_shape": [6]}, "inbound_nodes": [[["embedding_165", 0, 0, {}]]]}, {"name": "reshape_203", "class_name": "Reshape", "config": {"name": "reshape_203", "trainable": true, "dtype": "float32", "target_shape": [6]}, "inbound_nodes": [[["embedding_166", 0, 0, {}]]]}, {"name": "reshape_204", "class_name": "Reshape", "config": {"name": "reshape_204", "trainable": true, "dtype": "float32", "target_shape": [6]}, "inbound_nodes": [[["embedding_167", 0, 0, {}]]]}, {"name": "reshape_205", "class_name": "Reshape", "config": {"name": "reshape_205", "trainable": true, "dtype": "float32", "target_shape": [6]}, "inbound_nodes": [[["embedding_168", 0, 0, {}]]]}, {"name": "reshape_206", "class_name": "Reshape", "config": {"name": "reshape_206", "trainable": true, "dtype": "float32", "target_shape": [6]}, "inbound_nodes": [[["embedding_169", 0, 0, {}]]]}, {"name": "reshape_207", "class_name": "Reshape", "config": {"name": "reshape_207", "trainable": true, "dtype": "float32", "target_shape": [6]}, "inbound_nodes": [[["embedding_170", 0, 0, {}]]]}, {"name": "reshape_208", "class_name": "Reshape", "config": {"name": "reshape_208", "trainable": true, "dtype": "float32", "target_shape": [6]}, "inbound_nodes": [[["embedding_171", 0, 0, {}]]]}, {"name": "reshape_209", "class_name": "Reshape", "config": {"name": "reshape_209", "trainable": true, "dtype": "float32", "target_shape": [6]}, "inbound_nodes": [[["embedding_172", 0, 0, {}]]]}, {"name": "reshape_210", "class_name": "Reshape", "config": {"name": "reshape_210", "trainable": true, "dtype": "float32", "target_shape": [6]}, "inbound_nodes": [[["embedding_173", 0, 0, {}]]]}, {"name": "reshape_211", "class_name": "Reshape", "config": {"name": "reshape_211", "trainable": true, "dtype": "float32", "target_shape": [6]}, "inbound_nodes": [[["embedding_174", 0, 0, {}]]]}, {"name": "reshape_212", "class_name": "Reshape", "config": {"name": "reshape_212", "trainable": true, "dtype": "float32", "target_shape": [6]}, "inbound_nodes": [[["embedding_175", 0, 0, {}]]]}, {"name": "reshape_213", "class_name": "Reshape", "config": {"name": "reshape_213", "trainable": true, "dtype": "float32", "target_shape": [6]}, "inbound_nodes": [[["embedding_176", 0, 0, {}]]]}, {"name": "reshape_214", "class_name": "Reshape", "config": {"name": "reshape_214", "trainable": true, "dtype": "float32", "target_shape": [6]}, "inbound_nodes": [[["embedding_177", 0, 0, {}]]]}, {"name": "reshape_215", "class_name": "Reshape", "config": {"name": "reshape_215", "trainable": true, "dtype": "float32", "target_shape": [6]}, "inbound_nodes": [[["embedding_178", 0, 0, {}]]]}, {"name": "reshape_216", "class_name": "Reshape", "config": {"name": "reshape_216", "trainable": true, "dtype": "float32", "target_shape": [6]}, "inbound_nodes": [[["embedding_179", 0, 0, {}]]]}, {"name": "reshape_217", "class_name": "Reshape", "config": {"name": "reshape_217", "trainable": true, "dtype": "float32", "target_shape": [6]}, "inbound_nodes": [[["embedding_180", 0, 0, {}]]]}, {"name": "reshape_218", "class_name": "Reshape", "config": {"name": "reshape_218", "trainable": true, "dtype": "float32", "target_shape": [6]}, "inbound_nodes": [[["embedding_181", 0, 0, {}]]]}, {"name": "reshape_219", "class_name": "Reshape", "config": {"name": "reshape_219", "trainable": true, "dtype": "float32", "target_shape": [6]}, "inbound_nodes": [[["embedding_182", 0, 0, {}]]]}, {"name": "reshape_220", "class_name": "Reshape", "config": {"name": "reshape_220", "trainable": true, "dtype": "float32", "target_shape": [6]}, "inbound_nodes": [[["embedding_183", 0, 0, {}]]]}, {"name": "reshape_221", "class_name": "Reshape", "config": {"name": "reshape_221", "trainable": true, "dtype": "float32", "target_shape": [6]}, "inbound_nodes": [[["embedding_184", 0, 0, {}]]]}, {"name": "reshape_222", "class_name": "Reshape", "config": {"name": "reshape_222", "trainable": true, "dtype": "float32", "target_shape": [6]}, "inbound_nodes": [[["embedding_185", 0, 0, {}]]]}, {"name": "reshape_223", "class_name": "Reshape", "config": {"name": "reshape_223", "trainable": true, "dtype": "float32", "target_shape": [6]}, "inbound_nodes": [[["embedding_186", 0, 0, {}]]]}, {"name": "reshape_224", "class_name": "Reshape", "config": {"name": "reshape_224", "trainable": true, "dtype": "float32", "target_shape": [6]}, "inbound_nodes": [[["embedding_187", 0, 0, {}]]]}, {"name": "reshape_225", "class_name": "Reshape", "config": {"name": "reshape_225", "trainable": true, "dtype": "float32", "target_shape": [6]}, "inbound_nodes": [[["embedding_188", 0, 0, {}]]]}, {"name": "reshape_226", "class_name": "Reshape", "config": {"name": "reshape_226", "trainable": true, "dtype": "float32", "target_shape": [6]}, "inbound_nodes": [[["embedding_189", 0, 0, {}]]]}, {"name": "reshape_227", "class_name": "Reshape", "config": {"name": "reshape_227", "trainable": true, "dtype": "float32", "target_shape": [6]}, "inbound_nodes": [[["embedding_190", 0, 0, {}]]]}, {"name": "reshape_228", "class_name": "Reshape", "config": {"name": "reshape_228", "trainable": true, "dtype": "float32", "target_shape": [6]}, "inbound_nodes": [[["embedding_191", 0, 0, {}]]]}, {"name": "reshape_229", "class_name": "Reshape", "config": {"name": "reshape_229", "trainable": true, "dtype": "float32", "target_shape": [6]}, "inbound_nodes": [[["embedding_192", 0, 0, {}]]]}, {"name": "reshape_230", "class_name": "Reshape", "config": {"name": "reshape_230", "trainable": true, "dtype": "float32", "target_shape": [6]}, "inbound_nodes": [[["embedding_193", 0, 0, {}]]]}, {"name": "reshape_231", "class_name": "Reshape", "config": {"name": "reshape_231", "trainable": true, "dtype": "float32", "target_shape": [6]}, "inbound_nodes": [[["embedding_194", 0, 0, {}]]]}, {"name": "reshape_232", "class_name": "Reshape", "config": {"name": "reshape_232", "trainable": true, "dtype": "float32", "target_shape": [6]}, "inbound_nodes": [[["embedding_195", 0, 0, {}]]]}, {"name": "reshape_233", "class_name": "Reshape", "config": {"name": "reshape_233", "trainable": true, "dtype": "float32", "target_shape": [6]}, "inbound_nodes": [[["embedding_196", 0, 0, {}]]]}, {"name": "reshape_234", "class_name": "Reshape", "config": {"name": "reshape_234", "trainable": true, "dtype": "float32", "target_shape": [6]}, "inbound_nodes": [[["embedding_197", 0, 0, {}]]]}, {"name": "reshape_235", "class_name": "Reshape", "config": {"name": "reshape_235", "trainable": true, "dtype": "float32", "target_shape": [6]}, "inbound_nodes": [[["embedding_198", 0, 0, {}]]]}, {"name": "reshape_236", "class_name": "Reshape", "config": {"name": "reshape_236", "trainable": true, "dtype": "float32", "target_shape": [6]}, "inbound_nodes": [[["embedding_199", 0, 0, {}]]]}, {"name": "reshape_237", "class_name": "Reshape", "config": {"name": "reshape_237", "trainable": true, "dtype": "float32", "target_shape": [6]}, "inbound_nodes": [[["embedding_200", 0, 0, {}]]]}, {"name": "reshape_238", "class_name": "Reshape", "config": {"name": "reshape_238", "trainable": true, "dtype": "float32", "target_shape": [6]}, "inbound_nodes": [[["embedding_201", 0, 0, {}]]]}, {"name": "reshape_239", "class_name": "Reshape", "config": {"name": "reshape_239", "trainable": true, "dtype": "float32", "target_shape": [6]}, "inbound_nodes": [[["embedding_202", 0, 0, {}]]]}, {"name": "reshape_240", "class_name": "Reshape", "config": {"name": "reshape_240", "trainable": true, "dtype": "float32", "target_shape": [6]}, "inbound_nodes": [[["embedding_203", 0, 0, {}]]]}, {"name": "reshape_241", "class_name": "Reshape", "config": {"name": "reshape_241", "trainable": true, "dtype": "float32", "target_shape": [6]}, "inbound_nodes": [[["embedding_204", 0, 0, {}]]]}, {"name": "reshape_242", "class_name": "Reshape", "config": {"name": "reshape_242", "trainable": true, "dtype": "float32", "target_shape": [6]}, "inbound_nodes": [[["embedding_205", 0, 0, {}]]]}, {"name": "reshape_243", "class_name": "Reshape", "config": {"name": "reshape_243", "trainable": true, "dtype": "float32", "target_shape": [6]}, "inbound_nodes": [[["embedding_206", 0, 0, {}]]]}, {"name": "reshape_244", "class_name": "Reshape", "config": {"name": "reshape_244", "trainable": true, "dtype": "float32", "target_shape": [6]}, "inbound_nodes": [[["embedding_207", 0, 0, {}]]]}, {"name": "reshape_245", "class_name": "Reshape", "config": {"name": "reshape_245", "trainable": true, "dtype": "float32", "target_shape": [6]}, "inbound_nodes": [[["embedding_208", 0, 0, {}]]]}, {"name": "reshape_246", "class_name": "Reshape", "config": {"name": "reshape_246", "trainable": true, "dtype": "float32", "target_shape": [6]}, "inbound_nodes": [[["embedding_209", 0, 0, {}]]]}, {"name": "reshape_247", "class_name": "Reshape", "config": {"name": "reshape_247", "trainable": true, "dtype": "float32", "target_shape": [6]}, "inbound_nodes": [[["embedding_210", 0, 0, {}]]]}, {"name": "reshape_248", "class_name": "Reshape", "config": {"name": "reshape_248", "trainable": true, "dtype": "float32", "target_shape": [6]}, "inbound_nodes": [[["embedding_211", 0, 0, {}]]]}, {"name": "reshape_249", "class_name": "Reshape", "config": {"name": "reshape_249", "trainable": true, "dtype": "float32", "target_shape": [6]}, "inbound_nodes": [[["embedding_212", 0, 0, {}]]]}, {"name": "reshape_250", "class_name": "Reshape", "config": {"name": "reshape_250", "trainable": true, "dtype": "float32", "target_shape": [6]}, "inbound_nodes": [[["embedding_213", 0, 0, {}]]]}, {"name": "reshape_251", "class_name": "Reshape", "config": {"name": "reshape_251", "trainable": true, "dtype": "float32", "target_shape": [6]}, "inbound_nodes": [[["embedding_214", 0, 0, {}]]]}, {"name": "reshape_252", "class_name": "Reshape", "config": {"name": "reshape_252", "trainable": true, "dtype": "float32", "target_shape": [6]}, "inbound_nodes": [[["embedding_215", 0, 0, {}]]]}, {"name": "reshape_253", "class_name": "Reshape", "config": {"name": "reshape_253", "trainable": true, "dtype": "float32", "target_shape": [6]}, "inbound_nodes": [[["embedding_216", 0, 0, {}]]]}, {"name": "reshape_254", "class_name": "Reshape", "config": {"name": "reshape_254", "trainable": true, "dtype": "float32", "target_shape": [6]}, "inbound_nodes": [[["embedding_217", 0, 0, {}]]]}, {"name": "reshape_255", "class_name": "Reshape", "config": {"name": "reshape_255", "trainable": true, "dtype": "float32", "target_shape": [6]}, "inbound_nodes": [[["embedding_218", 0, 0, {}]]]}, {"name": "reshape_256", "class_name": "Reshape", "config": {"name": "reshape_256", "trainable": true, "dtype": "float32", "target_shape": [6]}, "inbound_nodes": [[["embedding_219", 0, 0, {}]]]}, {"name": "reshape_257", "class_name": "Reshape", "config": {"name": "reshape_257", "trainable": true, "dtype": "float32", "target_shape": [6]}, "inbound_nodes": [[["embedding_220", 0, 0, {}]]]}, {"name": "reshape_258", "class_name": "Reshape", "config": {"name": "reshape_258", "trainable": true, "dtype": "float32", "target_shape": [6]}, "inbound_nodes": [[["embedding_221", 0, 0, {}]]]}, {"name": "reshape_259", "class_name": "Reshape", "config": {"name": "reshape_259", "trainable": true, "dtype": "float32", "target_shape": [6]}, "inbound_nodes": [[["embedding_222", 0, 0, {}]]]}, {"name": "reshape_260", "class_name": "Reshape", "config": {"name": "reshape_260", "trainable": true, "dtype": "float32", "target_shape": [6]}, "inbound_nodes": [[["embedding_223", 0, 0, {}]]]}, {"name": "reshape_261", "class_name": "Reshape", "config": {"name": "reshape_261", "trainable": true, "dtype": "float32", "target_shape": [6]}, "inbound_nodes": [[["embedding_224", 0, 0, {}]]]}, {"name": "reshape_262", "class_name": "Reshape", "config": {"name": "reshape_262", "trainable": true, "dtype": "float32", "target_shape": [6]}, "inbound_nodes": [[["embedding_225", 0, 0, {}]]]}, {"name": "reshape_263", "class_name": "Reshape", "config": {"name": "reshape_263", "trainable": true, "dtype": "float32", "target_shape": [6]}, "inbound_nodes": [[["embedding_226", 0, 0, {}]]]}, {"name": "reshape_264", "class_name": "Reshape", "config": {"name": "reshape_264", "trainable": true, "dtype": "float32", "target_shape": [6]}, "inbound_nodes": [[["embedding_227", 0, 0, {}]]]}, {"name": "reshape_265", "class_name": "Reshape", "config": {"name": "reshape_265", "trainable": true, "dtype": "float32", "target_shape": [6]}, "inbound_nodes": [[["embedding_228", 0, 0, {}]]]}, {"name": "reshape_266", "class_name": "Reshape", "config": {"name": "reshape_266", "trainable": true, "dtype": "float32", "target_shape": [6]}, "inbound_nodes": [[["embedding_229", 0, 0, {}]]]}, {"name": "reshape_267", "class_name": "Reshape", "config": {"name": "reshape_267", "trainable": true, "dtype": "float32", "target_shape": [6]}, "inbound_nodes": [[["embedding_230", 0, 0, {}]]]}, {"name": "reshape_268", "class_name": "Reshape", "config": {"name": "reshape_268", "trainable": true, "dtype": "float32", "target_shape": [6]}, "inbound_nodes": [[["embedding_231", 0, 0, {}]]]}, {"name": "reshape_269", "class_name": "Reshape", "config": {"name": "reshape_269", "trainable": true, "dtype": "float32", "target_shape": [6]}, "inbound_nodes": [[["embedding_232", 0, 0, {}]]]}, {"name": "reshape_270", "class_name": "Reshape", "config": {"name": "reshape_270", "trainable": true, "dtype": "float32", "target_shape": [6]}, "inbound_nodes": [[["embedding_233", 0, 0, {}]]]}, {"name": "reshape_271", "class_name": "Reshape", "config": {"name": "reshape_271", "trainable": true, "dtype": "float32", "target_shape": [6]}, "inbound_nodes": [[["embedding_234", 0, 0, {}]]]}, {"name": "reshape_272", "class_name": "Reshape", "config": {"name": "reshape_272", "trainable": true, "dtype": "float32", "target_shape": [6]}, "inbound_nodes": [[["embedding_235", 0, 0, {}]]]}, {"name": "reshape_273", "class_name": "Reshape", "config": {"name": "reshape_273", "trainable": true, "dtype": "float32", "target_shape": [6]}, "inbound_nodes": [[["embedding_236", 0, 0, {}]]]}, {"name": "reshape_274", "class_name": "Reshape", "config": {"name": "reshape_274", "trainable": true, "dtype": "float32", "target_shape": [6]}, "inbound_nodes": [[["embedding_237", 0, 0, {}]]]}, {"name": "reshape_275", "class_name": "Reshape", "config": {"name": "reshape_275", "trainable": true, "dtype": "float32", "target_shape": [6]}, "inbound_nodes": [[["embedding_238", 0, 0, {}]]]}, {"name": "reshape_276", "class_name": "Reshape", "config": {"name": "reshape_276", "trainable": true, "dtype": "float32", "target_shape": [6]}, "inbound_nodes": [[["embedding_239", 0, 0, {}]]]}, {"name": "embedding", "class_name": "Concatenate", "config": {"name": "embedding", "trainable": true, "dtype": "float32", "axis": -1}, "inbound_nodes": [[["reshape_37", 0, 0, {}], ["reshape_38", 0, 0, {}], ["reshape_39", 0, 0, {}], ["reshape_40", 0, 0, {}], ["reshape_41", 0, 0, {}], ["reshape_42", 0, 0, {}], ["reshape_43", 0, 0, {}], ["reshape_44", 0, 0, {}], ["reshape_45", 0, 0, {}], ["reshape_46", 0, 0, {}], ["reshape_47", 0, 0, {}], ["reshape_48", 0, 0, {}], ["reshape_49", 0, 0, {}], ["reshape_50", 0, 0, {}], ["reshape_51", 0, 0, {}], ["reshape_52", 0, 0, {}], ["reshape_53", 0, 0, {}], ["reshape_54", 0, 0, {}], ["reshape_55", 0, 0, {}], ["reshape_56", 0, 0, {}], ["reshape_57", 0, 0, {}], ["reshape_58", 0, 0, {}], ["reshape_59", 0, 0, {}], ["reshape_60", 0, 0, {}], ["reshape_61", 0, 0, {}], ["reshape_62", 0, 0, {}], ["reshape_63", 0, 0, {}], ["reshape_64", 0, 0, {}], ["reshape_65", 0, 0, {}], ["reshape_66", 0, 0, {}], ["reshape_67", 0, 0, {}], ["reshape_68", 0, 0, {}], ["reshape_69", 0, 0, {}], ["reshape_70", 0, 0, {}], ["reshape_71", 0, 0, {}], ["reshape_72", 0, 0, {}], ["reshape_73", 0, 0, {}], ["reshape_74", 0, 0, {}], ["reshape_75", 0, 0, {}], ["reshape_76", 0, 0, {}], ["reshape_77", 0, 0, {}], ["reshape_78", 0, 0, {}], ["reshape_79", 0, 0, {}], ["reshape_80", 0, 0, {}], ["reshape_81", 0, 0, {}], ["reshape_82", 0, 0, {}], ["reshape_83", 0, 0, {}], ["reshape_84", 0, 0, {}], ["reshape_85", 0, 0, {}], ["reshape_86", 0, 0, {}], ["reshape_87", 0, 0, {}], ["reshape_88", 0, 0, {}], ["reshape_89", 0, 0, {}], ["reshape_90", 0, 0, {}], ["reshape_91", 0, 0, {}], ["reshape_92", 0, 0, {}], ["reshape_93", 0, 0, {}], ["reshape_94", 0, 0, {}], ["reshape_95", 0, 0, {}], ["reshape_96", 0, 0, {}], ["reshape_97", 0, 0, {}], ["reshape_98", 0, 0, {}], ["reshape_99", 0, 0, {}], ["reshape_100", 0, 0, {}], ["reshape_101", 0, 0, {}], ["reshape_102", 0, 0, {}], ["reshape_103", 0, 0, {}], ["reshape_104", 0, 0, {}], ["reshape_105", 0, 0, {}], ["reshape_106", 0, 0, {}], ["reshape_107", 0, 0, {}], ["reshape_108", 0, 0, {}], ["reshape_109", 0, 0, {}], ["reshape_110", 0, 0, {}], ["reshape_111", 0, 0, {}], ["reshape_112", 0, 0, {}], ["reshape_113", 0, 0, {}], ["reshape_114", 0, 0, {}], ["reshape_115", 0, 0, {}], ["reshape_116", 0, 0, {}], ["reshape_117", 0, 0, {}], ["reshape_118", 0, 0, {}], ["reshape_119", 0, 0, {}], ["reshape_120", 0, 0, {}], ["reshape_121", 0, 0, {}], ["reshape_122", 0, 0, {}], ["reshape_123", 0, 0, {}], ["reshape_124", 0, 0, {}], ["reshape_125", 0, 0, {}], ["reshape_126", 0, 0, {}], ["reshape_127", 0, 0, {}], ["reshape_128", 0, 0, {}], ["reshape_129", 0, 0, {}], ["reshape_130", 0, 0, {}], ["reshape_131", 0, 0, {}], ["reshape_132", 0, 0, {}], ["reshape_133", 0, 0, {}], ["reshape_134", 0, 0, {}], ["reshape_135", 0, 0, {}], ["reshape_136", 0, 0, {}], ["reshape_137", 0, 0, {}], ["reshape_138", 0, 0, {}], ["reshape_139", 0, 0, {}], ["reshape_140", 0, 0, {}], ["reshape_141", 0, 0, {}], ["reshape_142", 0, 0, {}], ["reshape_143", 0, 0, {}], ["reshape_144", 0, 0, {}], ["reshape_145", 0, 0, {}], ["reshape_146", 0, 0, {}], ["reshape_147", 0, 0, {}], ["reshape_148", 0, 0, {}], ["reshape_149", 0, 0, {}], ["reshape_150", 0, 0, {}], ["reshape_151", 0, 0, {}], ["reshape_152", 0, 0, {}], ["reshape_153", 0, 0, {}], ["reshape_154", 0, 0, {}], ["reshape_155", 0, 0, {}], ["reshape_156", 0, 0, {}], ["reshape_157", 0, 0, {}], ["reshape_158", 0, 0, {}], ["reshape_159", 0, 0, {}], ["reshape_160", 0, 0, {}], ["reshape_161", 0, 0, {}], ["reshape_162", 0, 0, {}], ["reshape_163", 0, 0, {}], ["reshape_164", 0, 0, {}], ["reshape_165", 0, 0, {}], ["reshape_166", 0, 0, {}], ["reshape_167", 0, 0, {}], ["reshape_168", 0, 0, {}], ["reshape_169", 0, 0, {}], ["reshape_170", 0, 0, {}], ["reshape_171", 0, 0, {}], ["reshape_172", 0, 0, {}], ["reshape_173", 0, 0, {}], ["reshape_174", 0, 0, {}], ["reshape_175", 0, 0, {}], ["reshape_176", 0, 0, {}], ["reshape_177", 0, 0, {}], ["reshape_178", 0, 0, {}], ["reshape_179", 0, 0, {}], ["reshape_180", 0, 0, {}], ["reshape_181", 0, 0, {}], ["reshape_182", 0, 0, {}], ["reshape_183", 0, 0, {}], ["reshape_184", 0, 0, {}], ["reshape_185", 0, 0, {}], ["reshape_186", 0, 0, {}], ["reshape_187", 0, 0, {}], ["reshape_188", 0, 0, {}], ["reshape_189", 0, 0, {}], ["reshape_190", 0, 0, {}], ["reshape_191", 0, 0, {}], ["reshape_192", 0, 0, {}], ["reshape_193", 0, 0, {}], ["reshape_194", 0, 0, {}], ["reshape_195", 0, 0, {}], ["reshape_196", 0, 0, {}], ["reshape_197", 0, 0, {}], ["reshape_198", 0, 0, {}], ["reshape_199", 0, 0, {}], ["reshape_200", 0, 0, {}], ["reshape_201", 0, 0, {}], ["reshape_202", 0, 0, {}], ["reshape_203", 0, 0, {}], ["reshape_204", 0, 0, {}], ["reshape_205", 0, 0, {}], ["reshape_206", 0, 0, {}], ["reshape_207", 0, 0, {}], ["reshape_208", 0, 0, {}], ["reshape_209", 0, 0, {}], ["reshape_210", 0, 0, {}], ["reshape_211", 0, 0, {}], ["reshape_212", 0, 0, {}], ["reshape_213", 0, 0, {}], ["reshape_214", 0, 0, {}], ["reshape_215", 0, 0, {}], ["reshape_216", 0, 0, {}], ["reshape_217", 0, 0, {}], ["reshape_218", 0, 0, {}], ["reshape_219", 0, 0, {}], ["reshape_220", 0, 0, {}], ["reshape_221", 0, 0, {}], ["reshape_222", 0, 0, {}], ["reshape_223", 0, 0, {}], ["reshape_224", 0, 0, {}], ["reshape_225", 0, 0, {}], ["reshape_226", 0, 0, {}], ["reshape_227", 0, 0, {}], ["reshape_228", 0, 0, {}], ["reshape_229", 0, 0, {}], ["reshape_230", 0, 0, {}], ["reshape_231", 0, 0, {}], ["reshape_232", 0, 0, {}], ["reshape_233", 0, 0, {}], ["reshape_234", 0, 0, {}], ["reshape_235", 0, 0, {}], ["reshape_236", 0, 0, {}], ["reshape_237", 0, 0, {}], ["reshape_238", 0, 0, {}], ["reshape_239", 0, 0, {}], ["reshape_240", 0, 0, {}], ["reshape_241", 0, 0, {}], ["reshape_242", 0, 0, {}], ["reshape_243", 0, 0, {}], ["reshape_244", 0, 0, {}], ["reshape_245", 0, 0, {}], ["reshape_246", 0, 0, {}], ["reshape_247", 0, 0, {}], ["reshape_248", 0, 0, {}], ["reshape_249", 0, 0, {}], ["reshape_250", 0, 0, {}], ["reshape_251", 0, 0, {}], ["reshape_252", 0, 0, {}], ["reshape_253", 0, 0, {}], ["reshape_254", 0, 0, {}], ["reshape_255", 0, 0, {}], ["reshape_256", 0, 0, {}], ["reshape_257", 0, 0, {}], ["reshape_258", 0, 0, {}], ["reshape_259", 0, 0, {}], ["reshape_260", 0, 0, {}], ["reshape_261", 0, 0, {}], ["reshape_262", 0, 0, {}], ["reshape_263", 0, 0, {}], ["reshape_264", 0, 0, {}], ["reshape_265", 0, 0, {}], ["reshape_266", 0, 0, {}], ["reshape_267", 0, 0, {}], ["reshape_268", 0, 0, {}], ["reshape_269", 0, 0, {}], ["reshape_270", 0, 0, {}], ["reshape_271", 0, 0, {}], ["reshape_272", 0, 0, {}], ["reshape_273", 0, 0, {}], ["reshape_274", 0, 0, {}], ["reshape_275", 0, 0, {}], ["reshape_276", 0, 0, {}]]]}, {"name": "fully-connected-1", "class_name": "Dense", "config": {"name": "fully-connected-1", "trainable": true, "dtype": "float32", "units": 1000, "activation": "linear", "use_bias": true, "kernel_initializer": {"class_name": "RandomUniform", "config": {"minval": -0.05, "maxval": 0.05, "seed": null}}, "bias_initializer": {"class_name": "Zeros", "config": {}}, "kernel_regularizer": null, "bias_regularizer": null, "activity_regularizer": null, "kernel_constraint": null, "bias_constraint": null}, "inbound_nodes": [[["embedding", 0, 0, {}]]]}, {"name": "activation_4", "class_name": "Activation", "config": {"name": "activation_4", "trainable": true, "dtype": "float32", "activation": "relu"}, "inbound_nodes": [[["fully-connected-1", 0, 0, {}]]]}, {"name": "fully-connected-2", "class_name": "Dense", "config": {"name": "fully-connected-2", "trainable": true, "dtype": "float32", "units": 500, "activation": "linear", "use_bias": true, "kernel_initializer": {"class_name": "RandomUniform", "config": {"minval": -0.05, "maxval": 0.05, "seed": null}}, "bias_initializer": {"class_name": "Zeros", "config": {}}, "kernel_regularizer": null, "bias_regularizer": null, "activity_regularizer": null, "kernel_constraint": null, "bias_constraint": null}, "inbound_nodes": [[["activation_4", 0, 0, {}]]]}, {"name": "activation_5", "class_name": "Activation", "config": {"name": "activation_5", "trainable": true, "dtype": "float32", "activation": "relu"}, "inbound_nodes": [[["fully-connected-2", 0, 0, {}]]]}, {"name": "output", "class_name": "Dense", "config": {"name": "output", "trainable": true, "dtype": "float32", "units": 10, "activation": "linear", "use_bias": true, "kernel_initializer": {"class_name": "VarianceScaling", "config": {"scale": 1.0, "mode": "fan_avg", "distribution": "uniform", "seed": null}}, "bias_initializer": {"class_name": "Zeros", "config": {}}, "kernel_regularizer": null, "bias_regularizer": null, "activity_regularizer": null, "kernel_constraint": null, "bias_constraint": null}, "inbound_nodes": [[["activation_5", 0, 0, {}]]]}, {"name": "activation_6", "class_name": "Activation", "config": {"name": "activation_6", "trainable": true, "dtype": "float32", "activation": "softmax"}, "inbound_nodes": [[["output", 0, 0, {}]]]}], "input_layers": [["input_37", 0, 0], ["input_38", 0, 0], ["input_39", 0, 0], ["input_40", 0, 0], ["input_41", 0, 0], ["input_42", 0, 0], ["input_43", 0, 0], ["input_44", 0, 0], ["input_45", 0, 0], ["input_46", 0, 0], ["input_47", 0, 0], ["input_48", 0, 0], ["input_49", 0, 0], ["input_50", 0, 0], ["input_51", 0, 0], ["input_52", 0, 0], ["input_53", 0, 0], ["input_54", 0, 0], ["input_55", 0, 0], ["input_56", 0, 0], ["input_57", 0, 0], ["input_58", 0, 0], ["input_59", 0, 0], ["input_60", 0, 0], ["input_61", 0, 0], ["input_62", 0, 0], ["input_63", 0, 0], ["input_64", 0, 0], ["input_65", 0, 0], ["input_66", 0, 0], ["input_67", 0, 0], ["input_68", 0, 0], ["input_69", 0, 0], ["input_70", 0, 0], ["input_71", 0, 0], ["input_72", 0, 0], ["input_73", 0, 0], ["input_74", 0, 0], ["input_75", 0, 0], ["input_76", 0, 0], ["input_77", 0, 0], ["input_78", 0, 0], ["input_79", 0, 0], ["input_80", 0, 0], ["input_81", 0, 0], ["input_82", 0, 0], ["input_83", 0, 0], ["input_84", 0, 0], ["input_85", 0, 0], ["input_86", 0, 0], ["input_87", 0, 0], ["input_88", 0, 0], ["input_89", 0, 0], ["input_90", 0, 0], ["input_91", 0, 0], ["input_92", 0, 0], ["input_93", 0, 0], ["input_94", 0, 0], ["input_95", 0, 0], ["input_96", 0, 0], ["input_97", 0, 0], ["input_98", 0, 0], ["input_99", 0, 0], ["input_100", 0, 0], ["input_101", 0, 0], ["input_102", 0, 0], ["input_103", 0, 0], ["input_104", 0, 0], ["input_105", 0, 0], ["input_106", 0, 0], ["input_107", 0, 0], ["input_108", 0, 0], ["input_109", 0, 0], ["input_110", 0, 0], ["input_111", 0, 0], ["input_112", 0, 0], ["input_113", 0, 0], ["input_114", 0, 0], ["input_115", 0, 0], ["input_116", 0, 0], ["input_117", 0, 0], ["input_118", 0, 0], ["input_119", 0, 0], ["input_120", 0, 0], ["input_121", 0, 0], ["input_122", 0, 0], ["input_123", 0, 0], ["input_124", 0, 0], ["input_125", 0, 0], ["input_126", 0, 0], ["input_127", 0, 0], ["input_128", 0, 0], ["input_129", 0, 0], ["input_130", 0, 0], ["input_131", 0, 0], ["input_132", 0, 0], ["input_133", 0, 0], ["input_134", 0, 0], ["input_135", 0, 0], ["input_136", 0, 0], ["input_137", 0, 0], ["input_138", 0, 0], ["input_139", 0, 0], ["input_140", 0, 0], ["input_141", 0, 0], ["input_142", 0, 0], ["input_143", 0, 0], ["input_144", 0, 0], ["input_145", 0, 0], ["input_146", 0, 0], ["input_147", 0, 0], ["input_148", 0, 0], ["input_149", 0, 0], ["input_150", 0, 0], ["input_151", 0, 0], ["input_152", 0, 0], ["input_153", 0, 0], ["input_154", 0, 0], ["input_155", 0, 0], ["input_156", 0, 0], ["input_157", 0, 0], ["input_158", 0, 0], ["input_159", 0, 0], ["input_160", 0, 0], ["input_161", 0, 0], ["input_162", 0, 0], ["input_163", 0, 0], ["input_164", 0, 0], ["input_165", 0, 0], ["input_166", 0, 0], ["input_167", 0, 0], ["input_168", 0, 0], ["input_169", 0, 0], ["input_170", 0, 0], ["input_171", 0, 0], ["input_172", 0, 0], ["input_173", 0, 0], ["input_174", 0, 0], ["input_175", 0, 0], ["input_176", 0, 0], ["input_177", 0, 0], ["input_178", 0, 0], ["input_179", 0, 0], ["input_180", 0, 0], ["input_181", 0, 0], ["input_182", 0, 0], ["input_183", 0, 0], ["input_184", 0, 0], ["input_185", 0, 0], ["input_186", 0, 0], ["input_187", 0, 0], ["input_188", 0, 0], ["input_189", 0, 0], ["input_190", 0, 0], ["input_191", 0, 0], ["input_192", 0, 0], ["input_193", 0, 0], ["input_194", 0, 0], ["input_195", 0, 0], ["input_196", 0, 0], ["input_197", 0, 0], ["input_198", 0, 0], ["input_199", 0, 0], ["input_200", 0, 0], ["input_201", 0, 0], ["input_202", 0, 0], ["input_203", 0, 0], ["input_204", 0, 0], ["input_205", 0, 0], ["input_206", 0, 0], ["input_207", 0, 0], ["input_208", 0, 0], ["input_209", 0, 0], ["input_210", 0, 0], ["input_211", 0, 0], ["input_212", 0, 0], ["input_213", 0, 0], ["input_214", 0, 0], ["input_215", 0, 0], ["input_216", 0, 0], ["input_217", 0, 0], ["input_218", 0, 0], ["input_219", 0, 0], ["input_220", 0, 0], ["input_221", 0, 0], ["input_222", 0, 0], ["input_223", 0, 0], ["input_224", 0, 0], ["input_225", 0, 0], ["input_226", 0, 0], ["input_227", 0, 0], ["input_228", 0, 0], ["input_229", 0, 0], ["input_230", 0, 0], ["input_231", 0, 0], ["input_232", 0, 0], ["input_233", 0, 0], ["input_234", 0, 0], ["input_235", 0, 0], ["input_236", 0, 0], ["input_237", 0, 0], ["input_238", 0, 0], ["input_239", 0, 0], ["input_240", 0, 0], ["input_241", 0, 0], ["input_242", 0, 0], ["input_243", 0, 0], ["input_244", 0, 0], ["input_245", 0, 0], ["input_246", 0, 0], ["input_247", 0, 0], ["input_248", 0, 0], ["input_249", 0, 0], ["input_250", 0, 0], ["input_251", 0, 0], ["input_252", 0, 0], ["input_253", 0, 0], ["input_254", 0, 0], ["input_255", 0, 0], ["input_256", 0, 0], ["input_257", 0, 0], ["input_258", 0, 0], ["input_259", 0, 0], ["input_260", 0, 0], ["input_261", 0, 0], ["input_262", 0, 0], ["input_263", 0, 0], ["input_264", 0, 0], ["input_265", 0, 0], ["input_266", 0, 0], ["input_267", 0, 0], ["input_268", 0, 0], ["input_269", 0, 0], ["input_270", 0, 0], ["input_271", 0, 0], ["input_272", 0, 0], ["input_273", 0, 0], ["input_274", 0, 0], ["input_275", 0, 0], ["input_276", 0, 0]], "output_layers": [["activation_6", 0, 0]]}, "keras_version": "2.2.5", "backend": "tensorflow"}